…
I0228 19:20:56.504653 23119 net.cpp:322] The NetState phase (0) differed from the phase (1) specified by a rule in layer accuracy
I0228 19:20:56.504797 23119 net.cpp:58] Initializing net from parameters: 
name: "AlexNet"
state {
  phase: TRAIN
  level: 0
  stage: ""
}
layer {
  name: "data"
  type: "Data"
  top: "data"
  top: "label"
  include {
    phase: TRAIN
  }
  transform_param {
    mirror: true
    crop_size: 227
    mean_file: "/home/tjcv/zlchen/Project/AlexNet/disease-dataset/imagenet_mean.binaryproto"
  }
  data_param {
    source: "/home/tjcv/zlchen/Project/caffe/examples/imgsnet/ilsvrc12_train_lmdb"
    batch_size: 16
    backend: LMDB
  }
}
layer {
  name: "conv1"
  type: "Convolution"
  bottom: "data"
  top: "conv1"
  param {
    lr_mult: 1
    decay_mult: 1
  }
  param {
    lr_mult: 2
    decay_mult: 0
  }
  convolution_param {
    num_output: 96
    kernel_size: 11
    stride: 4
    weight_filler {
      type: "gaussian"
      std: 0.01
    }
    bias_filler {
      type: "constant"
      value: 0
    }
  }
}
layer {
  name: "relu1"
  type: "ReLU"
  bottom: "conv1"
  top: "conv1"
}
layer {
  name: "norm1"
  type: "LRN"
  bottom: "conv1"
  top: "norm1"
  lrn_param {
    local_size: 5
    alpha: 0.0001
    beta: 0.75
  }
}
layer {
  name: "pool1"
  type: "Pooling"
  bottom: "norm1"
  top: "pool1"
  pooling_param {
    pool: MAX
    kernel_size: 3
    stride: 2
  }
}
layer {
  name: "conv2"
  type: "Convolution"
  bottom: "pool1"
  top: "conv2"
  param {
    lr_mult: 1
    decay_mult: 1
  }
  param {
    lr_mult: 2
    decay_mult: 0
  }
  convolution_param {
    num_output: 256
    pad: 2
    kernel_size: 5
    group: 2
    weight_filler {
      type: "gaussian"
      std: 0.01
    }
    bias_filler {
      type: "constant"
      value: 0.1
    }
  }
}
layer {
  name: "relu2"
  type: "ReLU"
  bottom: "conv2"
  top: "conv2"
}
layer {
  name: "norm2"
  type: "LRN"
  bottom: "conv2"
  top: "norm2"
  lrn_param {
    local_size: 5
    alpha: 0.0001
    beta: 0.75
  }
}
layer {
  name: "pool2"
  type: "Pooling"
  bottom: "norm2"
  top: "pool2"
  pooling_param {
    pool: MAX
    kernel_size: 3
    stride: 2
  }
}
layer {
  name: "conv3"
  type: "Convolution"
  bottom: "pool2"
  top: "conv3"
  param {
    lr_mult: 1
    decay_mult: 1
  }
  param {
    lr_mult: 2
    decay_mult: 0
  }
  convolution_param {
    num_output: 384
    pad: 1
    kernel_size: 3
    weight_filler {
      type: "gaussian"
      std: 0.01
    }
    bias_filler {
      type: "constant"
      value: 0
    }
  }
}
layer {
  name: "relu3"
  type: "ReLU"
  bottom: "conv3"
  top: "conv3"
}
layer {
  name: "conv4"
  type: "Convolution"
  bottom: "conv3"
  top: "conv4"
  param {
    lr_mult: 1
    decay_mult: 1
  }
  param {
    lr_mult: 2
    decay_mult: 0
  }
  convolution_param {
    num_output: 384
    pad: 1
    kernel_size: 3
    group: 2
    weight_filler {
      type: "gaussian"
      std: 0.01
    }
    bias_filler {
      type: "constant"
      value: 0.1
    }
  }
}
layer {
  name: "relu4"
  type: "ReLU"
  bottom: "conv4"
  top: "conv4"
}
layer {
  name: "conv5"
  type: "Convolution"
  bottom: "conv4"
  top: "conv5"
  param {
    lr_mult: 1
    decay_mult: 1
  }
  param {
    lr_mult: 2
    decay_mult: 0
  }
  convolution_param {
    num_output: 256
    pad: 1
    kernel_size: 3
    group: 2
    weight_filler {
      type: "gaussian"
      std: 0.01
    }
    bias_filler {
      type: "constant"
      value: 0.1
    }
  }
}
layer {
  name: "relu5"
  type: "ReLU"
  bottom: "conv5"
  top: "conv5"
}
layer {
  name: "pool5"
  type: "Pooling"
  bottom: "conv5"
  top: "pool5"
  pooling_param {
    pool: MAX
    kernel_size: 3
    stride: 2
  }
}
layer {
  name: "fc6"
  type: "InnerProduct"
  bottom: "pool5"
  top: "fc6"
  param {
    lr_mult: 1
    decay_mult: 1
  }
  param {
    lr_mult: 2
    decay_mult: 0
  }
  inner_product_param {
    num_output: 4096
    weight_filler {
      type: "gaussian"
      std: 0.005
    }
    bias_filler {
      type: "constant"
      value: 0.1
    }
  }
}
layer {
  name: "relu6"
  type: "ReLU"
  bottom: "fc6"
  top: "fc6"
}
layer {
  name: "drop6"
  type: "Dropout"
  bottom: "fc6"
  top: "fc6"
  dropout_param {
    dropout_ratio: 0.5
  }
}
layer {
  name: "fc7"
  type: "InnerProduct"
  bottom: "fc6"
  top: "fc7"
  param {
    lr_mult: 1
    decay_mult: 1
  }
  param {
    lr_mult: 2
    decay_mult: 0
  }
  inner_product_param {
    num_output: 4096
    weight_filler {
      type: "gaussian"
      std: 0.005
    }
    bias_filler {
      type: "constant"
      value: 0.1
    }
  }
}
layer {
  name: "relu7"
  type: "ReLU"
  bottom: "fc7"
  top: "fc7"
}
layer {
  name: "drop7"
  type: "Dropout"
  bottom: "fc7"
  top: "fc7"
  dropout_param {
    dropout_ratio: 0.5
  }
}
layer {
  name: "fc8"
  type: "InnerProduct"
  bottom: "fc7"
  top: "fc8"
  param {
    lr_mult: 1
    decay_mult: 1
  }
  param {
    lr_mult: 2
    decay_mult: 0
  }
  inner_product_param {
    num_output: 12
    weight_filler {
      type: "gaussian"
      std: 0.01
    }
    bias_filler {
      type: "constant"
      value: 0
    }
  }
}
layer {
  name: "loss"
  type: "SoftmaxWithLoss"
  bottom: "fc8"
  bottom: "label"
  top: "loss"
}
I0228 19:20:56.504892 23119 layer_factory.hpp:77] Creating layer data
I0228 19:20:56.505053 23119 net.cpp:100] Creating Layer data
I0228 19:20:56.505064 23119 net.cpp:408] data -> data
I0228 19:20:56.505086 23119 net.cpp:408] data -> label
I0228 19:20:56.505100 23119 data_transformer.cpp:27] Loading mean file from: /home/tjcv/zlchen/Project/AlexNet/disease-dataset/imagenet_mean.binaryproto
I0228 19:20:56.506072 23135 db_lmdb.cpp:35] Opened lmdb /home/tjcv/zlchen/Project/caffe/examples/imgsnet/ilsvrc12_train_lmdb
I0228 19:20:56.516996 23119 data_layer.cpp:41] output data size: 16,3,227,227
I0228 19:20:56.530206 23119 net.cpp:150] Setting up data
I0228 19:20:56.530236 23119 net.cpp:157] Top shape: 16 3 227 227 (2473392)
I0228 19:20:56.530241 23119 net.cpp:157] Top shape: 16 (16)
I0228 19:20:56.530243 23119 net.cpp:165] Memory required for data: 9893632
I0228 19:20:56.530252 23119 layer_factory.hpp:77] Creating layer conv1
I0228 19:20:56.530273 23119 net.cpp:100] Creating Layer conv1
I0228 19:20:56.530279 23119 net.cpp:434] conv1 <- data
I0228 19:20:56.530292 23119 net.cpp:408] conv1 -> conv1
I0228 19:20:56.974305 23119 net.cpp:150] Setting up conv1
I0228 19:20:56.974334 23119 net.cpp:157] Top shape: 16 96 55 55 (4646400)
I0228 19:20:56.974337 23119 net.cpp:165] Memory required for data: 28479232
I0228 19:20:56.974357 23119 layer_factory.hpp:77] Creating layer relu1
I0228 19:20:56.974368 23119 net.cpp:100] Creating Layer relu1
I0228 19:20:56.974372 23119 net.cpp:434] relu1 <- conv1
I0228 19:20:56.974378 23119 net.cpp:395] relu1 -> conv1 (in-place)
I0228 19:20:56.974539 23119 net.cpp:150] Setting up relu1
I0228 19:20:56.974548 23119 net.cpp:157] Top shape: 16 96 55 55 (4646400)
I0228 19:20:56.974551 23119 net.cpp:165] Memory required for data: 47064832
I0228 19:20:56.974555 23119 layer_factory.hpp:77] Creating layer norm1
I0228 19:20:56.974562 23119 net.cpp:100] Creating Layer norm1
I0228 19:20:56.974565 23119 net.cpp:434] norm1 <- conv1
I0228 19:20:56.974570 23119 net.cpp:408] norm1 -> norm1
I0228 19:20:56.974735 23119 net.cpp:150] Setting up norm1
I0228 19:20:56.974743 23119 net.cpp:157] Top shape: 16 96 55 55 (4646400)
I0228 19:20:56.974764 23119 net.cpp:165] Memory required for data: 65650432
I0228 19:20:56.974767 23119 layer_factory.hpp:77] Creating layer pool1
I0228 19:20:56.974774 23119 net.cpp:100] Creating Layer pool1
I0228 19:20:56.974778 23119 net.cpp:434] pool1 <- norm1
I0228 19:20:56.974782 23119 net.cpp:408] pool1 -> pool1
I0228 19:20:56.974819 23119 net.cpp:150] Setting up pool1
I0228 19:20:56.974826 23119 net.cpp:157] Top shape: 16 96 27 27 (1119744)
I0228 19:20:56.974829 23119 net.cpp:165] Memory required for data: 70129408
I0228 19:20:56.974833 23119 layer_factory.hpp:77] Creating layer conv2
I0228 19:20:56.974843 23119 net.cpp:100] Creating Layer conv2
I0228 19:20:56.974845 23119 net.cpp:434] conv2 <- pool1
I0228 19:20:56.974850 23119 net.cpp:408] conv2 -> conv2
I0228 19:20:56.979488 23119 net.cpp:150] Setting up conv2
I0228 19:20:56.979501 23119 net.cpp:157] Top shape: 16 256 27 27 (2985984)
I0228 19:20:56.979504 23119 net.cpp:165] Memory required for data: 82073344
I0228 19:20:56.979513 23119 layer_factory.hpp:77] Creating layer relu2
I0228 19:20:56.979518 23119 net.cpp:100] Creating Layer relu2
I0228 19:20:56.979521 23119 net.cpp:434] relu2 <- conv2
I0228 19:20:56.979526 23119 net.cpp:395] relu2 -> conv2 (in-place)
I0228 19:20:56.979974 23119 net.cpp:150] Setting up relu2
I0228 19:20:56.979985 23119 net.cpp:157] Top shape: 16 256 27 27 (2985984)
I0228 19:20:56.979988 23119 net.cpp:165] Memory required for data: 94017280
I0228 19:20:56.979991 23119 layer_factory.hpp:77] Creating layer norm2
I0228 19:20:56.979997 23119 net.cpp:100] Creating Layer norm2
I0228 19:20:56.980000 23119 net.cpp:434] norm2 <- conv2
I0228 19:20:56.980005 23119 net.cpp:408] norm2 -> norm2
I0228 19:20:56.980166 23119 net.cpp:150] Setting up norm2
I0228 19:20:56.980175 23119 net.cpp:157] Top shape: 16 256 27 27 (2985984)
I0228 19:20:56.980178 23119 net.cpp:165] Memory required for data: 105961216
I0228 19:20:56.980180 23119 layer_factory.hpp:77] Creating layer pool2
I0228 19:20:56.980187 23119 net.cpp:100] Creating Layer pool2
I0228 19:20:56.980190 23119 net.cpp:434] pool2 <- norm2
I0228 19:20:56.980195 23119 net.cpp:408] pool2 -> pool2
I0228 19:20:56.980221 23119 net.cpp:150] Setting up pool2
I0228 19:20:56.980226 23119 net.cpp:157] Top shape: 16 256 13 13 (692224)
I0228 19:20:56.980229 23119 net.cpp:165] Memory required for data: 108730112
I0228 19:20:56.980232 23119 layer_factory.hpp:77] Creating layer conv3
I0228 19:20:56.980239 23119 net.cpp:100] Creating Layer conv3
I0228 19:20:56.980242 23119 net.cpp:434] conv3 <- pool2
I0228 19:20:56.980247 23119 net.cpp:408] conv3 -> conv3
I0228 19:20:56.988937 23119 net.cpp:150] Setting up conv3
I0228 19:20:56.988960 23119 net.cpp:157] Top shape: 16 384 13 13 (1038336)
I0228 19:20:56.988963 23119 net.cpp:165] Memory required for data: 112883456
I0228 19:20:56.988972 23119 layer_factory.hpp:77] Creating layer relu3
I0228 19:20:56.988978 23119 net.cpp:100] Creating Layer relu3
I0228 19:20:56.988981 23119 net.cpp:434] relu3 <- conv3
I0228 19:20:56.988986 23119 net.cpp:395] relu3 -> conv3 (in-place)
I0228 19:20:56.989140 23119 net.cpp:150] Setting up relu3
I0228 19:20:56.989150 23119 net.cpp:157] Top shape: 16 384 13 13 (1038336)
I0228 19:20:56.989152 23119 net.cpp:165] Memory required for data: 117036800
I0228 19:20:56.989156 23119 layer_factory.hpp:77] Creating layer conv4
I0228 19:20:56.989163 23119 net.cpp:100] Creating Layer conv4
I0228 19:20:56.989166 23119 net.cpp:434] conv4 <- conv3
I0228 19:20:56.989171 23119 net.cpp:408] conv4 -> conv4
I0228 19:20:56.996487 23119 net.cpp:150] Setting up conv4
I0228 19:20:56.996500 23119 net.cpp:157] Top shape: 16 384 13 13 (1038336)
I0228 19:20:56.996520 23119 net.cpp:165] Memory required for data: 121190144
I0228 19:20:56.996526 23119 layer_factory.hpp:77] Creating layer relu4
I0228 19:20:56.996531 23119 net.cpp:100] Creating Layer relu4
I0228 19:20:56.996533 23119 net.cpp:434] relu4 <- conv4
I0228 19:20:56.996537 23119 net.cpp:395] relu4 -> conv4 (in-place)
I0228 19:20:56.997017 23119 net.cpp:150] Setting up relu4
I0228 19:20:56.997030 23119 net.cpp:157] Top shape: 16 384 13 13 (1038336)
I0228 19:20:56.997045 23119 net.cpp:165] Memory required for data: 125343488
I0228 19:20:56.997050 23119 layer_factory.hpp:77] Creating layer conv5
I0228 19:20:56.997057 23119 net.cpp:100] Creating Layer conv5
I0228 19:20:56.997061 23119 net.cpp:434] conv5 <- conv4
I0228 19:20:56.997066 23119 net.cpp:408] conv5 -> conv5
I0228 19:20:57.002717 23119 net.cpp:150] Setting up conv5
I0228 19:20:57.002735 23119 net.cpp:157] Top shape: 16 256 13 13 (692224)
I0228 19:20:57.002739 23119 net.cpp:165] Memory required for data: 128112384
I0228 19:20:57.002753 23119 layer_factory.hpp:77] Creating layer relu5
I0228 19:20:57.002759 23119 net.cpp:100] Creating Layer relu5
I0228 19:20:57.002763 23119 net.cpp:434] relu5 <- conv5
I0228 19:20:57.002770 23119 net.cpp:395] relu5 -> conv5 (in-place)
I0228 19:20:57.002933 23119 net.cpp:150] Setting up relu5
I0228 19:20:57.002941 23119 net.cpp:157] Top shape: 16 256 13 13 (692224)
I0228 19:20:57.002944 23119 net.cpp:165] Memory required for data: 130881280
I0228 19:20:57.002948 23119 layer_factory.hpp:77] Creating layer pool5
I0228 19:20:57.002954 23119 net.cpp:100] Creating Layer pool5
I0228 19:20:57.002956 23119 net.cpp:434] pool5 <- conv5
I0228 19:20:57.002962 23119 net.cpp:408] pool5 -> pool5
I0228 19:20:57.003005 23119 net.cpp:150] Setting up pool5
I0228 19:20:57.003013 23119 net.cpp:157] Top shape: 16 256 6 6 (147456)
I0228 19:20:57.003016 23119 net.cpp:165] Memory required for data: 131471104
I0228 19:20:57.003020 23119 layer_factory.hpp:77] Creating layer fc6
I0228 19:20:57.003027 23119 net.cpp:100] Creating Layer fc6
I0228 19:20:57.003031 23119 net.cpp:434] fc6 <- pool5
I0228 19:20:57.003036 23119 net.cpp:408] fc6 -> fc6
I0228 19:20:57.299099 23119 net.cpp:150] Setting up fc6
I0228 19:20:57.299124 23119 net.cpp:157] Top shape: 16 4096 (65536)
I0228 19:20:57.299127 23119 net.cpp:165] Memory required for data: 131733248
I0228 19:20:57.299136 23119 layer_factory.hpp:77] Creating layer relu6
I0228 19:20:57.299144 23119 net.cpp:100] Creating Layer relu6
I0228 19:20:57.299147 23119 net.cpp:434] relu6 <- fc6
I0228 19:20:57.299154 23119 net.cpp:395] relu6 -> fc6 (in-place)
I0228 19:20:57.299374 23119 net.cpp:150] Setting up relu6
I0228 19:20:57.299382 23119 net.cpp:157] Top shape: 16 4096 (65536)
I0228 19:20:57.299386 23119 net.cpp:165] Memory required for data: 131995392
I0228 19:20:57.299388 23119 layer_factory.hpp:77] Creating layer drop6
I0228 19:20:57.299394 23119 net.cpp:100] Creating Layer drop6
I0228 19:20:57.299397 23119 net.cpp:434] drop6 <- fc6
I0228 19:20:57.299401 23119 net.cpp:395] drop6 -> fc6 (in-place)
I0228 19:20:57.299427 23119 net.cpp:150] Setting up drop6
I0228 19:20:57.299432 23119 net.cpp:157] Top shape: 16 4096 (65536)
I0228 19:20:57.299434 23119 net.cpp:165] Memory required for data: 132257536
I0228 19:20:57.299437 23119 layer_factory.hpp:77] Creating layer fc7
I0228 19:20:57.299443 23119 net.cpp:100] Creating Layer fc7
I0228 19:20:57.299445 23119 net.cpp:434] fc7 <- fc6
I0228 19:20:57.299450 23119 net.cpp:408] fc7 -> fc7
I0228 19:20:57.432845 23119 net.cpp:150] Setting up fc7
I0228 19:20:57.432870 23119 net.cpp:157] Top shape: 16 4096 (65536)
I0228 19:20:57.432873 23119 net.cpp:165] Memory required for data: 132519680
I0228 19:20:57.432883 23119 layer_factory.hpp:77] Creating layer relu7
I0228 19:20:57.432890 23119 net.cpp:100] Creating Layer relu7
I0228 19:20:57.432894 23119 net.cpp:434] relu7 <- fc7
I0228 19:20:57.432900 23119 net.cpp:395] relu7 -> fc7 (in-place)
I0228 19:20:57.433126 23119 net.cpp:150] Setting up relu7
I0228 19:20:57.433135 23119 net.cpp:157] Top shape: 16 4096 (65536)
I0228 19:20:57.433137 23119 net.cpp:165] Memory required for data: 132781824
I0228 19:20:57.433140 23119 layer_factory.hpp:77] Creating layer drop7
I0228 19:20:57.433146 23119 net.cpp:100] Creating Layer drop7
I0228 19:20:57.433149 23119 net.cpp:434] drop7 <- fc7
I0228 19:20:57.433153 23119 net.cpp:395] drop7 -> fc7 (in-place)
I0228 19:20:57.433176 23119 net.cpp:150] Setting up drop7
I0228 19:20:57.433181 23119 net.cpp:157] Top shape: 16 4096 (65536)
I0228 19:20:57.433199 23119 net.cpp:165] Memory required for data: 133043968
I0228 19:20:57.433202 23119 layer_factory.hpp:77] Creating layer fc8
I0228 19:20:57.433208 23119 net.cpp:100] Creating Layer fc8
I0228 19:20:57.433210 23119 net.cpp:434] fc8 <- fc7
I0228 19:20:57.433214 23119 net.cpp:408] fc8 -> fc8
I0228 19:20:57.433662 23119 net.cpp:150] Setting up fc8
I0228 19:20:57.433668 23119 net.cpp:157] Top shape: 16 12 (192)
I0228 19:20:57.433670 23119 net.cpp:165] Memory required for data: 133044736
I0228 19:20:57.433691 23119 layer_factory.hpp:77] Creating layer loss
I0228 19:20:57.433696 23119 net.cpp:100] Creating Layer loss
I0228 19:20:57.433698 23119 net.cpp:434] loss <- fc8
I0228 19:20:57.433701 23119 net.cpp:434] loss <- label
I0228 19:20:57.433707 23119 net.cpp:408] loss -> loss
I0228 19:20:57.433718 23119 layer_factory.hpp:77] Creating layer loss
…
I0228 19:20:57.434717 23119 net.cpp:322] The NetState phase (1) differed from the phase (0) specified by a rule in layer data
I0228 19:20:57.434842 23119 net.cpp:58] Initializing net from parameters: 
name: "AlexNet"
state {
  phase: TEST
}
layer {
  name: "data"
  type: "Data"
  top: "data"
  top: "label"
  include {
    phase: TEST
  }
  transform_param {
    mirror: false
    crop_size: 227
    mean_file: "/home/tjcv/zlchen/Project/AlexNet/disease-dataset/imagenet_mean.binaryproto"
  }
  data_param {
    source: "/home/tjcv/zlchen/Project/caffe/examples/imgsnet/ilsvrc12_val_lmdb"
    batch_size: 50
    backend: LMDB
  }
}
layer {
  name: "conv1"
  type: "Convolution"
  bottom: "data"
  top: "conv1"
  param {
    lr_mult: 1
    decay_mult: 1
  }
  param {
    lr_mult: 2
    decay_mult: 0
  }
  convolution_param {
    num_output: 96
    kernel_size: 11
    stride: 4
    weight_filler {
      type: "gaussian"
      std: 0.01
    }
    bias_filler {
      type: "constant"
      value: 0
    }
  }
}
layer {
  name: "relu1"
  type: "ReLU"
  bottom: "conv1"
  top: "conv1"
}
layer {
  name: "norm1"
  type: "LRN"
  bottom: "conv1"
  top: "norm1"
  lrn_param {
    local_size: 5
    alpha: 0.0001
    beta: 0.75
  }
}
layer {
  name: "pool1"
  type: "Pooling"
  bottom: "norm1"
  top: "pool1"
  pooling_param {
    pool: MAX
    kernel_size: 3
    stride: 2
  }
}
layer {
  name: "conv2"
  type: "Convolution"
  bottom: "pool1"
  top: "conv2"
  param {
    lr_mult: 1
    decay_mult: 1
  }
  param {
    lr_mult: 2
    decay_mult: 0
  }
  convolution_param {
    num_output: 256
    pad: 2
    kernel_size: 5
    group: 2
    weight_filler {
      type: "gaussian"
      std: 0.01
    }
    bias_filler {
      type: "constant"
      value: 0.1
    }
  }
}
layer {
  name: "relu2"
  type: "ReLU"
  bottom: "conv2"
  top: "conv2"
}
layer {
  name: "norm2"
  type: "LRN"
  bottom: "conv2"
  top: "norm2"
  lrn_param {
    local_size: 5
    alpha: 0.0001
    beta: 0.75
  }
}
layer {
  name: "pool2"
  type: "Pooling"
  bottom: "norm2"
  top: "pool2"
  pooling_param {
    pool: MAX
    kernel_size: 3
    stride: 2
  }
}
layer {
  name: "conv3"
  type: "Convolution"
  bottom: "pool2"
  top: "conv3"
  param {
    lr_mult: 1
    decay_mult: 1
  }
  param {
    lr_mult: 2
    decay_mult: 0
  }
  convolution_param {
    num_output: 384
    pad: 1
    kernel_size: 3
    weight_filler {
      type: "gaussian"
      std: 0.01
    }
    bias_filler {
      type: "constant"
      value: 0
    }
  }
}
layer {
  name: "relu3"
  type: "ReLU"
  bottom: "conv3"
  top: "conv3"
}
layer {
  name: "conv4"
  type: "Convolution"
  bottom: "conv3"
  top: "conv4"
  param {
    lr_mult: 1
    decay_mult: 1
  }
  param {
    lr_mult: 2
    decay_mult: 0
  }
  convolution_param {
    num_output: 384
    pad: 1
    kernel_size: 3
    group: 2
    weight_filler {
      type: "gaussian"
      std: 0.01
    }
    bias_filler {
      type: "constant"
      value: 0.1
    }
  }
}
layer {
  name: "relu4"
  type: "ReLU"
  bottom: "conv4"
  top: "conv4"
}
layer {
  name: "conv5"
  type: "Convolution"
  bottom: "conv4"
  top: "conv5"
  param {
    lr_mult: 1
    decay_mult: 1
  }
  param {
    lr_mult: 2
    decay_mult: 0
  }
  convolution_param {
    num_output: 256
    pad: 1
    kernel_size: 3
    group: 2
    weight_filler {
      type: "gaussian"
      std: 0.01
    }
    bias_filler {
      type: "constant"
      value: 0.1
    }
  }
}
layer {
  name: "relu5"
  type: "ReLU"
  bottom: "conv5"
  top: "conv5"
}
layer {
  name: "pool5"
  type: "Pooling"
  bottom: "conv5"
  top: "pool5"
  pooling_param {
    pool: MAX
    kernel_size: 3
    stride: 2
  }
}
layer {
  name: "fc6"
  type: "InnerProduct"
  bottom: "pool5"
  top: "fc6"
  param {
    lr_mult: 1
    decay_mult: 1
  }
  param {
    lr_mult: 2
    decay_mult: 0
  }
  inner_product_param {
    num_output: 4096
    weight_filler {
      type: "gaussian"
      std: 0.005
    }
    bias_filler {
      type: "constant"
      value: 0.1
    }
  }
}
layer {
  name: "relu6"
  type: "ReLU"
  bottom: "fc6"
  top: "fc6"
}
layer {
  name: "drop6"
  type: "Dropout"
  bottom: "fc6"
  top: "fc6"
  dropout_param {
    dropout_ratio: 0.5
  }
}
layer {
  name: "fc7"
  type: "InnerProduct"
  bottom: "fc6"
  top: "fc7"
  param {
    lr_mult: 1
    decay_mult: 1
  }
  param {
    lr_mult: 2
    decay_mult: 0
  }
  inner_product_param {
    num_output: 4096
    weight_filler {
      type: "gaussian"
      std: 0.005
    }
    bias_filler {
      type: "constant"
      value: 0.1
    }
  }
}
layer {
  name: "relu7"
  type: "ReLU"
  bottom: "fc7"
  top: "fc7"
}
layer {
  name: "drop7"
  type: "Dropout"
  bottom: "fc7"
  top: "fc7"
  dropout_param {
    dropout_ratio: 0.5
  }
}
layer {
  name: "fc8"
  type: "InnerProduct"
  bottom: "fc7"
  top: "fc8"
  param {
    lr_mult: 1
    decay_mult: 1
  }
  param {
    lr_mult: 2
    decay_mult: 0
  }
  inner_product_param {
    num_output: 12
    weight_filler {
      type: "gaussian"
      std: 0.01
    }
    bias_filler {
      type: "constant"
      value: 0
    }
  }
}
layer {
  name: "accuracy"
  type: "Accuracy"
  bottom: "fc8"
  bottom: "label"
  top: "accuracy"
  include {
    phase: TEST
  }
}
layer {
  name: "loss"
  type: "SoftmaxWithLoss"
  bottom: "fc8"
  bottom: "label"
  top: "loss"
}
I0228 19:20:57.434924 23119 layer_factory.hpp:77] Creating layer data
I0228 19:20:57.435070 23119 net.cpp:100] Creating Layer data
I0228 19:20:57.435077 23119 net.cpp:408] data -> data
I0228 19:20:57.435083 23119 net.cpp:408] data -> label
I0228 19:20:57.435089 23119 data_transformer.cpp:27] Loading mean file from: /home/tjcv/zlchen/Project/AlexNet/disease-dataset/imagenet_mean.binaryproto
I0228 19:20:57.436496 23137 db_lmdb.cpp:35] Opened lmdb /home/tjcv/zlchen/Project/caffe/examples/imgsnet/ilsvrc12_val_lmdb
I0228 19:20:57.436991 23119 data_layer.cpp:41] output data size: 50,3,227,227
I0228 19:20:57.474414 23119 net.cpp:150] Setting up data
I0228 19:20:57.474440 23119 net.cpp:157] Top shape: 50 3 227 227 (7729350)
I0228 19:20:57.474444 23119 net.cpp:157] Top shape: 50 (50)
I0228 19:20:57.474447 23119 net.cpp:165] Memory required for data: 30917600
I0228 19:20:57.474452 23119 layer_factory.hpp:77] Creating layer label_data_1_split
I0228 19:20:57.474463 23119 net.cpp:100] Creating Layer label_data_1_split
I0228 19:20:57.474467 23119 net.cpp:434] label_data_1_split <- label
I0228 19:20:57.474473 23119 net.cpp:408] label_data_1_split -> label_data_1_split_0
I0228 19:20:57.474483 23119 net.cpp:408] label_data_1_split -> label_data_1_split_1
I0228 19:20:57.474536 23119 net.cpp:150] Setting up label_data_1_split
I0228 19:20:57.474542 23119 net.cpp:157] Top shape: 50 (50)
I0228 19:20:57.474546 23119 net.cpp:157] Top shape: 50 (50)
I0228 19:20:57.474548 23119 net.cpp:165] Memory required for data: 30918000
I0228 19:20:57.474550 23119 layer_factory.hpp:77] Creating layer conv1
I0228 19:20:57.474561 23119 net.cpp:100] Creating Layer conv1
I0228 19:20:57.474565 23119 net.cpp:434] conv1 <- data
I0228 19:20:57.474568 23119 net.cpp:408] conv1 -> conv1
I0228 19:20:57.478508 23119 net.cpp:150] Setting up conv1
I0228 19:20:57.478529 23119 net.cpp:157] Top shape: 50 96 55 55 (14520000)
I0228 19:20:57.478533 23119 net.cpp:165] Memory required for data: 88998000
I0228 19:20:57.478544 23119 layer_factory.hpp:77] Creating layer relu1
I0228 19:20:57.478552 23119 net.cpp:100] Creating Layer relu1
I0228 19:20:57.478556 23119 net.cpp:434] relu1 <- conv1
I0228 19:20:57.478561 23119 net.cpp:395] relu1 -> conv1 (in-place)
I0228 19:20:57.478731 23119 net.cpp:150] Setting up relu1
I0228 19:20:57.478739 23119 net.cpp:157] Top shape: 50 96 55 55 (14520000)
I0228 19:20:57.478742 23119 net.cpp:165] Memory required for data: 147078000
I0228 19:20:57.478745 23119 layer_factory.hpp:77] Creating layer norm1
I0228 19:20:57.478754 23119 net.cpp:100] Creating Layer norm1
I0228 19:20:57.478756 23119 net.cpp:434] norm1 <- conv1
I0228 19:20:57.478760 23119 net.cpp:408] norm1 -> norm1
I0228 19:20:57.478929 23119 net.cpp:150] Setting up norm1
I0228 19:20:57.478936 23119 net.cpp:157] Top shape: 50 96 55 55 (14520000)
I0228 19:20:57.478940 23119 net.cpp:165] Memory required for data: 205158000
I0228 19:20:57.478942 23119 layer_factory.hpp:77] Creating layer pool1
I0228 19:20:57.478958 23119 net.cpp:100] Creating Layer pool1
I0228 19:20:57.478960 23119 net.cpp:434] pool1 <- norm1
I0228 19:20:57.478965 23119 net.cpp:408] pool1 -> pool1
I0228 19:20:57.478993 23119 net.cpp:150] Setting up pool1
I0228 19:20:57.478998 23119 net.cpp:157] Top shape: 50 96 27 27 (3499200)
I0228 19:20:57.479001 23119 net.cpp:165] Memory required for data: 219154800
I0228 19:20:57.479003 23119 layer_factory.hpp:77] Creating layer conv2
I0228 19:20:57.479012 23119 net.cpp:100] Creating Layer conv2
I0228 19:20:57.479015 23119 net.cpp:434] conv2 <- pool1
I0228 19:20:57.479019 23119 net.cpp:408] conv2 -> conv2
I0228 19:20:57.483166 23119 net.cpp:150] Setting up conv2
I0228 19:20:57.483191 23119 net.cpp:157] Top shape: 50 256 27 27 (9331200)
I0228 19:20:57.483217 23119 net.cpp:165] Memory required for data: 256479600
I0228 19:20:57.483230 23119 layer_factory.hpp:77] Creating layer relu2
I0228 19:20:57.483239 23119 net.cpp:100] Creating Layer relu2
I0228 19:20:57.483244 23119 net.cpp:434] relu2 <- conv2
I0228 19:20:57.483250 23119 net.cpp:395] relu2 -> conv2 (in-place)
I0228 19:20:57.483821 23119 net.cpp:150] Setting up relu2
I0228 19:20:57.483837 23119 net.cpp:157] Top shape: 50 256 27 27 (9331200)
I0228 19:20:57.483840 23119 net.cpp:165] Memory required for data: 293804400
I0228 19:20:57.483844 23119 layer_factory.hpp:77] Creating layer norm2
I0228 19:20:57.483855 23119 net.cpp:100] Creating Layer norm2
I0228 19:20:57.483860 23119 net.cpp:434] norm2 <- conv2
I0228 19:20:57.483865 23119 net.cpp:408] norm2 -> norm2
I0228 19:20:57.484056 23119 net.cpp:150] Setting up norm2
I0228 19:20:57.484064 23119 net.cpp:157] Top shape: 50 256 27 27 (9331200)
I0228 19:20:57.484067 23119 net.cpp:165] Memory required for data: 331129200
I0228 19:20:57.484071 23119 layer_factory.hpp:77] Creating layer pool2
I0228 19:20:57.484076 23119 net.cpp:100] Creating Layer pool2
I0228 19:20:57.484079 23119 net.cpp:434] pool2 <- norm2
I0228 19:20:57.484083 23119 net.cpp:408] pool2 -> pool2
I0228 19:20:57.484112 23119 net.cpp:150] Setting up pool2
I0228 19:20:57.484118 23119 net.cpp:157] Top shape: 50 256 13 13 (2163200)
I0228 19:20:57.484122 23119 net.cpp:165] Memory required for data: 339782000
I0228 19:20:57.484123 23119 layer_factory.hpp:77] Creating layer conv3
I0228 19:20:57.484133 23119 net.cpp:100] Creating Layer conv3
I0228 19:20:57.484136 23119 net.cpp:434] conv3 <- pool2
I0228 19:20:57.484140 23119 net.cpp:408] conv3 -> conv3
I0228 19:20:57.493564 23119 net.cpp:150] Setting up conv3
I0228 19:20:57.493587 23119 net.cpp:157] Top shape: 50 384 13 13 (3244800)
I0228 19:20:57.493590 23119 net.cpp:165] Memory required for data: 352761200
I0228 19:20:57.493603 23119 layer_factory.hpp:77] Creating layer relu3
I0228 19:20:57.493611 23119 net.cpp:100] Creating Layer relu3
I0228 19:20:57.493615 23119 net.cpp:434] relu3 <- conv3
I0228 19:20:57.493623 23119 net.cpp:395] relu3 -> conv3 (in-place)
I0228 19:20:57.493773 23119 net.cpp:150] Setting up relu3
I0228 19:20:57.493782 23119 net.cpp:157] Top shape: 50 384 13 13 (3244800)
I0228 19:20:57.493784 23119 net.cpp:165] Memory required for data: 365740400
I0228 19:20:57.493788 23119 layer_factory.hpp:77] Creating layer conv4
I0228 19:20:57.493798 23119 net.cpp:100] Creating Layer conv4
I0228 19:20:57.493800 23119 net.cpp:434] conv4 <- conv3
I0228 19:20:57.493804 23119 net.cpp:408] conv4 -> conv4
I0228 19:20:57.507297 23119 net.cpp:150] Setting up conv4
I0228 19:20:57.507328 23119 net.cpp:157] Top shape: 50 384 13 13 (3244800)
I0228 19:20:57.507334 23119 net.cpp:165] Memory required for data: 378719600
I0228 19:20:57.507349 23119 layer_factory.hpp:77] Creating layer relu4
I0228 19:20:57.507362 23119 net.cpp:100] Creating Layer relu4
I0228 19:20:57.507369 23119 net.cpp:434] relu4 <- conv4
I0228 19:20:57.507378 23119 net.cpp:395] relu4 -> conv4 (in-place)
I0228 19:20:57.508195 23119 net.cpp:150] Setting up relu4
I0228 19:20:57.508215 23119 net.cpp:157] Top shape: 50 384 13 13 (3244800)
I0228 19:20:57.508220 23119 net.cpp:165] Memory required for data: 391698800
I0228 19:20:57.508225 23119 layer_factory.hpp:77] Creating layer conv5
I0228 19:20:57.508241 23119 net.cpp:100] Creating Layer conv5
I0228 19:20:57.508249 23119 net.cpp:434] conv5 <- conv4
I0228 19:20:57.508256 23119 net.cpp:408] conv5 -> conv5
I0228 19:20:57.518496 23119 net.cpp:150] Setting up conv5
I0228 19:20:57.518519 23119 net.cpp:157] Top shape: 50 256 13 13 (2163200)
I0228 19:20:57.518523 23119 net.cpp:165] Memory required for data: 400351600
I0228 19:20:57.518538 23119 layer_factory.hpp:77] Creating layer relu5
I0228 19:20:57.518548 23119 net.cpp:100] Creating Layer relu5
I0228 19:20:57.518553 23119 net.cpp:434] relu5 <- conv5
I0228 19:20:57.518558 23119 net.cpp:395] relu5 -> conv5 (in-place)
I0228 19:20:57.518739 23119 net.cpp:150] Setting up relu5
I0228 19:20:57.518751 23119 net.cpp:157] Top shape: 50 256 13 13 (2163200)
I0228 19:20:57.518774 23119 net.cpp:165] Memory required for data: 409004400
I0228 19:20:57.518779 23119 layer_factory.hpp:77] Creating layer pool5
I0228 19:20:57.518790 23119 net.cpp:100] Creating Layer pool5
I0228 19:20:57.518796 23119 net.cpp:434] pool5 <- conv5
I0228 19:20:57.518801 23119 net.cpp:408] pool5 -> pool5
I0228 19:20:57.518851 23119 net.cpp:150] Setting up pool5
I0228 19:20:57.518857 23119 net.cpp:157] Top shape: 50 256 6 6 (460800)
I0228 19:20:57.518860 23119 net.cpp:165] Memory required for data: 410847600
I0228 19:20:57.518863 23119 layer_factory.hpp:77] Creating layer fc6
I0228 19:20:57.518873 23119 net.cpp:100] Creating Layer fc6
I0228 19:20:57.518877 23119 net.cpp:434] fc6 <- pool5
I0228 19:20:57.518882 23119 net.cpp:408] fc6 -> fc6
I0228 19:20:57.834416 23119 net.cpp:150] Setting up fc6
I0228 19:20:57.834441 23119 net.cpp:157] Top shape: 50 4096 (204800)
I0228 19:20:57.834444 23119 net.cpp:165] Memory required for data: 411666800
I0228 19:20:57.834453 23119 layer_factory.hpp:77] Creating layer relu6
I0228 19:20:57.834461 23119 net.cpp:100] Creating Layer relu6
I0228 19:20:57.834465 23119 net.cpp:434] relu6 <- fc6
I0228 19:20:57.834471 23119 net.cpp:395] relu6 -> fc6 (in-place)
I0228 19:20:57.834688 23119 net.cpp:150] Setting up relu6
I0228 19:20:57.834697 23119 net.cpp:157] Top shape: 50 4096 (204800)
I0228 19:20:57.834700 23119 net.cpp:165] Memory required for data: 412486000
I0228 19:20:57.834702 23119 layer_factory.hpp:77] Creating layer drop6
I0228 19:20:57.834708 23119 net.cpp:100] Creating Layer drop6
I0228 19:20:57.834712 23119 net.cpp:434] drop6 <- fc6
I0228 19:20:57.834715 23119 net.cpp:395] drop6 -> fc6 (in-place)
I0228 19:20:57.834740 23119 net.cpp:150] Setting up drop6
I0228 19:20:57.834746 23119 net.cpp:157] Top shape: 50 4096 (204800)
I0228 19:20:57.834748 23119 net.cpp:165] Memory required for data: 413305200
I0228 19:20:57.834751 23119 layer_factory.hpp:77] Creating layer fc7
I0228 19:20:57.834758 23119 net.cpp:100] Creating Layer fc7
I0228 19:20:57.834759 23119 net.cpp:434] fc7 <- fc6
I0228 19:20:57.834764 23119 net.cpp:408] fc7 -> fc7
I0228 19:20:57.967852 23119 net.cpp:150] Setting up fc7
I0228 19:20:57.967876 23119 net.cpp:157] Top shape: 50 4096 (204800)
I0228 19:20:57.967880 23119 net.cpp:165] Memory required for data: 414124400
I0228 19:20:57.967888 23119 layer_factory.hpp:77] Creating layer relu7
I0228 19:20:57.967897 23119 net.cpp:100] Creating Layer relu7
I0228 19:20:57.967901 23119 net.cpp:434] relu7 <- fc7
I0228 19:20:57.967907 23119 net.cpp:395] relu7 -> fc7 (in-place)
I0228 19:20:57.968138 23119 net.cpp:150] Setting up relu7
I0228 19:20:57.968147 23119 net.cpp:157] Top shape: 50 4096 (204800)
I0228 19:20:57.968150 23119 net.cpp:165] Memory required for data: 414943600
I0228 19:20:57.968152 23119 layer_factory.hpp:77] Creating layer drop7
I0228 19:20:57.968158 23119 net.cpp:100] Creating Layer drop7
I0228 19:20:57.968161 23119 net.cpp:434] drop7 <- fc7
I0228 19:20:57.968165 23119 net.cpp:395] drop7 -> fc7 (in-place)
I0228 19:20:57.968189 23119 net.cpp:150] Setting up drop7
I0228 19:20:57.968195 23119 net.cpp:157] Top shape: 50 4096 (204800)
I0228 19:20:57.968199 23119 net.cpp:165] Memory required for data: 415762800
I0228 19:20:57.968200 23119 layer_factory.hpp:77] Creating layer fc8
I0228 19:20:57.968206 23119 net.cpp:100] Creating Layer fc8
I0228 19:20:57.968209 23119 net.cpp:434] fc8 <- fc7
I0228 19:20:57.968212 23119 net.cpp:408] fc8 -> fc8
I0228 19:20:57.968674 23119 net.cpp:150] Setting up fc8
I0228 19:20:57.968681 23119 net.cpp:157] Top shape: 50 12 (600)
I0228 19:20:57.968683 23119 net.cpp:165] Memory required for data: 415765200
I0228 19:20:57.968688 23119 layer_factory.hpp:77] Creating layer fc8_fc8_0_split
I0228 19:20:57.968693 23119 net.cpp:100] Creating Layer fc8_fc8_0_split
I0228 19:20:57.968695 23119 net.cpp:434] fc8_fc8_0_split <- fc8
I0228 19:20:57.968699 23119 net.cpp:408] fc8_fc8_0_split -> fc8_fc8_0_split_0
I0228 19:20:57.968704 23119 net.cpp:408] fc8_fc8_0_split -> fc8_fc8_0_split_1
I0228 19:20:57.968767 23119 net.cpp:150] Setting up fc8_fc8_0_split
I0228 19:20:57.968772 23119 net.cpp:157] Top shape: 50 12 (600)
I0228 19:20:57.968775 23119 net.cpp:157] Top shape: 50 12 (600)
I0228 19:20:57.968778 23119 net.cpp:165] Memory required for data: 415770000
I0228 19:20:57.968780 23119 layer_factory.hpp:77] Creating layer accuracy
I0228 19:20:57.968786 23119 net.cpp:100] Creating Layer accuracy
I0228 19:20:57.968788 23119 net.cpp:434] accuracy <- fc8_fc8_0_split_0
I0228 19:20:57.968792 23119 net.cpp:434] accuracy <- label_data_1_split_0
I0228 19:20:57.968796 23119 net.cpp:408] accuracy -> accuracy
…
