…
I0305 12:07:03.948143 16077 net.cpp:322] The NetState phase (0) differed from the phase (1) specified by a rule in layer loss/top-5
I0305 12:07:03.950295 16077 net.cpp:58] Initializing net from parameters: 
state {
  phase: TRAIN
  level: 0
  stage: ""
}
layer {
  name: "data"
  type: "Data"
  top: "data"
  top: "label"
  include {
    phase: TRAIN
  }
  transform_param {
    mirror: true
    crop_size: 299
    mean_file: "/home/tjcv/zlchen/Project/caffe/examples/imgsnet/Inception_v4/imagenet_mean.binaryproto"
  }
  data_param {
    source: "/home/tjcv/zlchen/Project/caffe/examples/imgsnet/Inception_v4/ilsvrc12_train_lmdb"
    batch_size: 8
    backend: LMDB
  }
}
layer {
  name: "stem_conv1_3x3"
  type: "Convolution"
  bottom: "data"
  top: "stem_conv1_3x3"
  param {
    lr_mult: 1
    decay_mult: 1
  }
  param {
    lr_mult: 2
    decay_mult: 0
  }
  convolution_param {
    num_output: 32
    pad: 0
    kernel_size: 3
    stride: 2
    weight_filler {
      type: "xavier"
      std: 0.01
    }
    bias_filler {
      type: "constant"
      value: 0.2
    }
  }
}
layer {
  name: "stem_conv1_3x3_bn"
  type: "BatchNorm"
  bottom: "stem_conv1_3x3"
  top: "stem_conv1_3x3"
  batch_norm_param {
    use_global_stats: false
  }
}
layer {
  name: "stem_conv1_3x3_relu"
  type: "ReLU"
  bottom: "stem_conv1_3x3"
  top: "stem_conv1_3x3"
}
layer {
  name: "stem_conv2_3x3"
  type: "Convolution"
  bottom: "stem_conv1_3x3"
  top: "stem_conv2_3x3"
  param {
    lr_mult: 1
    decay_mult: 1
  }
  param {
    lr_mult: 2
    decay_mult: 0
  }
  convolution_param {
    num_output: 32
    pad: 0
    kernel_size: 3
    stride: 1
    weight_filler {
      type: "xavier"
      std: 0.01
    }
    bias_filler {
      type: "constant"
      value: 0.2
    }
  }
}
layer {
  name: "stem_conv2_3x3_bn"
  type: "BatchNorm"
  bottom: "stem_conv2_3x3"
  top: "stem_conv2_3x3"
  batch_norm_param {
    use_global_stats: false
  }
}
layer {
  name: "stem_conv2_3x3_relu"
  type: "ReLU"
  bottom: "stem_conv2_3x3"
  top: "stem_conv2_3x3"
}
layer {
  name: "stem_conv3_3x3"
  type: "Convolution"
  bottom: "stem_conv2_3x3"
  top: "stem_conv3_3x3"
  param {
    lr_mult: 1
    decay_mult: 1
  }
  param {
    lr_mult: 2
    decay_mult: 0
  }
  convolution_param {
    num_output: 64
    pad: 1
    kernel_size: 3
    stride: 1
    weight_filler {
      type: "xavier"
      std: 0.01
    }
    bias_filler {
      type: "constant"
      value: 0.2
    }
  }
}
layer {
  name: "stem_conv3_3x3_bn"
  type: "BatchNorm"
  bottom: "stem_conv3_3x3"
  top: "stem_conv3_3x3"
  batch_norm_param {
    use_global_stats: false
  }
}
layer {
  name: "stem_conv3_3x3_relu"
  type: "ReLU"
  bottom: "stem_conv3_3x3"
  top: "stem_conv3_3x3"
}
layer {
  name: "stem_inception1_pool"
  type: "Pooling"
  bottom: "stem_conv3_3x3"
  top: "stem_inception1_pool"
  pooling_param {
    pool: MAX
    kernel_size: 3
    stride: 2
  }
}
layer {
  name: "stem_inception1_conv_3x3"
  type: "Convolution"
  bottom: "stem_conv3_3x3"
  top: "stem_inception1_conv_3x3"
  param {
    lr_mult: 1
    decay_mult: 1
  }
  param {
    lr_mult: 2
    decay_mult: 0
  }
  convolution_param {
    num_output: 96
    pad: 0
    kernel_size: 3
    stride: 2
    weight_filler {
      type: "xavier"
      std: 0.01
    }
    bias_filler {
      type: "constant"
      value: 0.2
    }
  }
}
layer {
  name: "stem_inception1_conv_3x3_bn"
  type: "BatchNorm"
  bottom: "stem_inception1_conv_3x3"
  top: "stem_inception1_conv_3x3"
  batch_norm_param {
    use_global_stats: false
  }
}
layer {
  name: "stem_inception1_conv_3x3_relu"
  type: "ReLU"
  bottom: "stem_inception1_conv_3x3"
  top: "stem_inception1_conv_3x3"
}
layer {
  name: "stem_inception1_concat"
  type: "Concat"
  bottom: "stem_inception1_pool"
  bottom: "stem_inception1_conv_3x3"
  top: "stem_inception1_concat"
}
layer {
  name: "stem_inception2_conv1_1_1x1"
  type: "Convolution"
  bottom: "stem_inception1_concat"
  top: "stem_inception2_conv1_1_1x1"
  param {
    lr_mult: 1
    decay_mult: 1
  }
  param {
    lr_mult: 2
    decay_mult: 0
  }
  convolution_param {
    num_output: 64
    pad: 0
    kernel_size: 1
    stride: 1
    weight_filler {
      type: "xavier"
      std: 0.01
    }
    bias_filler {
      type: "constant"
      value: 0.2
    }
  }
}
layer {
  name: "stem_inception2_conv1_1_1x1_bn"
  type: "BatchNorm"
  bottom: "stem_inception2_conv1_1_1x1"
  top: "stem_inception2_conv1_1_1x1"
  batch_norm_param {
    use_global_stats: false
  }
}
layer {
  name: "stem_inception2_conv1_1_1x1_relu"
  type: "ReLU"
  bottom: "stem_inception2_conv1_1_1x1"
  top: "stem_inception2_conv1_1_1x1"
}
layer {
  name: "stem_inception2_conv1_2_3x3"
  type: "Convolution"
  bottom: "stem_inception2_conv1_1_1x1"
  top: "stem_inception2_conv1_2_3x3"
  param {
    lr_mult: 1
    decay_mult: 1
  }
  param {
    lr_mult: 2
    decay_mult: 0
  }
  convolution_param {
    num_output: 96
    pad: 0
    kernel_size: 3
    stride: 1
    weight_filler {
      type: "xavier"
      std: 0.01
    }
    bias_filler {
      type: "constant"
      value: 0.2
    }
  }
}
layer {
  name: "stem_inception2_conv1_2_3x3_bn"
  type: "BatchNorm"
  bottom: "stem_inception2_conv1_2_3x3"
  top: "stem_inception2_conv1_2_3x3"
  batch_norm_param {
    use_global_stats: false
  }
}
layer {
  name: "stem_inception2_conv1_2_3x3_relu"
  type: "ReLU"
  bottom: "stem_inception2_conv1_2_3x3"
  top: "stem_inception2_conv1_2_3x3"
}
layer {
  name: "stem_inception2_conv2_1_1x1"
  type: "Convolution"
  bottom: "stem_inception1_concat"
  top: "stem_inception2_conv2_1_1x1"
  param {
    lr_mult: 1
    decay_mult: 1
  }
  param {
    lr_mult: 2
    decay_mult: 0
  }
  convolution_param {
    num_output: 64
    pad: 0
    kernel_size: 1
    stride: 1
    weight_filler {
      type: "xavier"
      std: 0.01
    }
    bias_filler {
      type: "constant"
      value: 0.2
    }
  }
}
layer {
  name: "stem_inception2_conv2_1_1x1_bn"
  type: "BatchNorm"
  bottom: "stem_inception2_conv2_1_1x1"
  top: "stem_inception2_conv2_1_1x1"
  batch_norm_param {
    use_global_stats: false
  }
}
layer {
  name: "stem_inception2_conv2_1_1x1_relu"
  type: "ReLU"
  bottom: "stem_inception2_conv2_1_1x1"
  top: "stem_inception2_conv2_1_1x1"
}
layer {
  name: "stem_inception2_conv2_2_7x1"
  type: "Convolution"
  bottom: "stem_inception2_conv2_1_1x1"
  top: "stem_inception2_conv2_2_7x1"
  param {
    lr_mult: 1
    decay_mult: 1
  }
  param {
    lr_mult: 2
    decay_mult: 0
  }
  convolution_param {
    num_output: 64
    stride: 1
    weight_filler {
      type: "xavier"
      std: 0.01
    }
    bias_filler {
      type: "constant"
      value: 0.2
    }
    pad_h: 3
    pad_w: 0
    kernel_h: 7
    kernel_w: 1
  }
}
layer {
  name: "stem_inception2_conv2_2_7x1_bn"
  type: "BatchNorm"
  bottom: "stem_inception2_conv2_2_7x1"
  top: "stem_inception2_conv2_2_7x1"
  batch_norm_param {
    use_global_stats: false
  }
}
layer {
  name: "stem_inception2_conv2_2_7x1_relu"
  type: "ReLU"
  bottom: "stem_inception2_conv2_2_7x1"
  top: "stem_inception2_conv2_2_7x1"
}
layer {
  name: "stem_inception2_conv2_3_1x7"
  type: "Convolution"
  bottom: "stem_inception2_conv2_2_7x1"
  top: "stem_inception2_conv2_3_1x7"
  param {
    lr_mult: 1
    decay_mult: 1
  }
  param {
    lr_mult: 2
    decay_mult: 0
  }
  convolution_param {
    num_output: 64
    stride: 1
    weight_filler {
      type: "xavier"
      std: 0.01
    }
    bias_filler {
      type: "constant"
      value: 0.2
    }
    pad_h: 0
    pad_w: 3
    kernel_h: 1
    kernel_w: 7
  }
}
layer {
  name: "stem_inception2_conv2_3_1x7_bn"
  type: "BatchNorm"
  bottom: "stem_inception2_conv2_3_1x7"
  top: "stem_inception2_conv2_3_1x7"
  batch_norm_param {
    use_global_stats: false
  }
}
layer {
  name: "stem_inception2_conv2_3_1x7_relu"
  type: "ReLU"
  bottom: "stem_inception2_conv2_3_1x7"
  top: "stem_inception2_conv2_3_1x7"
}
layer {
  name: "stem_inception2_conv2_4_3x3"
  type: "Convolution"
  bottom: "stem_inception2_conv2_3_1x7"
  top: "stem_inception2_conv2_4_3x3"
  param {
    lr_mult: 1
    decay_mult: 1
  }
  param {
    lr_mult: 2
    decay_mult: 0
  }
  convolution_param {
    num_output: 96
    pad: 0
    kernel_size: 3
    stride: 1
    weight_filler {
      type: "xavier"
      std: 0.01
    }
    bias_filler {
      type: "constant"
      value: 0.2
    }
  }
}
layer {
  name: "stem_inception2_conv2_4_3x3_bn"
  type: "BatchNorm"
  bottom: "stem_inception2_conv2_4_3x3"
  top: "stem_inception2_conv2_4_3x3"
  batch_norm_param {
    use_global_stats: false
  }
}
layer {
  name: "stem_inception2_conv2_4_3x3_relu"
  type: "ReLU"
  bottom: "stem_inception2_conv2_4_3x3"
  top: "stem_inception2_conv2_4_3x3"
}
layer {
  name: "stem_inception2_concat"
  type: "Concat"
  bottom: "stem_inception2_conv1_2_3x3"
  bottom: "stem_inception2_conv2_4_3x3"
  top: "stem_inception2_concat"
}
layer {
  name: "stem_inception3_conv_3x3"
  type: "Convolution"
  bottom: "stem_inception2_concat"
  top: "stem_inception3_conv_3x3"
  param {
    lr_mult: 1
    decay_mult: 1
  }
  param {
    lr_mult: 2
    decay_mult: 0
  }
  convolution_param {
    num_output: 192
    pad: 0
    kernel_size: 3
    stride: 2
    weight_filler {
      type: "xavier"
      std: 0.01
    }
    bias_filler {
      type: "constant"
      value: 0.2
    }
  }
}
layer {
  name: "stem_inception3_conv_3x3_bn"
  type: "BatchNorm"
  bottom: "stem_inception3_conv_3x3"
  top: "stem_inception3_conv_3x3"
  batch_norm_param {
    use_global_stats: false
  }
}
layer {
  name: "stem_inception3_conv_3x3_relu"
  type: "ReLU"
  bottom: "stem_inception3_conv_3x3"
  top: "stem_inception3_conv_3x3"
}
layer {
  name: "stem_inception3_pool"
  type: "Pooling"
  bottom: "stem_inception2_concat"
  top: "stem_inception3_pool"
  pooling_param {
    pool: MAX
    kernel_size: 3
    stride: 2
  }
}
layer {
  name: "stem_inception3_concat"
  type: "Concat"
  bottom: "stem_inception3_conv_3x3"
  bottom: "stem_inception3_pool"
  top: "stem_inception3_concat"
}
layer {
  name: "inception_a1_pool"
  type: "Pooling"
  bottom: "stem_inception3_concat"
  top: "inception_a1_pool"
  pooling_param {
    pool: AVE
    kernel_size: 3
    stride: 1
    pad: 1
  }
}
layer {
  name: "inception_a1_conv1_1_1x1"
  type: "Convolution"
  bottom: "inception_a1_pool"
  top: "inception_a1_conv1_1_1x1"
  param {
    lr_mult: 1
    decay_mult: 1
  }
  param {
    lr_mult: 2
    decay_mult: 0
  }
  convolution_param {
    num_output: 96
    pad: 0
    kernel_size: 1
    stride: 1
    weight_filler {
      type: "xavier"
      std: 0.01
    }
    bias_filler {
      type: "constant"
      value: 0.2
    }
  }
}
layer {
  name: "inception_a1_conv1_1_1x1_bn"
  type: "BatchNorm"
  bottom: "inception_a1_conv1_1_1x1"
  top: "inception_a1_conv1_1_1x1"
  batch_norm_param {
    use_global_stats: false
  }
}
layer {
  name: "inception_a1_conv1_1_1x1_relu"
  type: "ReLU"
  bottom: "inception_a1_conv1_1_1x1"
  top: "inception_a1_conv1_1_1x1"
}
layer {
  name: "inception_a1_conv2_1_1x1"
  type: "Convolution"
  bottom: "stem_inception3_concat"
  top: "inception_a1_conv2_1_1x1"
  param {
    lr_mult: 1
    decay_mult: 1
  }
  param {
    lr_mult: 2
    decay_mult: 0
  }
  convolution_param {
    num_output: 96
    pad: 0
    kernel_size: 1
    stride: 1
    weight_filler {
      type: "xavier"
      std: 0.01
    }
    bias_filler {
      type: "constant"
      value: 0.2
    }
  }
}
layer {
  name: "inception_a1_conv2_1_1x1_bn"
  type: "BatchNorm"
  bottom: "inception_a1_conv2_1_1x1"
  top: "inception_a1_conv2_1_1x1"
  batch_norm_param {
    use_global_stats: false
  }
}
layer {
  name: "inception_a1_conv2_1_1x1_relu"
  type: "ReLU"
  bottom: "inception_a1_conv2_1_1x1"
  top: "inception_a1_conv2_1_1x1"
}
layer {
  name: "inception_a1_conv3_1_1x1"
  type: "Convolution"
  bottom: "stem_inception3_concat"
  top: "inception_a1_conv3_1_1x1"
  param {
    lr_mult: 1
    decay_mult: 1
  }
  param {
    lr_mult: 2
    decay_mult: 0
  }
  convolution_param {
    num_output: 64
    pad: 0
    kernel_size: 1
    stride: 1
    weight_filler {
      type: "xavier"
      std: 0.01
    }
    bias_filler {
      type: "constant"
      value: 0.2
    }
  }
}
layer {
  name: "inception_a1_conv3_1_1x1_bn"
  type: "BatchNorm"
  bottom: "inception_a1_conv3_1_1x1"
  top: "inception_a1_conv3_1_1x1"
  batch_norm_param {
    use_global_stats: false
  }
}
layer {
  name: "inception_a1_conv3_1_1x1_relu"
  type: "ReLU"
  bottom: "inception_a1_conv3_1_1x1"
  top: "inception_a1_conv3_1_1x1"
}
layer {
  name: "inception_a1_conv3_2_3x3"
  type: "Convolution"
  bottom: "inception_a1_conv3_1_1x1"
  top: "inception_a1_conv3_2_3x3"
  param {
    lr_mult: 1
    decay_mult: 1
  }
  param {
    lr_mult: 2
    decay_mult: 0
  }
  convolution_param {
    num_output: 96
    pad: 1
    kernel_size: 3
    stride: 1
    weight_filler {
      type: "xavier"
      std: 0.01
    }
    bias_filler {
      type: "constant"
      value: 0.2
    }
  }
}
layer {
  name: "inception_a1_conv3_2_3x3_bn"
  type: "BatchNorm"
  bottom: "inception_a1_conv3_2_3x3"
  top: "inception_a1_conv3_2_3x3"
  batch_norm_param {
    use_global_stats: false
  }
}
layer {
  name: "inception_a1_conv3_2_3x3_relu"
  type: "ReLU"
  bottom: "inception_a1_conv3_2_3x3"
  top: "inception_a1_conv3_2_3x3"
}
layer {
  name: "inception_a1_conv4_1_1x1"
  type: "Convolution"
  bottom: "stem_inception3_concat"
  top: "inception_a1_conv4_1_1x1"
  param {
    lr_mult: 1
    decay_mult: 1
  }
  param {
    lr_mult: 2
    decay_mult: 0
  }
  convolution_param {
    num_output: 64
    pad: 0
    kernel_size: 1
    stride: 1
    weight_filler {
      type: "xavier"
      std: 0.01
    }
    bias_filler {
      type: "constant"
      value: 0.2
    }
  }
}
layer {
  name: "inception_a1_conv4_1_1x1_bn"
  type: "BatchNorm"
  bottom: "inception_a1_conv4_1_1x1"
  top: "inception_a1_conv4_1_1x1"
  batch_norm_param {
    use_global_stats: false
  }
}
layer {
  name: "inception_a1_conv4_1_1x1_relu"
  type: "ReLU"
  bottom: "inception_a1_conv4_1_1x1"
  top: "inception_a1_conv4_1_1x1"
}
layer {
  name: "inception_a1_conv4_2_3x3"
  type: "Convolution"
  bottom: "inception_a1_conv4_1_1x1"
  top: "inception_a1_conv4_2_3x3"
  param {
    lr_mult: 1
    decay_mult: 1
  }
  param {
    lr_mult: 2
    decay_mult: 0
  }
  convolution_param {
    num_output: 96
    pad: 1
    kernel_size: 3
    stride: 1
    weight_filler {
      type: "xavier"
      std: 0.01
    }
    bias_filler {
      type: "constant"
      value: 0.2
    }
  }
}
layer {
  name: "inception_a1_conv4_2_3x3_bn"
  type: "BatchNorm"
  bottom: "inception_a1_conv4_2_3x3"
  top: "inception_a1_conv4_2_3x3"
  batch_norm_param {
    use_global_stats: false
  }
}
layer {
  name: "inception_a1_conv4_2_3x3_relu"
  type: "ReLU"
  bottom: "inception_a1_conv4_2_3x3"
  top: "inception_a1_conv4_2_3x3"
}
layer {
  name: "inception_a1_conv4_3_3x3"
  type: "Convolution"
  bottom: "inception_a1_conv4_2_3x3"
  top: "inception_a1_conv4_3_3x3"
  param {
    lr_mult: 1
    decay_mult: 1
  }
  param {
    lr_mult: 2
    decay_mult: 0
  }
  convolution_param {
    num_output: 96
    pad: 1
    kernel_size: 3
    stride: 1
    weight_filler {
      type: "xavier"
      std: 0.01
    }
    bias_filler {
      type: "constant"
      value: 0.2
    }
  }
}
layer {
  name: "inception_a1_conv4_3_3x3_bn"
  type: "BatchNorm"
  bottom: "inception_a1_conv4_3_3x3"
  top: "inception_a1_conv4_3_3x3"
  batch_norm_param {
    use_global_stats: false
  }
}
layer {
  name: "inception_a1_conv4_3_3x3_relu"
  type: "ReLU"
  bottom: "inception_a1_conv4_3_3x3"
  top: "inception_a1_conv4_3_3x3"
}
layer {
  name: "inception_a1_concat"
  type: "Concat"
  bottom: "inception_a1_conv1_1_1x1"
  bottom: "inception_a1_conv2_1_1x1"
  bottom: "inception_a1_conv3_2_3x3"
  bottom: "inception_a1_conv4_3_3x3"
  top: "inception_a1_concat"
}
layer {
  name: "inception_a2_pool"
  type: "Pooling"
  bottom: "inception_a1_concat"
  top: "inception_a2_pool"
  pooling_param {
    pool: AVE
    kernel_size: 3
    stride: 1
    pad: 1
  }
}
layer {
  name: "inception_a2_conv1_1_1x1"
  type: "Convolution"
  bottom: "inception_a2_pool"
  top: "inception_a2_conv1_1_1x1"
  param {
    lr_mult: 1
    decay_mult: 1
  }
  param {
    lr_mult: 2
    decay_mult: 0
  }
  convolution_param {
    num_output: 96
    pad: 0
    kernel_size: 1
    stride: 1
    weight_filler {
      type: "xavier"
      std: 0.01
    }
    bias_filler {
      type: "constant"
      value: 0.2
    }
  }
}
layer {
  name: "inception_a2_conv1_1_1x1_bn"
  type: "BatchNorm"
  bottom: "inception_a2_conv1_1_1x1"
  top: "inception_a2_conv1_1_1x1"
  batch_norm_param {
    use_global_stats: false
  }
}
layer {
  name: "inception_a2_conv1_1_1x1_relu"
  type: "ReLU"
  bottom: "inception_a2_conv1_1_1x1"
  top: "inception_a2_conv1_1_1x1"
}
layer {
  name: "inception_a2_conv2_1_1x1"
  type: "Convolution"
  bottom: "inception_a1_concat"
  top: "inception_a2_conv2_1_1x1"
  param {
    lr_mult: 1
    decay_mult: 1
  }
  param {
    lr_mult: 2
    decay_mult: 0
  }
  convolution_param {
    num_output: 96
    pad: 0
    kernel_size: 1
    stride: 1
    weight_filler {
      type: "xavier"
      std: 0.01
    }
    bias_filler {
      type: "constant"
      value: 0.2
    }
  }
}
layer {
  name: "inception_a2_conv2_1_1x1_bn"
  type: "BatchNorm"
  bottom: "inception_a2_conv2_1_1x1"
  top: "inception_a2_conv2_1_1x1"
  batch_norm_param {
    use_global_stats: false
  }
}
layer {
  name: "inception_a2_conv2_1_1x1_relu"
  type: "ReLU"
  bottom: "inception_a2_conv2_1_1x1"
  top: "inception_a2_conv2_1_1x1"
}
layer {
  name: "inception_a2_conv3_1_1x1"
  type: "Convolution"
  bottom: "inception_a1_concat"
  top: "inception_a2_conv3_1_1x1"
  param {
    lr_mult: 1
    decay_mult: 1
  }
  param {
    lr_mult: 2
    decay_mult: 0
  }
  convolution_param {
    num_output: 64
    pad: 0
    kernel_size: 1
    stride: 1
    weight_filler {
      type: "xavier"
      std: 0.01
    }
    bias_filler {
      type: "constant"
      value: 0.2
    }
  }
}
layer {
  name: "inception_a2_conv3_1_1x1_bn"
  type: "BatchNorm"
  bottom: "inception_a2_conv3_1_1x1"
  top: "inception_a2_conv3_1_1x1"
  batch_norm_param {
    use_global_stats: false
  }
}
layer {
  name: "inception_a2_conv3_1_1x1_relu"
  type: "ReLU"
  bottom: "inception_a2_conv3_1_1x1"
  top: "inception_a2_conv3_1_1x1"
}
layer {
  name: "inception_a2_conv3_2_3x3"
  type: "Convolution"
  bottom: "inception_a2_conv3_1_1x1"
  top: "inception_a2_conv3_2_3x3"
  param {
    lr_mult: 1
    decay_mult: 1
  }
  param {
    lr_mult: 2
    decay_mult: 0
  }
  convolution_param {
    num_output: 96
    pad: 1
    kernel_size: 3
    stride: 1
    weight_filler {
      type: "xavier"
      std: 0.01
    }
    bias_filler {
      type: "constant"
      value: 0.2
    }
  }
}
layer {
  name: "inception_a2_conv3_2_3x3_bn"
  type: "BatchNorm"
  bottom: "inception_a2_conv3_2_3x3"
  top: "inception_a2_conv3_2_3x3"
  batch_norm_param {
    use_global_stats: false
  }
}
layer {
  name: "inception_a2_conv3_2_3x3_relu"
  type: "ReLU"
  bottom: "inception_a2_conv3_2_3x3"
  top: "inception_a2_conv3_2_3x3"
}
layer {
  name: "inception_a2_conv4_1_1x1"
  type: "Convolution"
  bottom: "inception_a1_concat"
  top: "inception_a2_conv4_1_1x1"
  param {
    lr_mult: 1
    decay_mult: 1
  }
  param {
    lr_mult: 2
    decay_mult: 0
  }
  convolution_param {
    num_output: 64
    pad: 0
    kernel_size: 1
    stride: 1
    weight_filler {
      type: "xavier"
      std: 0.01
    }
    bias_filler {
      type: "constant"
      value: 0.2
    }
  }
}
layer {
  name: "inception_a2_conv4_1_1x1_bn"
  type: "BatchNorm"
  bottom: "inception_a2_conv4_1_1x1"
  top: "inception_a2_conv4_1_1x1"
  batch_norm_param {
    use_global_stats: false
  }
}
layer {
  name: "inception_a2_conv4_1_1x1_relu"
  type: "ReLU"
  bottom: "inception_a2_conv4_1_1x1"
  top: "inception_a2_conv4_1_1x1"
}
layer {
  name: "inception_a2_conv4_2_3x3"
  type: "Convolution"
  bottom: "inception_a2_conv4_1_1x1"
  top: "inception_a2_conv4_2_3x3"
  param {
    lr_mult: 1
    decay_mult: 1
  }
  param {
    lr_mult: 2
    decay_mult: 0
  }
  convolution_param {
    num_output: 96
    pad: 1
    kernel_size: 3
    stride: 1
    weight_filler {
      type: "xavier"
      std: 0.01
    }
    bias_filler {
      type: "constant"
      value: 0.2
    }
  }
}
layer {
  name: "inception_a2_conv4_2_3x3_bn"
  type: "BatchNorm"
  bottom: "inception_a2_conv4_2_3x3"
  top: "inception_a2_conv4_2_3x3"
  batch_norm_param {
    use_global_stats: false
  }
}
layer {
  name: "inception_a2_conv4_2_3x3_relu"
  type: "ReLU"
  bottom: "inception_a2_conv4_2_3x3"
  top: "inception_a2_conv4_2_3x3"
}
layer {
  name: "inception_a2_conv4_3_3x3"
  type: "Convolution"
  bottom: "inception_a2_conv4_2_3x3"
  top: "inception_a2_conv4_3_3x3"
  param {
    lr_mult: 1
    decay_mult: 1
  }
  param {
    lr_mult: 2
    decay_mult: 0
  }
  convolution_param {
    num_output: 96
    pad: 1
    kernel_size: 3
    stride: 1
    weight_filler {
      type: "xavier"
      std: 0.01
    }
    bias_filler {
      type: "constant"
      value: 0.2
    }
  }
}
layer {
  name: "inception_a2_conv4_3_3x3_bn"
  type: "BatchNorm"
  bottom: "inception_a2_conv4_3_3x3"
  top: "inception_a2_conv4_3_3x3"
  batch_norm_param {
    use_global_stats: false
  }
}
layer {
  name: "inception_a2_conv4_3_3x3_relu"
  type: "ReLU"
  bottom: "inception_a2_conv4_3_3x3"
  top: "inception_a2_conv4_3_3x3"
}
layer {
  name: "inception_a2_concat"
  type: "Concat"
  bottom: "inception_a2_conv1_1_1x1"
  bottom: "inception_a2_conv2_1_1x1"
  bottom: "inception_a2_conv3_2_3x3"
  bottom: "inception_a2_conv4_3_3x3"
  top: "inception_a2_concat"
}
layer {
  name: "inception_a3_pool"
  type: "Pooling"
  bottom: "inception_a2_concat"
  top: "inception_a3_pool"
  pooling_param {
    pool: AVE
    kernel_size: 3
    stride: 1
    pad: 1
  }
}
layer {
  name: "inception_a3_conv1_1_1x1"
  type: "Convolution"
  bottom: "inception_a3_pool"
  top: "inception_a3_conv1_1_1x1"
  param {
    lr_mult: 1
    decay_mult: 1
  }
  param {
    lr_mult: 2
    decay_mult: 0
  }
  convolution_param {
    num_output: 96
    pad: 0
    kernel_size: 1
    stride: 1
    weight_filler {
      type: "xavier"
      std: 0.01
    }
    bias_filler {
      type: "constant"
      value: 0.2
    }
  }
}
layer {
  name: "inception_a3_conv1_1_1x1_bn"
  type: "BatchNorm"
  bottom: "inception_a3_conv1_1_1x1"
  top: "inception_a3_conv1_1_1x1"
  batch_norm_param {
    use_global_stats: false
  }
}
layer {
  name: "inception_a3_conv1_1_1x1_relu"
  type: "ReLU"
  bottom: "inception_a3_conv1_1_1x1"
  top: "inception_a3_conv1_1_1x1"
}
layer {
  name: "inception_a3_conv2_1_1x1"
  type: "Convolution"
  bottom: "inception_a2_concat"
  top: "inception_a3_conv2_1_1x1"
  param {
    lr_mult: 1
    decay_mult: 1
  }
  param {
    lr_mult: 2
    decay_mult: 0
  }
  convolution_param {
    num_output: 96
    pad: 0
    kernel_size: 1
    stride: 1
    weight_filler {
      type: "xavier"
      std: 0.01
    }
    bias_filler {
      type: "constant"
      value: 0.2
    }
  }
}
layer {
  name: "inception_a3_conv2_1_1x1_bn"
  type: "BatchNorm"
  bottom: "inception_a3_conv2_1_1x1"
  top: "inception_a3_conv2_1_1x1"
  batch_norm_param {
    use_global_stats: false
  }
}
layer {
  name: "inception_a3_conv2_1_1x1_relu"
  type: "ReLU"
  bottom: "inception_a3_conv2_1_1x1"
  top: "inception_a3_conv2_1_1x1"
}
layer {
  name: "inception_a3_conv3_1_1x1"
  type: "Convolution"
  bottom: "inception_a2_concat"
  top: "inception_a3_conv3_1_1x1"
  param {
    lr_mult: 1
    decay_mult: 1
  }
  param {
    lr_mult: 2
    decay_mult: 0
  }
  convolution_param {
    num_output: 64
    pad: 0
    kernel_size: 1
    stride: 1
    weight_filler {
      type: "xavier"
      std: 0.01
    }
    bias_filler {
      type: "constant"
      value: 0.2
    }
  }
}
layer {
  name: "inception_a3_conv3_1_1x1_bn"
  type: "BatchNorm"
  bottom: "inception_a3_conv3_1_1x1"
  top: "inception_a3_conv3_1_1x1"
  batch_norm_param {
    use_global_stats: false
  }
}
layer {
  name: "inception_a3_conv3_1_1x1_relu"
  type: "ReLU"
  bottom: "inception_a3_conv3_1_1x1"
  top: "inception_a3_conv3_1_1x1"
}
layer {
  name: "inception_a3_conv3_2_3x3"
  type: "Convolution"
  bottom: "inception_a3_conv3_1_1x1"
  top: "inception_a3_conv3_2_3x3"
  param {
    lr_mult: 1
    decay_mult: 1
  }
  param {
    lr_mult: 2
    decay_mult: 0
  }
  convolution_param {
    num_output: 96
    pad: 1
    kernel_size: 3
    stride: 1
    weight_filler {
      type: "xavier"
      std: 0.01
    }
    bias_filler {
      type: "constant"
      value: 0.2
    }
  }
}
layer {
  name: "inception_a3_conv3_2_3x3_bn"
  type: "BatchNorm"
  bottom: "inception_a3_conv3_2_3x3"
  top: "inception_a3_conv3_2_3x3"
  batch_norm_param {
    use_global_stats: false
  }
}
layer {
  name: "inception_a3_conv3_2_3x3_relu"
  type: "ReLU"
  bottom: "inception_a3_conv3_2_3x3"
  top: "inception_a3_conv3_2_3x3"
}
layer {
  name: "inception_a3_conv4_1_1x1"
  type: "Convolution"
  bottom: "inception_a2_concat"
  top: "inception_a3_conv4_1_1x1"
  param {
    lr_mult: 1
    decay_mult: 1
  }
  param {
    lr_mult: 2
    decay_mult: 0
  }
  convolution_param {
    num_output: 64
    pad: 0
    kernel_size: 1
    stride: 1
    weight_filler {
      type: "xavier"
      std: 0.01
    }
    bias_filler {
      type: "constant"
      value: 0.2
    }
  }
}
layer {
  name: "inception_a3_conv4_1_1x1_bn"
  type: "BatchNorm"
  bottom: "inception_a3_conv4_1_1x1"
  top: "inception_a3_conv4_1_1x1"
  batch_norm_param {
    use_global_stats: false
  }
}
layer {
  name: "inception_a3_conv4_1_1x1_relu"
  type: "ReLU"
  bottom: "inception_a3_conv4_1_1x1"
  top: "inception_a3_conv4_1_1x1"
}
layer {
  name: "inception_a3_conv4_2_3x3"
  type: "Convolution"
  bottom: "inception_a3_conv4_1_1x1"
  top: "inception_a3_conv4_2_3x3"
  param {
    lr_mult: 1
    decay_mult: 1
  }
  param {
    lr_mult: 2
    decay_mult: 0
  }
  convolution_param {
    num_output: 96
    pad: 1
    kernel_size: 3
    stride: 1
    weight_filler {
      type: "xavier"
      std: 0.01
    }
    bias_filler {
      type: "constant"
      value: 0.2
    }
  }
}
layer {
  name: "inception_a3_conv4_2_3x3_bn"
  type: "BatchNorm"
  bottom: "inception_a3_conv4_2_3x3"
  top: "inception_a3_conv4_2_3x3"
  batch_norm_param {
    use_global_stats: false
  }
}
layer {
  name: "inception_a3_conv4_2_3x3_relu"
  type: "ReLU"
  bottom: "inception_a3_conv4_2_3x3"
  top: "inception_a3_conv4_2_3x3"
}
layer {
  name: "inception_a3_conv4_3_3x3"
  type: "Convolution"
  bottom: "inception_a3_conv4_2_3x3"
  top: "inception_a3_conv4_3_3x3"
  param {
    lr_mult: 1
    decay_mult: 1
  }
  param {
    lr_mult: 2
    decay_mult: 0
  }
  convolution_param {
    num_output: 96
    pad: 1
    kernel_size: 3
    stride: 1
    weight_filler {
      type: "xavier"
      std: 0.01
    }
    bias_filler {
      type: "constant"
      value: 0.2
    }
  }
}
layer {
  name: "inception_a3_conv4_3_3x3_bn"
  type: "BatchNorm"
  bottom: "inception_a3_conv4_3_3x3"
  top: "inception_a3_conv4_3_3x3"
  batch_norm_param {
    use_global_stats: false
  }
}
layer {
  name: "inception_a3_conv4_3_3x3_relu"
  type: "ReLU"
  bottom: "inception_a3_conv4_3_3x3"
  top: "inception_a3_conv4_3_3x3"
}
layer {
  name: "inception_a3_concat"
  type: "Concat"
  bottom: "inception_a3_conv1_1_1x1"
  bottom: "inception_a3_conv2_1_1x1"
  bottom: "inception_a3_conv3_2_3x3"
  bottom: "inception_a3_conv4_3_3x3"
  top: "inception_a3_concat"
}
layer {
  name: "inception_a4_pool"
  type: "Pooling"
  bottom: "inception_a3_concat"
  top: "inception_a4_pool"
  pooling_param {
    pool: AVE
    kernel_size: 3
    stride: 1
    pad: 1
  }
}
layer {
  name: "inception_a4_conv1_1_1x1"
  type: "Convolution"
  bottom: "inception_a4_pool"
  top: "inception_a4_conv1_1_1x1"
  param {
    lr_mult: 1
    decay_mult: 1
  }
  param {
    lr_mult: 2
    decay_mult: 0
  }
  convolution_param {
    num_output: 96
    pad: 0
    kernel_size: 1
    stride: 1
    weight_filler {
      type: "xavier"
      std: 0.01
    }
    bias_filler {
      type: "constant"
      value: 0.2
    }
  }
}
layer {
  name: "inception_a4_conv1_1_1x1_bn"
  type: "BatchNorm"
  bottom: "inception_a4_conv1_1_1x1"
  top: "inception_a4_conv1_1_1x1"
  batch_norm_param {
    use_global_stats: false
  }
}
layer {
  name: "inception_a4_conv1_1_1x1_relu"
  type: "ReLU"
  bottom: "inception_a4_conv1_1_1x1"
  top: "inception_a4_conv1_1_1x1"
}
layer {
  name: "inception_a4_conv2_1_1x1"
  type: "Convolution"
  bottom: "inception_a3_concat"
  top: "inception_a4_conv2_1_1x1"
  param {
    lr_mult: 1
    decay_mult: 1
  }
  param {
    lr_mult: 2
    decay_mult: 0
  }
  convolution_param {
    num_output: 96
    pad: 0
    kernel_size: 1
    stride: 1
    weight_filler {
      type: "xavier"
      std: 0.01
    }
    bias_filler {
      type: "constant"
      value: 0.2
    }
  }
}
layer {
  name: "inception_a4_conv2_1_1x1_bn"
  type: "BatchNorm"
  bottom: "inception_a4_conv2_1_1x1"
  top: "inception_a4_conv2_1_1x1"
  batch_norm_param {
    use_global_stats: false
  }
}
layer {
  name: "inception_a4_conv2_1_1x1_relu"
  type: "ReLU"
  bottom: "inception_a4_conv2_1_1x1"
  top: "inception_a4_conv2_1_1x1"
}
layer {
  name: "inception_a4_conv3_1_1x1"
  type: "Convolution"
  bottom: "inception_a3_concat"
  top: "inception_a4_conv3_1_1x1"
  param {
    lr_mult: 1
    decay_mult: 1
  }
  param {
    lr_mult: 2
    decay_mult: 0
  }
  convolution_param {
    num_output: 64
    pad: 0
    kernel_size: 1
    stride: 1
    weight_filler {
      type: "xavier"
      std: 0.01
    }
    bias_filler {
      type: "constant"
      value: 0.2
    }
  }
}
layer {
  name: "inception_a4_conv3_1_1x1_bn"
  type: "BatchNorm"
  bottom: "inception_a4_conv3_1_1x1"
  top: "inception_a4_conv3_1_1x1"
  batch_norm_param {
    use_global_stats: false
  }
}
layer {
  name: "inception_a4_conv3_1_1x1_relu"
  type: "ReLU"
  bottom: "inception_a4_conv3_1_1x1"
  top: "inception_a4_conv3_1_1x1"
}
layer {
  name: "inception_a4_conv3_2_3x3"
  type: "Convolution"
  bottom: "inception_a4_conv3_
I0305 12:07:03.951740 16077 layer_factory.hpp:77] Creating layer data
I0305 12:07:03.951869 16077 net.cpp:100] Creating Layer data
I0305 12:07:03.951879 16077 net.cpp:408] data -> data
I0305 12:07:03.951902 16077 net.cpp:408] data -> label
I0305 12:07:03.951915 16077 data_transformer.cpp:27] Loading mean file from: /home/tjcv/zlchen/Project/caffe/examples/imgsnet/Inception_v4/imagenet_mean.binaryproto
I0305 12:07:03.952564 16095 db_lmdb.cpp:35] Opened lmdb /home/tjcv/zlchen/Project/caffe/examples/imgsnet/Inception_v4/ilsvrc12_train_lmdb
I0305 12:07:03.964488 16077 data_layer.cpp:41] output data size: 8,3,299,299
I0305 12:07:03.976043 16077 net.cpp:150] Setting up data
I0305 12:07:03.976073 16077 net.cpp:157] Top shape: 8 3 299 299 (2145624)
I0305 12:07:03.976078 16077 net.cpp:157] Top shape: 8 (8)
I0305 12:07:03.976079 16077 net.cpp:165] Memory required for data: 8582528
I0305 12:07:03.976089 16077 layer_factory.hpp:77] Creating layer stem_conv1_3x3
I0305 12:07:03.976112 16077 net.cpp:100] Creating Layer stem_conv1_3x3
I0305 12:07:03.976119 16077 net.cpp:434] stem_conv1_3x3 <- data
I0305 12:07:03.976132 16077 net.cpp:408] stem_conv1_3x3 -> stem_conv1_3x3
I0305 12:07:04.430699 16077 net.cpp:150] Setting up stem_conv1_3x3
I0305 12:07:04.430728 16077 net.cpp:157] Top shape: 8 32 149 149 (5683456)
I0305 12:07:04.430732 16077 net.cpp:165] Memory required for data: 31316352
I0305 12:07:04.430752 16077 layer_factory.hpp:77] Creating layer stem_conv1_3x3_bn
I0305 12:07:04.430764 16077 net.cpp:100] Creating Layer stem_conv1_3x3_bn
I0305 12:07:04.430768 16077 net.cpp:434] stem_conv1_3x3_bn <- stem_conv1_3x3
I0305 12:07:04.430794 16077 net.cpp:395] stem_conv1_3x3_bn -> stem_conv1_3x3 (in-place)
I0305 12:07:04.430980 16077 net.cpp:150] Setting up stem_conv1_3x3_bn
I0305 12:07:04.430990 16077 net.cpp:157] Top shape: 8 32 149 149 (5683456)
I0305 12:07:04.430992 16077 net.cpp:165] Memory required for data: 54050176
I0305 12:07:04.431002 16077 layer_factory.hpp:77] Creating layer stem_conv1_3x3_relu
I0305 12:07:04.431007 16077 net.cpp:100] Creating Layer stem_conv1_3x3_relu
I0305 12:07:04.431010 16077 net.cpp:434] stem_conv1_3x3_relu <- stem_conv1_3x3
I0305 12:07:04.431015 16077 net.cpp:395] stem_conv1_3x3_relu -> stem_conv1_3x3 (in-place)
I0305 12:07:04.431174 16077 net.cpp:150] Setting up stem_conv1_3x3_relu
I0305 12:07:04.431182 16077 net.cpp:157] Top shape: 8 32 149 149 (5683456)
I0305 12:07:04.431185 16077 net.cpp:165] Memory required for data: 76784000
I0305 12:07:04.431187 16077 layer_factory.hpp:77] Creating layer stem_conv2_3x3
I0305 12:07:04.431198 16077 net.cpp:100] Creating Layer stem_conv2_3x3
I0305 12:07:04.431201 16077 net.cpp:434] stem_conv2_3x3 <- stem_conv1_3x3
I0305 12:07:04.431205 16077 net.cpp:408] stem_conv2_3x3 -> stem_conv2_3x3
I0305 12:07:04.432997 16077 net.cpp:150] Setting up stem_conv2_3x3
I0305 12:07:04.433012 16077 net.cpp:157] Top shape: 8 32 147 147 (5531904)
I0305 12:07:04.433013 16077 net.cpp:165] Memory required for data: 98911616
I0305 12:07:04.433019 16077 layer_factory.hpp:77] Creating layer stem_conv2_3x3_bn
I0305 12:07:04.433025 16077 net.cpp:100] Creating Layer stem_conv2_3x3_bn
I0305 12:07:04.433028 16077 net.cpp:434] stem_conv2_3x3_bn <- stem_conv2_3x3
I0305 12:07:04.433032 16077 net.cpp:395] stem_conv2_3x3_bn -> stem_conv2_3x3 (in-place)
I0305 12:07:04.433190 16077 net.cpp:150] Setting up stem_conv2_3x3_bn
I0305 12:07:04.433198 16077 net.cpp:157] Top shape: 8 32 147 147 (5531904)
I0305 12:07:04.433202 16077 net.cpp:165] Memory required for data: 121039232
I0305 12:07:04.433208 16077 layer_factory.hpp:77] Creating layer stem_conv2_3x3_relu
I0305 12:07:04.433213 16077 net.cpp:100] Creating Layer stem_conv2_3x3_relu
I0305 12:07:04.433217 16077 net.cpp:434] stem_conv2_3x3_relu <- stem_conv2_3x3
I0305 12:07:04.433220 16077 net.cpp:395] stem_conv2_3x3_relu -> stem_conv2_3x3 (in-place)
I0305 12:07:04.433368 16077 net.cpp:150] Setting up stem_conv2_3x3_relu
I0305 12:07:04.433378 16077 net.cpp:157] Top shape: 8 32 147 147 (5531904)
I0305 12:07:04.433382 16077 net.cpp:165] Memory required for data: 143166848
I0305 12:07:04.433384 16077 layer_factory.hpp:77] Creating layer stem_conv3_3x3
I0305 12:07:04.433392 16077 net.cpp:100] Creating Layer stem_conv3_3x3
I0305 12:07:04.433394 16077 net.cpp:434] stem_conv3_3x3 <- stem_conv2_3x3
I0305 12:07:04.433399 16077 net.cpp:408] stem_conv3_3x3 -> stem_conv3_3x3
I0305 12:07:04.434384 16077 net.cpp:150] Setting up stem_conv3_3x3
I0305 12:07:04.434397 16077 net.cpp:157] Top shape: 8 64 147 147 (11063808)
I0305 12:07:04.434399 16077 net.cpp:165] Memory required for data: 187422080
I0305 12:07:04.434404 16077 layer_factory.hpp:77] Creating layer stem_conv3_3x3_bn
I0305 12:07:04.434412 16077 net.cpp:100] Creating Layer stem_conv3_3x3_bn
I0305 12:07:04.434415 16077 net.cpp:434] stem_conv3_3x3_bn <- stem_conv3_3x3
I0305 12:07:04.434419 16077 net.cpp:395] stem_conv3_3x3_bn -> stem_conv3_3x3 (in-place)
I0305 12:07:04.434566 16077 net.cpp:150] Setting up stem_conv3_3x3_bn
I0305 12:07:04.434574 16077 net.cpp:157] Top shape: 8 64 147 147 (11063808)
I0305 12:07:04.434577 16077 net.cpp:165] Memory required for data: 231677312
I0305 12:07:04.434582 16077 layer_factory.hpp:77] Creating layer stem_conv3_3x3_relu
I0305 12:07:04.434587 16077 net.cpp:100] Creating Layer stem_conv3_3x3_relu
I0305 12:07:04.434590 16077 net.cpp:434] stem_conv3_3x3_relu <- stem_conv3_3x3
I0305 12:07:04.434593 16077 net.cpp:395] stem_conv3_3x3_relu -> stem_conv3_3x3 (in-place)
I0305 12:07:04.435025 16077 net.cpp:150] Setting up stem_conv3_3x3_relu
I0305 12:07:04.435037 16077 net.cpp:157] Top shape: 8 64 147 147 (11063808)
I0305 12:07:04.435040 16077 net.cpp:165] Memory required for data: 275932544
I0305 12:07:04.435053 16077 layer_factory.hpp:77] Creating layer stem_conv3_3x3_stem_conv3_3x3_relu_0_split
I0305 12:07:04.435060 16077 net.cpp:100] Creating Layer stem_conv3_3x3_stem_conv3_3x3_relu_0_split
I0305 12:07:04.435062 16077 net.cpp:434] stem_conv3_3x3_stem_conv3_3x3_relu_0_split <- stem_conv3_3x3
I0305 12:07:04.435067 16077 net.cpp:408] stem_conv3_3x3_stem_conv3_3x3_relu_0_split -> stem_conv3_3x3_stem_conv3_3x3_relu_0_split_0
I0305 12:07:04.435073 16077 net.cpp:408] stem_conv3_3x3_stem_conv3_3x3_relu_0_split -> stem_conv3_3x3_stem_conv3_3x3_relu_0_split_1
I0305 12:07:04.435106 16077 net.cpp:150] Setting up stem_conv3_3x3_stem_conv3_3x3_relu_0_split
I0305 12:07:04.435111 16077 net.cpp:157] Top shape: 8 64 147 147 (11063808)
I0305 12:07:04.435114 16077 net.cpp:157] Top shape: 8 64 147 147 (11063808)
I0305 12:07:04.435117 16077 net.cpp:165] Memory required for data: 364443008
I0305 12:07:04.435119 16077 layer_factory.hpp:77] Creating layer stem_inception1_pool
I0305 12:07:04.435124 16077 net.cpp:100] Creating Layer stem_inception1_pool
I0305 12:07:04.435127 16077 net.cpp:434] stem_inception1_pool <- stem_conv3_3x3_stem_conv3_3x3_relu_0_split_0
I0305 12:07:04.435132 16077 net.cpp:408] stem_inception1_pool -> stem_inception1_pool
I0305 12:07:04.435166 16077 net.cpp:150] Setting up stem_inception1_pool
I0305 12:07:04.435173 16077 net.cpp:157] Top shape: 8 64 73 73 (2728448)
I0305 12:07:04.435176 16077 net.cpp:165] Memory required for data: 375356800
I0305 12:07:04.435178 16077 layer_factory.hpp:77] Creating layer stem_inception1_conv_3x3
I0305 12:07:04.435186 16077 net.cpp:100] Creating Layer stem_inception1_conv_3x3
I0305 12:07:04.435189 16077 net.cpp:434] stem_inception1_conv_3x3 <- stem_conv3_3x3_stem_conv3_3x3_relu_0_split_1
I0305 12:07:04.435194 16077 net.cpp:408] stem_inception1_conv_3x3 -> stem_inception1_conv_3x3
I0305 12:07:04.436758 16077 net.cpp:150] Setting up stem_inception1_conv_3x3
I0305 12:07:04.436771 16077 net.cpp:157] Top shape: 8 96 73 73 (4092672)
I0305 12:07:04.436774 16077 net.cpp:165] Memory required for data: 391727488
I0305 12:07:04.436784 16077 layer_factory.hpp:77] Creating layer stem_inception1_conv_3x3_bn
I0305 12:07:04.436790 16077 net.cpp:100] Creating Layer stem_inception1_conv_3x3_bn
I0305 12:07:04.436794 16077 net.cpp:434] stem_inception1_conv_3x3_bn <- stem_inception1_conv_3x3
I0305 12:07:04.436797 16077 net.cpp:395] stem_inception1_conv_3x3_bn -> stem_inception1_conv_3x3 (in-place)
I0305 12:07:04.436956 16077 net.cpp:150] Setting up stem_inception1_conv_3x3_bn
I0305 12:07:04.436964 16077 net.cpp:157] Top shape: 8 96 73 73 (4092672)
I0305 12:07:04.436966 16077 net.cpp:165] Memory required for data: 408098176
I0305 12:07:04.436972 16077 layer_factory.hpp:77] Creating layer stem_inception1_conv_3x3_relu
I0305 12:07:04.436977 16077 net.cpp:100] Creating Layer stem_inception1_conv_3x3_relu
I0305 12:07:04.436980 16077 net.cpp:434] stem_inception1_conv_3x3_relu <- stem_inception1_conv_3x3
I0305 12:07:04.436983 16077 net.cpp:395] stem_inception1_conv_3x3_relu -> stem_inception1_conv_3x3 (in-place)
I0305 12:07:04.437132 16077 net.cpp:150] Setting up stem_inception1_conv_3x3_relu
I0305 12:07:04.437141 16077 net.cpp:157] Top shape: 8 96 73 73 (4092672)
I0305 12:07:04.437144 16077 net.cpp:165] Memory required for data: 424468864
I0305 12:07:04.437146 16077 layer_factory.hpp:77] Creating layer stem_inception1_concat
I0305 12:07:04.437151 16077 net.cpp:100] Creating Layer stem_inception1_concat
I0305 12:07:04.437155 16077 net.cpp:434] stem_inception1_concat <- stem_inception1_pool
I0305 12:07:04.437157 16077 net.cpp:434] stem_inception1_concat <- stem_inception1_conv_3x3
I0305 12:07:04.437161 16077 net.cpp:408] stem_inception1_concat -> stem_inception1_concat
I0305 12:07:04.437184 16077 net.cpp:150] Setting up stem_inception1_concat
I0305 12:07:04.437191 16077 net.cpp:157] Top shape: 8 160 73 73 (6821120)
I0305 12:07:04.437193 16077 net.cpp:165] Memory required for data: 451753344
I0305 12:07:04.437196 16077 layer_factory.hpp:77] Creating layer stem_inception1_concat_stem_inception1_concat_0_split
I0305 12:07:04.437212 16077 net.cpp:100] Creating Layer stem_inception1_concat_stem_inception1_concat_0_split
I0305 12:07:04.437216 16077 net.cpp:434] stem_inception1_concat_stem_inception1_concat_0_split <- stem_inception1_concat
I0305 12:07:04.437220 16077 net.cpp:408] stem_inception1_concat_stem_inception1_concat_0_split -> stem_inception1_concat_stem_inception1_concat_0_split_0
I0305 12:07:04.437225 16077 net.cpp:408] stem_inception1_concat_stem_inception1_concat_0_split -> stem_inception1_concat_stem_inception1_concat_0_split_1
I0305 12:07:04.437254 16077 net.cpp:150] Setting up stem_inception1_concat_stem_inception1_concat_0_split
I0305 12:07:04.437261 16077 net.cpp:157] Top shape: 8 160 73 73 (6821120)
I0305 12:07:04.437264 16077 net.cpp:157] Top shape: 8 160 73 73 (6821120)
I0305 12:07:04.437268 16077 net.cpp:165] Memory required for data: 506322304
I0305 12:07:04.437269 16077 layer_factory.hpp:77] Creating layer stem_inception2_conv1_1_1x1
I0305 12:07:04.437278 16077 net.cpp:100] Creating Layer stem_inception2_conv1_1_1x1
I0305 12:07:04.437280 16077 net.cpp:434] stem_inception2_conv1_1_1x1 <- stem_inception1_concat_stem_inception1_concat_0_split_0
I0305 12:07:04.437284 16077 net.cpp:408] stem_inception2_conv1_1_1x1 -> stem_inception2_conv1_1_1x1
I0305 12:07:04.438243 16077 net.cpp:150] Setting up stem_inception2_conv1_1_1x1
I0305 12:07:04.438257 16077 net.cpp:157] Top shape: 8 64 73 73 (2728448)
I0305 12:07:04.438261 16077 net.cpp:165] Memory required for data: 517236096
I0305 12:07:04.438266 16077 layer_factory.hpp:77] Creating layer stem_inception2_conv1_1_1x1_bn
I0305 12:07:04.438271 16077 net.cpp:100] Creating Layer stem_inception2_conv1_1_1x1_bn
I0305 12:07:04.438274 16077 net.cpp:434] stem_inception2_conv1_1_1x1_bn <- stem_inception2_conv1_1_1x1
I0305 12:07:04.438279 16077 net.cpp:395] stem_inception2_conv1_1_1x1_bn -> stem_inception2_conv1_1_1x1 (in-place)
I0305 12:07:04.438421 16077 net.cpp:150] Setting up stem_inception2_conv1_1_1x1_bn
I0305 12:07:04.438428 16077 net.cpp:157] Top shape: 8 64 73 73 (2728448)
I0305 12:07:04.438431 16077 net.cpp:165] Memory required for data: 528149888
I0305 12:07:04.438436 16077 layer_factory.hpp:77] Creating layer stem_inception2_conv1_1_1x1_relu
I0305 12:07:04.438441 16077 net.cpp:100] Creating Layer stem_inception2_conv1_1_1x1_relu
I0305 12:07:04.438443 16077 net.cpp:434] stem_inception2_conv1_1_1x1_relu <- stem_inception2_conv1_1_1x1
I0305 12:07:04.438447 16077 net.cpp:395] stem_inception2_conv1_1_1x1_relu -> stem_inception2_conv1_1_1x1 (in-place)
I0305 12:07:04.438586 16077 net.cpp:150] Setting up stem_inception2_conv1_1_1x1_relu
I0305 12:07:04.438596 16077 net.cpp:157] Top shape: 8 64 73 73 (2728448)
I0305 12:07:04.438597 16077 net.cpp:165] Memory required for data: 539063680
I0305 12:07:04.438601 16077 layer_factory.hpp:77] Creating layer stem_inception2_conv1_2_3x3
I0305 12:07:04.438608 16077 net.cpp:100] Creating Layer stem_inception2_conv1_2_3x3
I0305 12:07:04.438611 16077 net.cpp:434] stem_inception2_conv1_2_3x3 <- stem_inception2_conv1_1_1x1
I0305 12:07:04.438616 16077 net.cpp:408] stem_inception2_conv1_2_3x3 -> stem_inception2_conv1_2_3x3
I0305 12:07:04.439752 16077 net.cpp:150] Setting up stem_inception2_conv1_2_3x3
I0305 12:07:04.439764 16077 net.cpp:157] Top shape: 8 96 71 71 (3871488)
I0305 12:07:04.439767 16077 net.cpp:165] Memory required for data: 554549632
I0305 12:07:04.439772 16077 layer_factory.hpp:77] Creating layer stem_inception2_conv1_2_3x3_bn
I0305 12:07:04.439779 16077 net.cpp:100] Creating Layer stem_inception2_conv1_2_3x3_bn
I0305 12:07:04.439781 16077 net.cpp:434] stem_inception2_conv1_2_3x3_bn <- stem_inception2_conv1_2_3x3
I0305 12:07:04.439785 16077 net.cpp:395] stem_inception2_conv1_2_3x3_bn -> stem_inception2_conv1_2_3x3 (in-place)
I0305 12:07:04.439929 16077 net.cpp:150] Setting up stem_inception2_conv1_2_3x3_bn
I0305 12:07:04.439936 16077 net.cpp:157] Top shape: 8 96 71 71 (3871488)
I0305 12:07:04.439939 16077 net.cpp:165] Memory required for data: 570035584
I0305 12:07:04.439944 16077 layer_factory.hpp:77] Creating layer stem_inception2_conv1_2_3x3_relu
I0305 12:07:04.439958 16077 net.cpp:100] Creating Layer stem_inception2_conv1_2_3x3_relu
I0305 12:07:04.439962 16077 net.cpp:434] stem_inception2_conv1_2_3x3_relu <- stem_inception2_conv1_2_3x3
I0305 12:07:04.439966 16077 net.cpp:395] stem_inception2_conv1_2_3x3_relu -> stem_inception2_conv1_2_3x3 (in-place)
I0305 12:07:04.440400 16077 net.cpp:150] Setting up stem_inception2_conv1_2_3x3_relu
I0305 12:07:04.440412 16077 net.cpp:157] Top shape: 8 96 71 71 (3871488)
I0305 12:07:04.440415 16077 net.cpp:165] Memory required for data: 585521536
I0305 12:07:04.440418 16077 layer_factory.hpp:77] Creating layer stem_inception2_conv2_1_1x1
I0305 12:07:04.440426 16077 net.cpp:100] Creating Layer stem_inception2_conv2_1_1x1
I0305 12:07:04.440429 16077 net.cpp:434] stem_inception2_conv2_1_1x1 <- stem_inception1_concat_stem_inception1_concat_0_split_1
I0305 12:07:04.440435 16077 net.cpp:408] stem_inception2_conv2_1_1x1 -> stem_inception2_conv2_1_1x1
I0305 12:07:04.441391 16077 net.cpp:150] Setting up stem_inception2_conv2_1_1x1
I0305 12:07:04.441403 16077 net.cpp:157] Top shape: 8 64 73 73 (2728448)
I0305 12:07:04.441406 16077 net.cpp:165] Memory required for data: 596435328
I0305 12:07:04.441412 16077 layer_factory.hpp:77] Creating layer stem_inception2_conv2_1_1x1_bn
I0305 12:07:04.441417 16077 net.cpp:100] Creating Layer stem_inception2_conv2_1_1x1_bn
I0305 12:07:04.441421 16077 net.cpp:434] stem_inception2_conv2_1_1x1_bn <- stem_inception2_conv2_1_1x1
I0305 12:07:04.441426 16077 net.cpp:395] stem_inception2_conv2_1_1x1_bn -> stem_inception2_conv2_1_1x1 (in-place)
I0305 12:07:04.441570 16077 net.cpp:150] Setting up stem_inception2_conv2_1_1x1_bn
I0305 12:07:04.441577 16077 net.cpp:157] Top shape: 8 64 73 73 (2728448)
I0305 12:07:04.441581 16077 net.cpp:165] Memory required for data: 607349120
I0305 12:07:04.441588 16077 layer_factory.hpp:77] Creating layer stem_inception2_conv2_1_1x1_relu
I0305 12:07:04.441594 16077 net.cpp:100] Creating Layer stem_inception2_conv2_1_1x1_relu
I0305 12:07:04.441597 16077 net.cpp:434] stem_inception2_conv2_1_1x1_relu <- stem_inception2_conv2_1_1x1
I0305 12:07:04.441601 16077 net.cpp:395] stem_inception2_conv2_1_1x1_relu -> stem_inception2_conv2_1_1x1 (in-place)
I0305 12:07:04.441743 16077 net.cpp:150] Setting up stem_inception2_conv2_1_1x1_relu
I0305 12:07:04.441752 16077 net.cpp:157] Top shape: 8 64 73 73 (2728448)
I0305 12:07:04.441754 16077 net.cpp:165] Memory required for data: 618262912
I0305 12:07:04.441756 16077 layer_factory.hpp:77] Creating layer stem_inception2_conv2_2_7x1
I0305 12:07:04.441764 16077 net.cpp:100] Creating Layer stem_inception2_conv2_2_7x1
I0305 12:07:04.441768 16077 net.cpp:434] stem_inception2_conv2_2_7x1 <- stem_inception2_conv2_1_1x1
I0305 12:07:04.441772 16077 net.cpp:408] stem_inception2_conv2_2_7x1 -> stem_inception2_conv2_2_7x1
I0305 12:07:04.442806 16077 net.cpp:150] Setting up stem_inception2_conv2_2_7x1
I0305 12:07:04.442818 16077 net.cpp:157] Top shape: 8 64 73 73 (2728448)
I0305 12:07:04.442821 16077 net.cpp:165] Memory required for data: 629176704
I0305 12:07:04.442826 16077 layer_factory.hpp:77] Creating layer stem_inception2_conv2_2_7x1_bn
I0305 12:07:04.442832 16077 net.cpp:100] Creating Layer stem_inception2_conv2_2_7x1_bn
I0305 12:07:04.442836 16077 net.cpp:434] stem_inception2_conv2_2_7x1_bn <- stem_inception2_conv2_2_7x1
I0305 12:07:04.442839 16077 net.cpp:395] stem_inception2_conv2_2_7x1_bn -> stem_inception2_conv2_2_7x1 (in-place)
I0305 12:07:04.442987 16077 net.cpp:150] Setting up stem_inception2_conv2_2_7x1_bn
I0305 12:07:04.442994 16077 net.cpp:157] Top shape: 8 64 73 73 (2728448)
I0305 12:07:04.442997 16077 net.cpp:165] Memory required for data: 640090496
I0305 12:07:04.443003 16077 layer_factory.hpp:77] Creating layer stem_inception2_conv2_2_7x1_relu
I0305 12:07:04.443007 16077 net.cpp:100] Creating Layer stem_inception2_conv2_2_7x1_relu
I0305 12:07:04.443011 16077 net.cpp:434] stem_inception2_conv2_2_7x1_relu <- stem_inception2_conv2_2_7x1
I0305 12:07:04.443013 16077 net.cpp:395] stem_inception2_conv2_2_7x1_relu -> stem_inception2_conv2_2_7x1 (in-place)
I0305 12:07:04.443166 16077 net.cpp:150] Setting up stem_inception2_conv2_2_7x1_relu
I0305 12:07:04.443174 16077 net.cpp:157] Top shape: 8 64 73 73 (2728448)
I0305 12:07:04.443177 16077 net.cpp:165] Memory required for data: 651004288
I0305 12:07:04.443179 16077 layer_factory.hpp:77] Creating layer stem_inception2_conv2_3_1x7
I0305 12:07:04.443187 16077 net.cpp:100] Creating Layer stem_inception2_conv2_3_1x7
I0305 12:07:04.443190 16077 net.cpp:434] stem_inception2_conv2_3_1x7 <- stem_inception2_conv2_2_7x1
I0305 12:07:04.443195 16077 net.cpp:408] stem_inception2_conv2_3_1x7 -> stem_inception2_conv2_3_1x7
I0305 12:07:04.444309 16077 net.cpp:150] Setting up stem_inception2_conv2_3_1x7
I0305 12:07:04.444324 16077 net.cpp:157] Top shape: 8 64 73 73 (2728448)
I0305 12:07:04.444326 16077 net.cpp:165] Memory required for data: 661918080
I0305 12:07:04.444332 16077 layer_factory.hpp:77] Creating layer stem_inception2_conv2_3_1x7_bn
I0305 12:07:04.444339 16077 net.cpp:100] Creating Layer stem_inception2_conv2_3_1x7_bn
I0305 12:07:04.444342 16077 net.cpp:434] stem_inception2_conv2_3_1x7_bn <- stem_inception2_conv2_3_1x7
I0305 12:07:04.444346 16077 net.cpp:395] stem_inception2_conv2_3_1x7_bn -> stem_inception2_conv2_3_1x7 (in-place)
I0305 12:07:04.444494 16077 net.cpp:150] Setting up stem_inception2_conv2_3_1x7_bn
I0305 12:07:04.444501 16077 net.cpp:157] Top shape: 8 64 73 73 (2728448)
I0305 12:07:04.444504 16077 net.cpp:165] Memory required for data: 672831872
I0305 12:07:04.444510 16077 layer_factory.hpp:77] Creating layer stem_inception2_conv2_3_1x7_relu
I0305 12:07:04.444514 16077 net.cpp:100] Creating Layer stem_inception2_conv2_3_1x7_relu
I0305 12:07:04.444517 16077 net.cpp:434] stem_inception2_conv2_3_1x7_relu <- stem_inception2_conv2_3_1x7
I0305 12:07:04.444521 16077 net.cpp:395] stem_inception2_conv2_3_1x7_relu -> stem_inception2_conv2_3_1x7 (in-place)
I0305 12:07:04.444667 16077 net.cpp:150] Setting up stem_inception2_conv2_3_1x7_relu
I0305 12:07:04.444675 16077 net.cpp:157] Top shape: 8 64 73 73 (2728448)
I0305 12:07:04.444677 16077 net.cpp:165] Memory required for data: 683745664
I0305 12:07:04.444680 16077 layer_factory.hpp:77] Creating layer stem_inception2_conv2_4_3x3
I0305 12:07:04.444692 16077 net.cpp:100] Creating Layer stem_inception2_conv2_4_3x3
I0305 12:07:04.444695 16077 net.cpp:434] stem_inception2_conv2_4_3x3 <- stem_inception2_conv2_3_1x7
I0305 12:07:04.444700 16077 net.cpp:408] stem_inception2_conv2_4_3x3 -> stem_inception2_conv2_4_3x3
I0305 12:07:04.446051 16077 net.cpp:150] Setting up stem_inception2_conv2_4_3x3
I0305 12:07:04.446065 16077 net.cpp:157] Top shape: 8 96 71 71 (3871488)
I0305 12:07:04.446069 16077 net.cpp:165] Memory required for data: 699231616
I0305 12:07:04.446074 16077 layer_factory.hpp:77] Creating layer stem_inception2_conv2_4_3x3_bn
I0305 12:07:04.446080 16077 net.cpp:100] Creating Layer stem_inception2_conv2_4_3x3_bn
I0305 12:07:04.446084 16077 net.cpp:434] stem_inception2_conv2_4_3x3_bn <- stem_inception2_conv2_4_3x3
I0305 12:07:04.446089 16077 net.cpp:395] stem_inception2_conv2_4_3x3_bn -> stem_inception2_conv2_4_3x3 (in-place)
I0305 12:07:04.446310 16077 net.cpp:150] Setting up stem_inception2_conv2_4_3x3_bn
I0305 12:07:04.446326 16077 net.cpp:157] Top shape: 8 96 71 71 (3871488)
I0305 12:07:04.446331 16077 net.cpp:165] Memory required for data: 714717568
I0305 12:07:04.446341 16077 layer_factory.hpp:77] Creating layer stem_inception2_conv2_4_3x3_relu
I0305 12:07:04.446347 16077 net.cpp:100] Creating Layer stem_inception2_conv2_4_3x3_relu
I0305 12:07:04.446352 16077 net.cpp:434] stem_inception2_conv2_4_3x3_relu <- stem_inception2_conv2_4_3x3
I0305 12:07:04.446358 16077 net.cpp:395] stem_inception2_conv2_4_3x3_relu -> stem_inception2_conv2_4_3x3 (in-place)
I0305 12:07:04.446965 16077 net.cpp:150] Setting up stem_inception2_conv2_4_3x3_relu
I0305 12:07:04.446979 16077 net.cpp:157] Top shape: 8 96 71 71 (3871488)
I0305 12:07:04.446982 16077 net.cpp:165] Memory required for data: 730203520
I0305 12:07:04.446985 16077 layer_factory.hpp:77] Creating layer stem_inception2_concat
I0305 12:07:04.447000 16077 net.cpp:100] Creating Layer stem_inception2_concat
I0305 12:07:04.447005 16077 net.cpp:434] stem_inception2_concat <- stem_inception2_conv1_2_3x3
I0305 12:07:04.447008 16077 net.cpp:434] stem_inception2_concat <- stem_inception2_conv2_4_3x3
I0305 12:07:04.447013 16077 net.cpp:408] stem_inception2_concat -> stem_inception2_concat
I0305 12:07:04.447041 16077 net.cpp:150] Setting up stem_inception2_concat
I0305 12:07:04.447046 16077 net.cpp:157] Top shape: 8 192 71 71 (7742976)
I0305 12:07:04.447048 16077 net.cpp:165] Memory required for data: 761175424
I0305 12:07:04.447052 16077 layer_factory.hpp:77] Creating layer stem_inception2_concat_stem_inception2_concat_0_split
I0305 12:07:04.447057 16077 net.cpp:100] Creating Layer stem_inception2_concat_stem_inception2_concat_0_split
I0305 12:07:04.447059 16077 net.cpp:434] stem_inception2_concat_stem_inception2_concat_0_split <- stem_inception2_concat
I0305 12:07:04.447064 16077 net.cpp:408] stem_inception2_concat_stem_inception2_concat_0_split -> stem_inception2_concat_stem_inception2_concat_0_split_0
I0305 12:07:04.447069 16077 net.cpp:408] stem_inception2_concat_stem_inception2_concat_0_split -> stem_inception2_concat_stem_inception2_concat_0_split_1
I0305 12:07:04.447098 16077 net.cpp:150] Setting up stem_inception2_concat_stem_inception2_concat_0_split
I0305 12:07:04.447104 16077 net.cpp:157] Top shape: 8 192 71 71 (7742976)
I0305 12:07:04.447109 16077 net.cpp:157] Top shape: 8 192 71 71 (7742976)
I0305 12:07:04.447111 16077 net.cpp:165] Memory required for data: 823119232
I0305 12:07:04.447113 16077 layer_factory.hpp:77] Creating layer stem_inception3_conv_3x3
I0305 12:07:04.447122 16077 net.cpp:100] Creating Layer stem_inception3_conv_3x3
I0305 12:07:04.447125 16077 net.cpp:434] stem_inception3_conv_3x3 <- stem_inception2_concat_stem_inception2_concat_0_split_0
I0305 12:07:04.447130 16077 net.cpp:408] stem_inception3_conv_3x3 -> stem_inception3_conv_3x3
I0305 12:07:04.451011 16077 net.cpp:150] Setting up stem_inception3_conv_3x3
I0305 12:07:04.451025 16077 net.cpp:157] Top shape: 8 192 35 35 (1881600)
I0305 12:07:04.451030 16077 net.cpp:165] Memory required for data: 830645632
I0305 12:07:04.451035 16077 layer_factory.hpp:77] Creating layer stem_inception3_conv_3x3_bn
I0305 12:07:04.451040 16077 net.cpp:100] Creating Layer stem_inception3_conv_3x3_bn
I0305 12:07:04.451043 16077 net.cpp:434] stem_inception3_conv_3x3_bn <- stem_inception3_conv_3x3
I0305 12:07:04.451048 16077 net.cpp:395] stem_inception3_conv_3x3_bn -> stem_inception3_conv_3x3 (in-place)
I0305 12:07:04.451210 16077 net.cpp:150] Setting up stem_inception3_conv_3x3_bn
I0305 12:07:04.451216 16077 net.cpp:157] Top shape: 8 192 35 35 (1881600)
I0305 12:07:04.451220 16077 net.cpp:165] Memory required for data: 838172032
I0305 12:07:04.451225 16077 layer_factory.hpp:77] Creating layer stem_inception3_conv_3x3_relu
I0305 12:07:04.451229 16077 net.cpp:100] Creating Layer stem_inception3_conv_3x3_relu
I0305 12:07:04.451232 16077 net.cpp:434] stem_inception3_conv_3x3_relu <- stem_inception3_conv_3x3
I0305 12:07:04.451236 16077 net.cpp:395] stem_inception3_conv_3x3_relu -> stem_inception3_conv_3x3 (in-place)
I0305 12:07:04.451390 16077 net.cpp:150] Setting up stem_inception3_conv_3x3_relu
I0305 12:07:04.451400 16077 net.cpp:157] Top shape: 8 192 35 35 (1881600)
I0305 12:07:04.451402 16077 net.cpp:165] Memory required for data: 845698432
I0305 12:07:04.451405 16077 layer_factory.hpp:77] Creating layer stem_inception3_pool
I0305 12:07:04.451411 16077 net.cpp:100] Creating Layer stem_inception3_pool
I0305 12:07:04.451414 16077 net.cpp:434] stem_inception3_pool <- stem_inception2_concat_stem_inception2_concat_0_split_1
I0305 12:07:04.451419 16077 net.cpp:408] stem_inception3_pool -> stem_inception3_pool
I0305 12:07:04.451455 16077 net.cpp:150] Setting up stem_inception3_pool
I0305 12:07:04.451462 16077 net.cpp:157] Top shape: 8 192 35 35 (1881600)
I0305 12:07:04.451465 16077 net.cpp:165] Memory required for data: 853224832
I0305 12:07:04.451467 16077 layer_factory.hpp:77] Creating layer stem_inception3_concat
I0305 12:07:04.451483 16077 net.cpp:100] Creating Layer stem_inception3_concat
I0305 12:07:04.451485 16077 net.cpp:434] stem_inception3_concat <- stem_inception3_conv_3x3
I0305 12:07:04.451488 16077 net.cpp:434] stem_inception3_concat <- stem_inception3_pool
I0305 12:07:04.451493 16077 net.cpp:408] stem_inception3_concat -> stem_inception3_concat
I0305 12:07:04.451514 16077 net.cpp:150] Setting up stem_inception3_concat
I0305 12:07:04.451521 16077 net.cpp:157] Top shape: 8 384 35 35 (3763200)
I0305 12:07:04.451524 16077 net.cpp:165] Memory required for data: 868277632
I0305 12:07:04.451526 16077 layer_factory.hpp:77] Creating layer stem_inception3_concat_stem_inception3_concat_0_split
I0305 12:07:04.451531 16077 net.cpp:100] Creating Layer stem_inception3_concat_stem_inception3_concat_0_split
I0305 12:07:04.451534 16077 net.cpp:434] stem_inception3_concat_stem_inception3_concat_0_split <- stem_inception3_concat
I0305 12:07:04.451539 16077 net.cpp:408] stem_inception3_concat_stem_inception3_concat_0_split -> stem_inception3_concat_stem_inception3_concat_0_split_0
I0305 12:07:04.451544 16077 net.cpp:408] stem_inception3_concat_stem_inception3_concat_0_split -> stem_inception3_concat_stem_inception3_concat_0_split_1
I0305 12:07:04.451548 16077 net.cpp:408] stem_inception3_concat_stem_inception3_concat_0_split -> stem_inception3_concat_stem_inception3_concat_0_split_2
I0305 12:07:04.451553 16077 net.cpp:408] stem_inception3_concat_stem_inception3_concat_0_split -> stem_inception3_concat_stem_inception3_concat_0_split_3
I0305 12:07:04.451596 16077 net.cpp:150] Setting up stem_inception3_concat_stem_inception3_concat_0_split
I0305 12:07:04.451602 16077 net.cpp:157] Top shape: 8 384 35 35 (3763200)
I0305 12:07:04.451606 16077 net.cpp:157] Top shape: 8 384 35 35 (3763200)
I0305 12:07:04.451609 16077 net.cpp:157] Top shape: 8 384 35 35 (3763200)
I0305 12:07:04.451612 16077 net.cpp:157] Top shape: 8 384 35 35 (3763200)
I0305 12:07:04.451614 16077 net.cpp:165] Memory required for data: 928488832
I0305 12:07:04.451617 16077 layer_factory.hpp:77] Creating layer inception_a1_pool
I0305 12:07:04.451622 16077 net.cpp:100] Creating Layer inception_a1_pool
I0305 12:07:04.451625 16077 net.cpp:434] inception_a1_pool <- stem_inception3_concat_stem_inception3_concat_0_split_0
I0305 12:07:04.451629 16077 net.cpp:408] inception_a1_pool -> inception_a1_pool
I0305 12:07:04.451798 16077 net.cpp:150] Setting up inception_a1_pool
I0305 12:07:04.451807 16077 net.cpp:157] Top shape: 8 384 35 35 (3763200)
I0305 12:07:04.451809 16077 net.cpp:165] Memory required for data: 943541632
I0305 12:07:04.451812 16077 layer_factory.hpp:77] Creating layer inception_a1_conv1_1_1x1
I0305 12:07:04.451820 16077 net.cpp:100] Creating Layer inception_a1_conv1_1_1x1
I0305 12:07:04.451824 16077 net.cpp:434] inception_a1_conv1_1_1x1 <- inception_a1_pool
I0305 12:07:04.451829 16077 net.cpp:408] inception_a1_conv1_1_1x1 -> inception_a1_conv1_1_1x1
I0305 12:07:04.453085 16077 net.cpp:150] Setting up inception_a1_conv1_1_1x1
I0305 12:07:04.453099 16077 net.cpp:157] Top shape: 8 96 35 35 (940800)
I0305 12:07:04.453101 16077 net.cpp:165] Memory required for data: 947304832
I0305 12:07:04.453106 16077 layer_factory.hpp:77] Creating layer inception_a1_conv1_1_1x1_bn
I0305 12:07:04.453112 16077 net.cpp:100] Creating Layer inception_a1_conv1_1_1x1_bn
I0305 12:07:04.453115 16077 net.cpp:434] inception_a1_conv1_1_1x1_bn <- inception_a1_conv1_1_1x1
I0305 12:07:04.453120 16077 net.cpp:395] inception_a1_conv1_1_1x1_bn -> inception_a1_conv1_1_1x1 (in-place)
I0305 12:07:04.453271 16077 net.cpp:150] Setting up inception_a1_conv1_1_1x1_bn
I0305 12:07:04.453279 16077 net.cpp:157] Top shape: 8 96 35 35 (940800)
I0305 12:07:04.453281 16077 net.cpp:165] Memory required for data: 951068032
I0305 12:07:04.453287 16077 layer_factory.hpp:77] Creating layer inception_a1_conv1_1_1x1_relu
I0305 12:07:04.453291 16077 net.cpp:100] Creating Layer inception_a1_conv1_1_1x1_relu
I0305 12:07:04.453294 16077 net.cpp:434] inception_a1_conv1_1_1x1_relu <- inception_a1_conv1_1_1x1
I0305 12:07:04.453308 16077 net.cpp:395] inception_a1_conv1_1_1x1_relu -> inception_a1_conv1_1_1x1 (in-place)
I0305 12:07:04.453770 16077 net.cpp:150] Setting up inception_a1_conv1_1_1x1_relu
I0305 12:07:04.453783 16077 net.cpp:157] Top shape: 8 96 35 35 (940800)
I0305 12:07:04.453785 16077 net.cpp:165] Memory required for data: 954831232
I0305 12:07:04.453788 16077 layer_factory.hpp:77] Creating layer inception_a1_conv2_1_1x1
I0305 12:07:04.453796 16077 net.cpp:100] Creating Layer inception_a1_conv2_1_1x1
I0305 12:07:04.453800 16077 net.cpp:434] inception_a1_conv2_1_1x1 <- stem_inception3_concat_stem_inception3_concat_0_split_1
I0305 12:07:04.453805 16077 net.cpp:408] inception_a1_conv2_1_1x1 -> inception_a1_conv2_1_1x1
I0305 12:07:04.454900 16077 net.cpp:150] Setting up inception_a1_conv2_1_1x1
I0305 12:07:04.454912 16077 net.cpp:157] Top shape: 8 96 35 35 (940800)
I0305 12:07:04.454916 16077 net.cpp:165] Memory required for data: 958594432
I0305 12:07:04.454921 16077 layer_factory.hpp:77] Creating layer inception_a1_conv2_1_1x1_bn
I0305 12:07:04.454926 16077 net.cpp:100] Creating Layer inception_a1_conv2_1_1x1_bn
I0305 12:07:04.454929 16077 net.cpp:434] inception_a1_conv2_1_1x1_bn <- inception_a1_conv2_1_1x1
I0305 12:07:04.454933 16077 net.cpp:395] inception_a1_conv2_1_1x1_bn -> inception_a1_conv2_1_1x1 (in-place)
I0305 12:07:04.455085 16077 net.cpp:150] Setting up inception_a1_conv2_1_1x1_bn
I0305 12:07:04.455092 16077 net.cpp:157] Top shape: 8 96 35 35 (940800)
I0305 12:07:04.455096 16077 net.cpp:165] Memory required for data: 962357632
I0305 12:07:04.455106 16077 layer_factory.hpp:77] Creating layer inception_a1_conv2_1_1x1_relu
I0305 12:07:04.455111 16077 net.cpp:100] Creating Layer inception_a1_conv2_1_1x1_relu
I0305 12:07:04.455112 16077 net.cpp:434] inception_a1_conv2_1_1x1_relu <- inception_a1_conv2_1_1x1
I0305 12:07:04.455116 16077 net.cpp:395] inception_a1_conv2_1_1x1_relu -> inception_a1_conv2_1_1x1 (in-place)
I0305 12:07:04.455263 16077 net.cpp:150] Setting up inception_a1_conv2_1_1x1_relu
I0305 12:07:04.455271 16077 net.cpp:157] Top shape: 8 96 35 35 (940800)
I0305 12:07:04.455274 16077 net.cpp:165] Memory required for data: 966120832
I0305 12:07:04.455277 16077 layer_factory.hpp:77] Creating layer inception_a1_conv3_1_1x1
I0305 12:07:04.455284 16077 net.cpp:100] Creating Layer inception_a1_conv3_1_1x1
I0305 12:07:04.455288 16077 net.cpp:434] inception_a1_conv3_1_1x1 <- stem_inception3_concat_stem_inception3_concat_0_split_2
I0305 12:07:04.455293 16077 net.cpp:408] inception_a1_conv3_1_1x1 -> inception_a1_conv3_1_1x1
I0305 12:07:04.456331 16077 net.cpp:150] Setting up inception_a1_conv3_1_1x1
I0305 12:07:04.456343 16077 net.cpp:157] Top shape: 8 64 35 35 (627200)
I0305 12:07:04.456346 16077 net.cpp:165] Memory required for data: 968629632
I0305 12:07:04.456351 16077 layer_factory.hpp:77] Creating layer inception_a1_conv3_1_1x1_bn
I0305 12:07:04.456357 16077 net.cpp:100] Creating Layer inception_a1_conv3_1_1x1_bn
I0305 12:07:04.456360 16077 net.cpp:434] inception_a1_conv3_1_1x1_bn <- inception_a1_conv3_1_1x1
I0305 12:07:04.456365 16077 net.cpp:395] inception_a1_conv3_1_1x1_bn -> inception_a1_conv3_1_1x1 (in-place)
I0305 12:07:04.456521 16077 net.cpp:150] Setting up inception_a1_conv3_1_1x1_bn
I0305 12:07:04.456529 16077 net.cpp:157] Top shape: 8 64 35 35 (627200)
I0305 12:07:04.456532 16077 net.cpp:165] Memory required for data: 971138432
I0305 12:07:04.456537 16077 layer_factory.hpp:77] Creating layer inception_a1_conv3_1_1x1_relu
I0305 12:07:04.456542 16077 net.cpp:100] Creating Layer inception_a1_conv3_1_1x1_relu
I0305 12:07:04.456544 16077 net.cpp:434] inception_a1_conv3_1_1x1_relu <- inception_a1_conv3_1_1x1
I0305 12:07:04.456548 16077 net.cpp:395] inception_a1_conv3_1_1x1_relu -> inception_a1_conv3_1_1x1 (in-place)
I0305 12:07:04.456707 16077 net.cpp:150] Setting up inception_a1_conv3_1_1x1_relu
I0305 12:07:04.456715 16077 net.cpp:157] Top shape: 8 64 35 35 (627200)
I0305 12:07:04.456718 16077 net.cpp:165] Memory required for data: 973647232
I0305 12:07:04.456720 16077 layer_factory.hpp:77] Creating layer inception_a1_conv3_2_3x3
I0305 12:07:04.456739 16077 net.cpp:100] Creating Layer inception_a1_conv3_2_3x3
I0305 12:07:04.456743 16077 net.cpp:434] inception_a1_conv3_2_3x3 <- inception_a1_conv3_1_1x1
I0305 12:07:04.456748 16077 net.cpp:408] inception_a1_conv3_2_3x3 -> inception_a1_conv3_2_3x3
I0305 12:07:04.459398 16077 net.cpp:150] Setting up inception_a1_conv3_2_3x3
I0305 12:07:04.459414 16077 net.cpp:157] Top shape: 8 96 35 35 (940800)
I0305 12:07:04.459417 16077 net.cpp:165] Memory required for data: 977410432
I0305 12:07:04.459424 16077 layer_factory.hpp:77] Creating layer inception_a1_conv3_2_3x3_bn
I0305 12:07:04.459430 16077 net.cpp:100] Creating Layer inception_a1_conv3_2_3x3_bn
I0305 12:07:04.459434 16077 net.cpp:434] inception_a1_conv3_2_3x3_bn <- inception_a1_conv3_2_3x3
I0305 12:07:04.459439 16077 net.cpp:395] inception_a1_conv3_2_3x3_bn -> inception_a1_conv3_2_3x3 (in-place)
I0305 12:07:04.459610 16077 net.cpp:150] Setting up inception_a1_conv3_2_3x3_bn
I0305 12:07:04.459617 16077 net.cpp:157] Top shape: 8 96 35 35 (940800)
I0305 12:07:04.459620 16077 net.cpp:165] Memory required for data: 981173632
I0305 12:07:04.459625 16077 layer_factory.hpp:77] Creating layer inception_a1_conv3_2_3x3_relu
I0305 12:07:04.459630 16077 net.cpp:100] Creating Layer inception_a1_conv3_2_3x3_relu
I0305 12:07:04.459632 16077 net.cpp:434] inception_a1_conv3_2_3x3_relu <- inception_a1_conv3_2_3x3
I0305 12:07:04.459637 16077 net.cpp:395] inception_a1_conv3_2_3x3_relu -> inception_a1_conv3_2_3x3 (in-place)
I0305 12:07:04.460103 16077 net.cpp:150] Setting up inception_a1_conv3_2_3x3_relu
I0305 12:07:04.460116 16077 net.cpp:157] Top shape: 8 96 35 35 (940800)
I0305 12:07:04.460119 16077 net.cpp:165] Memory required for data: 984936832
I0305 12:07:04.460121 16077 layer_factory.hpp:77] Creating layer inception_a1_conv4_1_1x1
I0305 12:07:04.460131 16077 net.cpp:100] Creating Layer inception_a1_conv4_1_1x1
I0305 12:07:04.460135 16077 net.cpp:434] inception_a1_conv4_1_1x1 <- stem_inception3_concat_stem_inception3_concat_0_split_3
I0305 12:07:04.460142 16077 net.cpp:408] inception_a1_conv4_1_1x1 -> inception_a1_conv4_1_1x1
I0305 12:07:04.461263 16077 net.cpp:150] Setting up inception_a1_conv4_1_1x1
I0305 12:07:04.461277 16077 net.cpp:157] Top shape: 8 64 35 35 (627200)
I0305 12:07:04.461280 16077 net.cpp:165] Memory required for data: 987445632
I0305 12:07:04.461287 16077 layer_factory.hpp:77] Creating layer inception_a1_conv4_1_1x1_bn
I0305 12:07:04.461293 16077 net.cpp:100] Creating Layer inception_a1_conv4_1_1x1_bn
I0305 12:07:04.461297 16077 net.cpp:434] inception_a1_conv4_1_1x1_bn <- inception_a1_conv4_1_1x1
I0305 12:07:04.461302 16077 net.cpp:395] inception_a1_conv4_1_1x1_bn -> inception_a1_conv4_1_1x1 (in-place)
I0305 12:07:04.461494 16077 net.cpp:150] Setting up inception_a1_conv4_1_1x1_bn
I0305 12:07:04.461503 16077 net.cpp:157] Top shape: 8 64 35 35 (627200)
I0305 12:07:04.461505 16077 net.cpp:165] Memory required for data: 989954432
I0305 12:07:04.461511 16077 layer_factory.hpp:77] Creating layer inception_a1_conv4_1_1x1_relu
I0305 12:07:04.461519 16077 net.cpp:100] Creating Layer inception_a1_conv4_1_1x1_relu
I0305 12:07:04.461521 16077 net.cpp:434] inception_a1_conv4_1_1x1_relu <- inception_a1_conv4_1_1x1
I0305 12:07:04.461525 16077 net.cpp:395] inception_a1_conv4_1_1x1_relu -> inception_a1_conv4_1_1x1 (in-place)
I0305 12:07:04.461697 16077 net.cpp:150] Setting up inception_a1_conv4_1_1x1_relu
I0305 12:07:04.461705 16077 net.cpp:157] Top shape: 8 64 35 35 (627200)
I0305 12:07:04.461709 16077 net.cpp:165] Memory required for data: 992463232
I0305 12:07:04.461710 16077 layer_factory.hpp:77] Creating layer inception_a1_conv4_2_3x3
I0305 12:07:04.461720 16077 net.cpp:100] Creating Layer inception_a1_conv4_2_3x3
I0305 12:07:04.461724 16077 net.cpp:434] inception_a1_conv4_2_3x3 <- inception_a1_conv4_1_1x1
I0305 12:07:04.461730 16077 net.cpp:408] inception_a1_conv4_2_3x3 -> inception_a1_conv4_2_3x3
I0305 12:07:04.463398 16077 net.cpp:150] Setting up inception_a1_conv4_2_3x3
I0305 12:07:04.463414 16077 net.cpp:157] Top shape: 8 96 35 35 (940800)
I0305 12:07:04.463435 16077 net.cpp:165] Memory required for data: 996226432
I0305 12:07:04.463441 16077 layer_factory.hpp:77] Creating layer inception_a1_conv4_2_3x3_bn
I0305 12:07:04.463449 16077 net.cpp:100] Creating Layer inception_a1_conv4_2_3x3_bn
I0305 12:07:04.463454 16077 net.cpp:434] inception_a1_conv4_2_3x3_bn <- inception_a1_conv4_2_3x3
I0305 12:07:04.463457 16077 net.cpp:395] inception_a1_conv4_2_3x3_bn -> inception_a1_conv4_2_3x3 (in-place)
I0305 12:07:04.463635 16077 net.cpp:150] Setting up inception_a1_conv4_2_3x3_bn
I0305 12:07:04.463644 16077 net.cpp:157] Top shape: 8 96 35 35 (940800)
I0305 12:07:04.463646 16077 net.cpp:165] Memory required for data: 999989632
I0305 12:07:04.463651 16077 layer_factory.hpp:77] Creating layer inception_a1_conv4_2_3x3_relu
I0305 12:07:04.463655 16077 net.cpp:100] Creating Layer inception_a1_conv4_2_3x3_relu
I0305 12:07:04.463659 16077 net.cpp:434] inception_a1_conv4_2_3x3_relu <- inception_a1_conv4_2_3x3
I0305 12:07:04.463671 16077 net.cpp:395] inception_a1_conv4_2_3x3_relu -> inception_a1_conv4_2_3x3 (in-place)
I0305 12:07:04.463866 16077 net.cpp:150] Setting up inception_a1_conv4_2_3x3_relu
I0305 12:07:04.463878 16077 net.cpp:157] Top shape: 8 96 35 35 (940800)
I0305 12:07:04.463882 16077 net.cpp:165] Memory required for data: 1003752832
I0305 12:07:04.463886 16077 layer_factory.hpp:77] Creating layer inception_a1_conv4_3_3x3
I0305 12:07:04.463897 16077 net.cpp:100] Creating Layer inception_a1_conv4_3_3x3
I0305 12:07:04.463901 16077 net.cpp:434] inception_a1_conv4_3_3x3 <- inception_a1_conv4_2_3x3
I0305 12:07:04.463907 16077 net.cpp:408] inception_a1_conv4_3_3x3 -> inception_a1_conv4_3_3x3
I0305 12:07:04.465809 16077 net.cpp:150] Setting up inception_a1_conv4_3_3x3
I0305 12:07:04.465827 16077 net.cpp:157] Top shape: 8 96 35 35 (940800)
I0305 12:07:04.465831 16077 net.cpp:165] Memory required for data: 1007516032
I0305 12:07:04.465839 16077 layer_factory.hpp:77] Creating layer inception_a1_conv4_3_3x3_bn
I0305 12:07:04.465852 16077 net.cpp:100] Creating Layer inception_a1_conv4_3_3x3_bn
I0305 12:07:04.465855 16077 net.cpp:434] inception_a1_conv4_3_3x3_bn <- inception_a1_conv4_3_3x3
I0305 12:07:04.465862 16077 net.cpp:395] inception_a1_conv4_3_3x3_bn -> inception_a1_conv4_3_3x3 (in-place)
I0305 12:07:04.466156 16077 net.cpp:150] Setting up inception_a1_conv4_3_3x3_bn
I0305 12:07:04.466171 16077 net.cpp:157] Top shape: 8 96 35 35 (940800)
I0305 12:07:04.466173 16077 net.cpp:165] Memory required for data: 1011279232
I0305 12:07:04.466181 16077 layer_factory.hpp:77] Creating layer inception_a1_conv4_3_3x3_relu
I0305 12:07:04.466199 16077 net.cpp:100] Creating Layer inception_a1_conv4_3_3x3_relu
I0305 12:07:04.466203 16077 net.cpp:434] inception_a1_conv4_3_3x3_relu <- inception_a1_conv4_3_3x3
I0305 12:07:04.466209 16077 net.cpp:395] inception_a1_conv4_3_3x3_relu -> inception_a1_conv4_3_3x3 (in-place)
I0305 12:07:04.466394 16077 net.cpp:150] Setting up inception_a1_conv4_3_3x3_relu
I0305 12:07:04.466405 16077 net.cpp:157] Top shape: 8 96 35 35 (940800)
I0305 12:07:04.466408 16077 net.cpp:165] Memory required for data: 1015042432
I0305 12:07:04.466411 16077 layer_factory.hpp:77] Creating layer inception_a1_concat
I0305 12:07:04.466418 16077 net.cpp:100] Creating Layer inception_a1_concat
I0305 12:07:04.466420 16077 net.cpp:434] inception_a1_concat <- inception_a1_conv1_1_1x1
I0305 12:07:04.466424 16077 net.cpp:434] inception_a1_concat <- inception_a1_conv2_1_1x1
I0305 12:07:04.466428 16077 net.cpp:434] inception_a1_concat <- inception_a1_conv3_2_3x3
I0305 12:07:04.466430 16077 net.cpp:434] inception_a1_concat <- inception_a1_conv4_3_3x3
I0305 12:07:04.466435 16077 net.cpp:408] inception_a1_concat -> inception_a1_concat
I0305 12:07:04.466464 16077 net.cpp:150] Setting up inception_a1_concat
I0305 12:07:04.466470 16077 net.cpp:157] Top shape: 8 384 35 35 (3763200)
I0305 12:07:04.466471 16077 net.cpp:165] Memory required for data: 1030095232
I0305 12:07:04.466475 16077 layer_factory.hpp:77] Creating layer inception_a1_concat_inception_a1_concat_0_split
I0305 12:07:04.466492 16077 net.cpp:100] Creating Layer inception_a1_concat_inception_a1_concat_0_split
I0305 12:07:04.466496 16077 net.cpp:434] inception_a1_concat_inception_a1_concat_0_split <- inception_a1_concat
I0305 12:07:04.466501 16077 net.cpp:408] inception_a1_concat_inception_a1_concat_0_split -> inception_a1_concat_inception_a1_concat_0_split_0
I0305 12:07:04.466507 16077 net.cpp:408] inception_a1_concat_inception_a1_concat_0_split -> inception_a1_concat_inception_a1_concat_0_split_1
I0305 12:07:04.466512 16077 net.cpp:408] inception_a1_concat_inception_a1_concat_0_split -> inception_a1_concat_inception_a1_concat_0_split_2
I0305 12:07:04.466516 16077 net.cpp:408] inception_a1_concat_inception_a1_concat_0_split -> inception_a1_concat_inception_a1_concat_0_split_3
I0305 12:07:04.466570 16077 net.cpp:150] Setting up inception_a1_concat_inception_a1_concat_0_split
I0305 12:07:04.466576 16077 net.cpp:157] Top shape: 8 384 35 35 (3763200)
I0305 12:07:04.466580 16077 net.cpp:157] Top shape: 8 384 35 35 (3763200)
I0305 12:07:04.466583 16077 net.cpp:157] Top shape: 8 384 35 35 (3763200)
I0305 12:07:04.466585 16077 net.cpp:157] Top shape: 8 384 35 35 (3763200)
I0305 12:07:04.466588 16077 net.cpp:165] Memory required for data: 1090306432
I0305 12:07:04.466590 16077 layer_factory.hpp:77] Creating layer inception_a2_pool
I0305 12:07:04.466596 16077 net.cpp:100] Creating Layer inception_a2_pool
I0305 12:07:04.466598 16077 net.cpp:434] inception_a2_pool <- inception_a1_concat_inception_a1_concat_0_split_0
I0305 12:07:04.466604 16077 net.cpp:408] inception_a2_pool -> inception_a2_pool
I0305 12:07:04.467080 16077 net.cpp:150] Setting up inception_a2_pool
I0305 12:07:04.467092 16077 net.cpp:157] Top shape: 8 384 35 35 (3763200)
I0305 12:07:04.467094 16077 net.cpp:165] Memory required for data: 1105359232
I0305 12:07:04.467097 16077 layer_factory.hpp:77] Creating layer inception_a2_conv1_1_1x1
I0305 12:07:04.467108 16077 net.cpp:100] Creating Layer inception_a2_conv1_1_1x1
I0305 12:07:04.467111 16077 net.cpp:434] inception_a2_conv1_1_1x1 <- inception_a2_pool
I0305 12:07:04.467116 16077 net.cpp:408] inception_a2_conv1_1_1x1 -> inception_a2_conv1_1_1x1
I0305 12:07:04.468262 16077 net.cpp:150] Setting up inception_a2_conv1_1_1x1
I0305 12:07:04.468276 16077 net.cpp:157] Top shape: 8 96 35 35 (940800)
I0305 12:07:04.468277 16077 net.cpp:165] Memory required for data: 1109122432
I0305 12:07:04.468283 16077 layer_factory.hpp:77] Creating layer inception_a2_conv1_1_1x1_bn
I0305 12:07:04.468289 16077 net.cpp:100] Creating Layer inception_a2_conv1_1_1x1_bn
I0305 12:07:04.468293 16077 net.cpp:434] inception_a2_conv1_1_1x1_bn <- inception_a2_conv1_1_1x1
I0305 12:07:04.468297 16077 net.cpp:395] inception_a2_conv1_1_1x1_bn -> inception_a2_conv1_1_1x1 (in-place)
I0305 12:07:04.468634 16077 net.cpp:150] Setting up inception_a2_conv1_1_1x1_bn
I0305 12:07:04.468641 16077 net.cpp:157] Top shape: 8 96 35 35 (940800)
I0305 12:07:04.468644 16077 net.cpp:165] Memory required for data: 1112885632
I0305 12:07:04.468650 16077 layer_factory.hpp:77] Creating layer inception_a2_conv1_1_1x1_relu
I0305 12:07:04.468654 16077 net.cpp:100] Creating Layer inception_a2_conv1_1_1x1_relu
I0305 12:07:04.468657 16077 net.cpp:434] inception_a2_conv1_1_1x1_relu <- inception_a2_conv1_1_1x1
I0305 12:07:04.468663 16077 net.cpp:395] inception_a2_conv1_1_1x1_relu -> inception_a2_conv1_1_1x1 (in-place)
I0305 12:07:04.468825 16077 net.cpp:150] Setting up inception_a2_conv1_1_1x1_relu
I0305 12:07:04.468834 16077 net.cpp:157] Top shape: 8 96 35 35 (940800)
I0305 12:07:04.468837 16077 net.cpp:165] Memory required for data: 1116648832
I0305 12:07:04.468839 16077 layer_factory.hpp:77] Creating layer inception_a2_conv2_1_1x1
I0305 12:07:04.468849 16077 net.cpp:100] Creating Layer inception_a2_conv2_1_1x1
I0305 12:07:04.468852 16077 net.cpp:434] inception_a2_conv2_1_1x1 <- inception_a1_concat_inception_a1_concat_0_split_1
I0305 12:07:04.468858 16077 net.cpp:408] inception_a2_conv2_1_1x1 -> inception_a2_conv2_1_1x1
I0305 12:07:04.470018 16077 net.cpp:150] Setting up inception_a2_conv2_1_1x1
I0305 12:07:04.470039 16077 net.cpp:157] Top shape: 8 96 35 35 (940800)
I0305 12:07:04.470042 16077 net.cpp:165] Memory required for data: 1120412032
I0305 12:07:04.470047 16077 layer_factory.hpp:77] Creating layer inception_a2_conv2_1_1x1_bn
I0305 12:07:04.470054 16077 net.cpp:100] Creating Layer inception_a2_conv2_1_1x1_bn
I0305 12:07:04.470058 16077 net.cpp:434] inception_a2_conv2_1_1x1_bn <- inception_a2_conv2_1_1x1
I0305 12:07:04.470062 16077 net.cpp:395] inception_a2_conv2_1_1x1_bn -> inception_a2_conv2_1_1x1 (in-place)
I0305 12:07:04.470242 16077 net.cpp:150] Setting up inception_a2_conv2_1_1x1_bn
I0305 12:07:04.470250 16077 net.cpp:157] Top shape: 8 96 35 35 (940800)
I0305 12:07:04.470252 16077 net.cpp:165] Memory required for data: 1124175232
I0305 12:07:04.470257 16077 layer_factory.hpp:77] Creating layer inception_a2_conv2_1_1x1_relu
I0305 12:07:04.470261 16077 net.cpp:100] Creating Layer inception_a2_conv2_1_1x1_relu
I0305 12:07:04.470264 16077 net.cpp:434] inception_a2_conv2_1_1x1_relu <- inception_a2_conv2_1_1x1
I0305 12:07:04.470269 16077 net.cpp:395] inception_a2_conv2_1_1x1_relu -> inception_a2_conv2_1_1x1 (in-place)
I0305 12:07:04.470429 16077 net.cpp:150] Setting up inception_a2_conv2_1_1x1_relu
I0305 12:07:04.470438 16077 net.cpp:157] Top shape: 8 96 35 35 (940800)
I0305 12:07:04.470441 16077 net.cpp:165] Memory required for data: 1127938432
I0305 12:07:04.470443 16077 layer_factory.hpp:77] Creating layer inception_a2_conv3_1_1x1
I0305 12:07:04.470453 16077 net.cpp:100] Creating Layer inception_a2_conv3_1_1x1
I0305 12:07:04.470458 16077 net.cpp:434] inception_a2_conv3_1_1x1 <- inception_a1_concat_inception_a1_concat_0_split_2
I0305 12:07:04.470463 16077 net.cpp:408] inception_a2_conv3_1_1x1 -> inception_a2_conv3_1_1x1
I0305 12:07:04.471551 16077 net.cpp:150] Setting up inception_a2_conv3_1_1x1
I0305 12:07:04.471563 16077 net.cpp:157] Top shape: 8 64 35 35 (627200)
I0305 12:07:04.471566 16077 net.cpp:165] Memory required for data: 1130447232
I0305 12:07:04.471571 16077 layer_factory.hpp:77] Creating layer inception_a2_conv3_1_1x1_bn
I0305 12:07:04.471578 16077 net.cpp:100] Creating Layer inception_a2_conv3_1_1x1_bn
I0305 12:07:04.471581 16077 net.cpp:434] inception_a2_conv3_1_1x1_bn <- inception_a2_conv3_1_1x1
I0305 12:07:04.471585 16077 net.cpp:395] inception_a2_conv3_1_1x1_bn -> inception_a2_conv3_1_1x1 (in-place)
I0305 12:07:04.471752 16077 net.cpp:150] Setting up inception_a2_conv3_1_1x1_bn
I0305 12:07:04.471760 16077 net.cpp:157] Top shape: 8 64 35 35 (627200)
I0305 12:07:04.471761 16077 net.cpp:165] Memory required for data: 1132956032
I0305 12:07:04.471766 16077 layer_factory.hpp:77] Creating layer inception_a2_conv3_1_1x1_relu
I0305 12:07:04.471771 16077 net.cpp:100] Creating Layer inception_a2_conv3_1_1x1_relu
I0305 12:07:04.471773 16077 net.cpp:434] inception_a2_conv3_1_1x1_relu <- inception_a2_conv3_1_1x1
I0305 12:07:04.471778 16077 net.cpp:395] inception_a2_conv3_1_1x1_relu -> inception_a2_conv3_1_1x1 (in-place)
I0305 12:07:04.472241 16077 net.cpp:150] Setting up inception_a2_conv3_1_1x1_relu
I0305 12:07:04.472254 16077 net.cpp:157] Top shape: 8 64 35 35 (627200)
I0305 12:07:04.472255 16077 net.cpp:165] Memory required for data: 1135464832
I0305 12:07:04.472259 16077 layer_factory.hpp:77] Creating layer inception_a2_conv3_2_3x3
I0305 12:07:04.472265 16077 net.cpp:100] Creating Layer inception_a2_conv3_2_3x3
I0305 12:07:04.472270 16077 net.cpp:434] inception_a2_conv3_2_3x3 <- inception_a2_conv3_1_1x1
I0305 12:07:04.472275 16077 net.cpp:408] inception_a2_conv3_2_3x3 -> inception_a2_conv3_2_3x3
I0305 12:07:04.473800 16077 net.cpp:150] Setting up inception_a2_conv3_2_3x3
I0305 12:07:04.473812 16077 net.cpp:157] Top shape: 8 96 35 35 (940800)
I0305 12:07:04.473815 16077 net.cpp:165] Memory required for data: 1139228032
I0305 12:07:04.473821 16077 layer_factory.hpp:77] Creating layer inception_a2_conv3_2_3x3_bn
I0305 12:07:04.473827 16077 net.cpp:100] Creating Layer inception_a2_conv3_2_3x3_bn
I0305 12:07:04.473830 16077 net.cpp:434] inception_a2_conv3_2_3x3_bn <- inception_a2_conv3_2_3x3
I0305 12:07:04.473845 16077 net.cpp:395] inception_a2_conv3_2_3x3_bn -> inception_a2_conv3_2_3x3 (in-place)
I0305 12:07:04.474027 16077 net.cpp:150] Setting up inception_a2_conv3_2_3x3_bn
I0305 12:07:04.474035 16077 net.cpp:157] Top shape: 8 96 35 35 (940800)
I0305 12:07:04.474037 16077 net.cpp:165] Memory required for data: 1142991232
I0305 12:07:04.474043 16077 layer_factory.hpp:77] Creating layer inception_a2_conv3_2_3x3_relu
I0305 12:07:04.474048 16077 net.cpp:100] Creating Layer inception_a2_conv3_2_3x3_relu
I0305 12:07:04.474050 16077 net.cpp:434] inception_a2_conv3_2_3x3_relu <- inception_a2_conv3_2_3x3
I0305 12:07:04.474056 16077 net.cpp:395] inception_a2_conv3_2_3x3_relu -> inception_a2_conv3_2_3x3 (in-place)
I0305 12:07:04.474221 16077 net.cpp:150] Setting up inception_a2_conv3_2_3x3_relu
I0305 12:07:04.474229 16077 net.cpp:157] Top shape: 8 96 35 35 (940800)
I0305 12:07:04.474232 16077 net.cpp:165] Memory required for data: 1146754432
I0305 12:07:04.474234 16077 layer_factory.hpp:77] Creating layer inception_a2_conv4_1_1x1
I0305 12:07:04.474243 16077 net.cpp:100] Creating Layer inception_a2_conv4_1_1x1
I0305 12:07:04.474246 16077 net.cpp:434] inception_a2_conv4_1_1x1 <- inception_a1_concat_inception_a1_concat_0_split_3
I0305 12:07:04.474253 16077 net.cpp:408] inception_a2_conv4_1_1x1 -> inception_a2_conv4_1_1x1
I0305 12:07:04.475365 16077 net.cpp:150] Setting up inception_a2_conv4_1_1x1
I0305 12:07:04.475378 16077 net.cpp:157] Top shape: 8 64 35 35 (627200)
I0305 12:07:04.475381 16077 net.cpp:165] Memory required for data: 1149263232
I0305 12:07:04.475386 16077 layer_factory.hpp:77] Creating layer inception_a2_conv4_1_1x1_bn
I0305 12:07:04.475392 16077 net.cpp:100] Creating Layer inception_a2_conv4_1_1x1_bn
I0305 12:07:04.475396 16077 net.cpp:434] inception_a2_conv4_1_1x1_bn <- inception_a2_conv4_1_1x1
I0305 12:07:04.475400 16077 net.cpp:395] inception_a2_conv4_1_1x1_bn -> inception_a2_conv4_1_1x1 (in-place)
I0305 12:07:04.475569 16077 net.cpp:150] Setting up inception_a2_conv4_1_1x1_bn
I0305 12:07:04.475575 16077 net.cpp:157] Top shape: 8 64 35 35 (627200)
I0305 12:07:04.475577 16077 net.cpp:165] Memory required for data: 1151772032
I0305 12:07:04.475584 16077 layer_factory.hpp:77] Creating layer inception_a2_conv4_1_1x1_relu
I0305 12:07:04.475587 16077 net.cpp:100] Creating Layer inception_a2_conv4_1_1x1_relu
I0305 12:07:04.475589 16077 net.cpp:434] inception_a2_conv4_1_1x1_relu <- inception_a2_conv4_1_1x1
I0305 12:07:04.475594 16077 net.cpp:395] inception_a2_conv4_1_1x1_relu -> inception_a2_conv4_1_1x1 (in-place)
I0305 12:07:04.475756 16077 net.cpp:150] Setting up inception_a2_conv4_1_1x1_relu
I0305 12:07:04.475765 16077 net.cpp:157] Top shape: 8 64 35 35 (627200)
I0305 12:07:04.475767 16077 net.cpp:165] Memory required for data: 1154280832
I0305 12:07:04.475770 16077 layer_factory.hpp:77] Creating layer inception_a2_conv4_2_3x3
I0305 12:07:04.475778 16077 net.cpp:100] Creating Layer inception_a2_conv4_2_3x3
I0305 12:07:04.475781 16077 net.cpp:434] inception_a2_conv4_2_3x3 <- inception_a2_conv4_1_1x1
I0305 12:07:04.475787 16077 net.cpp:408] inception_a2_conv4_2_3x3 -> inception_a2_conv4_2_3x3
I0305 12:07:04.477298 16077 net.cpp:150] Setting up inception_a2_conv4_2_3x3
I0305 12:07:04.477310 16077 net.cpp:157] Top shape: 8 96 35 35 (940800)
I0305 12:07:04.477313 16077 net.cpp:165] Memory required for data: 1158044032
I0305 12:07:04.477319 16077 layer_factory.hpp:77] Creating layer inception_a2_conv4_2_3x3_bn
I0305 12:07:04.477325 16077 net.cpp:100] Creating Layer inception_a2_conv4_2_3x3_bn
I0305 12:07:04.477329 16077 net.cpp:434] inception_a2_conv4_2_3x3_bn <- inception_a2_conv4_2_3x3
I0305 12:07:04.477334 16077 net.cpp:395] inception_a2_conv4_2_3x3_bn -> inception_a2_conv4_2_3x3 (in-place)
I0305 12:07:04.477524 16077 net.cpp:150] Setting up inception_a2_conv4_2_3x3_bn
I0305 12:07:04.477532 16077 net.cpp:157] Top shape: 8 96 35 35 (940800)
I0305 12:07:04.477535 16077 net.cpp:165] Memory required for data: 1161807232
I0305 12:07:04.477540 16077 layer_factory.hpp:77] Creating layer inception_a2_conv4_2_3x3_relu
I0305 12:07:04.477553 16077 net.cpp:100] Creating Layer inception_a2_conv4_2_3x3_relu
I0305 12:07:04.477557 16077 net.cpp:434] inception_a2_conv4_2_3x3_relu <- inception_a2_conv4_2_3x3
I0305 12:07:04.477561 16077 net.cpp:395] inception_a2_conv4_2_3x3_relu -> inception_a2_conv4_2_3x3 (in-place)
I0305 12:07:04.478022 16077 net.cpp:150] Setting up inception_a2_conv4_2_3x3_relu
I0305 12:07:04.478034 16077 net.cpp:157] Top shape: 8 96 35 35 (940800)
I0305 12:07:04.478036 16077 net.cpp:165] Memory required for data: 1165570432
I0305 12:07:04.478039 16077 layer_factory.hpp:77] Creating layer inception_a2_conv4_3_3x3
I0305 12:07:04.478049 16077 net.cpp:100] Creating Layer inception_a2_conv4_3_3x3
I0305 12:07:04.478052 16077 net.cpp:434] inception_a2_conv4_3_3x3 <- inception_a2_conv4_2_3x3
I0305 12:07:04.478060 16077 net.cpp:408] inception_a2_conv4_3_3x3 -> inception_a2_conv4_3_3x3
I0305 12:07:04.479693 16077 net.cpp:150] Setting up inception_a2_conv4_3_3x3
I0305 12:07:04.479706 16077 net.cpp:157] Top shape: 8 96 35 35 (940800)
I0305 12:07:04.479707 16077 net.cpp:165] Memory required for data: 1169333632
I0305 12:07:04.479713 16077 layer_factory.hpp:77] Creating layer inception_a2_conv4_3_3x3_bn
I0305 12:07:04.479720 16077 net.cpp:100] Creating Layer inception_a2_conv4_3_3x3_bn
I0305 12:07:04.479724 16077 net.cpp:434] inception_a2_conv4_3_3x3_bn <- inception_a2_conv4_3_3x3
I0305 12:07:04.479728 16077 net.cpp:395] inception_a2_conv4_3_3x3_bn -> inception_a2_conv4_3_3x3 (in-place)
I0305 12:07:04.479905 16077 net.cpp:150] Setting up inception_a2_conv4_3_3x3_bn
I0305 12:07:04.479912 16077 net.cpp:157] Top shape: 8 96 35 35 (940800)
I0305 12:07:04.479914 16077 net.cpp:165] Memory required for data: 1173096832
I0305 12:07:04.479919 16077 layer_factory.hpp:77] Creating layer inception_a2_conv4_3_3x3_relu
I0305 12:07:04.479925 16077 net.cpp:100] Creating Layer inception_a2_conv4_3_3x3_relu
I0305 12:07:04.479928 16077 net.cpp:434] inception_a2_conv4_3_3x3_relu <- inception_a2_conv4_3_3x3
I0305 12:07:04.479931 16077 net.cpp:395] inception_a2_conv4_3_3x3_relu -> inception_a2_conv4_3_3x3 (in-place)
I0305 12:07:04.480098 16077 net.cpp:150] Setting up inception_a2_conv4_3_3x3_relu
I0305 12:07:04.480108 16077 net.cpp:157] Top shape: 8 96 35 35 (940800)
I0305 12:07:04.480109 16077 net.cpp:165] Memory required for data: 1176860032
I0305 12:07:04.480113 16077 layer_factory.hpp:77] Creating layer inception_a2_concat
I0305 12:07:04.480118 16077 net.cpp:100] Creating Layer inception_a2_concat
I0305 12:07:04.480120 16077 net.cpp:434] inception_a2_concat <- inception_a2_conv1_1_1x1
I0305 12:07:04.480123 16077 net.cpp:434] inception_a2_concat <- inception_a2_conv2_1_1x1
I0305 12:07:04.480126 16077 net.cpp:434] inception_a2_concat <- inception_a2_conv3_2_3x3
I0305 12:07:04.480129 16077 net.cpp:434] inception_a2_concat <- inception_a2_conv4_3_3x3
I0305 12:07:04.480134 16077 net.cpp:408] inception_a2_concat -> inception_a2_concat
I0305 12:07:04.480161 16077 net.cpp:150] Setting up inception_a2_concat
I0305 12:07:04.480166 16077 net.cpp:157] Top shape: 8 384 35 35 (3763200)
I0305 12:07:04.480168 16077 net.cpp:165] Memory required for data: 1191912832
I0305 12:07:04.480171 16077 layer_factory.hpp:77] Creating layer inception_a2_concat_inception_a2_concat_0_split
I0305 12:07:04.480177 16077 net.cpp:100] Creating Layer inception_a2_concat_inception_a2_concat_0_split
I0305 12:07:04.480180 16077 net.cpp:434] inception_a2_concat_inception_a2_concat_0_split <- inception_a2_concat
I0305 12:07:04.480186 16077 net.cpp:408] inception_a2_concat_inception_a2_concat_0_split -> inception_a2_concat_inception_a2_concat_0_split_0
I0305 12:07:04.480191 16077 net.cpp:408] inception_a2_concat_inception_a2_concat_0_split -> inception_a2_concat_inception_a2_concat_0_split_1
I0305 12:07:04.480196 16077 net.cpp:408] inception_a2_concat_inception_a2_concat_0_split -> inception_a2_concat_inception_a2_concat_0_split_2
I0305 12:07:04.480201 16077 net.cpp:408] inception_a2_concat_inception_a2_concat_0_split -> inception_a2_concat_inception_a2_concat_0_split_3
I0305 12:07:04.480264 16077 net.cpp:150] Setting up inception_a2_concat_inception_a2_concat_0_split
I0305 12:07:04.480273 16077 net.cpp:157] Top shape: 8 384 35 35 (3763200)
I0305 12:07:04.480275 16077 net.cpp:157] Top shape: 8 384 35 35 (3763200)
I0305 12:07:04.480278 16077 net.cpp:157] Top shape: 8 384 35 35 (3763200)
I0305 12:07:04.480280 16077 net.cpp:157] Top shape: 8 384 35 35 (3763200)
I0305 12:07:04.480283 16077 net.cpp:165] Memory required for data: 1252124032
I0305 12:07:04.480285 16077 layer_factory.hpp:77] Creating layer inception_a3_pool
I0305 12:07:04.480293 16077 net.cpp:100] Creating Layer inception_a3_pool
I0305 12:07:04.480294 16077 net.cpp:434] inception_a3_pool <- inception_a2_concat_inception_a2_concat_0_split_0
I0305 12:07:04.480299 16077 net.cpp:408] inception_a3_pool -> inception_a3_pool
I0305 12:07:04.480479 16077 net.cpp:150] Setting up inception_a3_pool
I0305 12:07:04.480489 16077 net.cpp:157] Top shape: 8 384 35 35 (3763200)
I0305 12:07:04.480492 16077 net.cpp:165] Memory required for data: 1267176832
I0305 12:07:04.480495 16077 layer_factory.hpp:77] Creating layer inception_a3_conv1_1_1x1
I0305 12:07:04.480502 16077 net.cpp:100] Creating Layer inception_a3_conv1_1_1x1
I0305 12:07:04.480505 16077 net.cpp:434] inception_a3_conv1_1_1x1 <- inception_a3_pool
I0305 12:07:04.480511 16077 net.cpp:408] inception_a3_conv1_1_1x1 -> inception_a3_conv1_1_1x1
I0305 12:07:04.481719 16077 net.cpp:150] Setting up inception_a3_conv1_1_1x1
I0305 12:07:04.481732 16077 net.cpp:157] Top shape: 8 96 35 35 (940800)
I0305 12:07:04.481735 16077 net.cpp:165] Memory required for data: 1270940032
I0305 12:07:04.481740 16077 layer_factory.hpp:77] Creating layer inception_a3_conv1_1_1x1_bn
I0305 12:07:04.481746 16077 net.cpp:100] Creating Layer inception_a3_conv1_1_1x1_bn
I0305 12:07:04.481750 16077 net.cpp:434] inception_a3_conv1_1_1x1_bn <- inception_a3_conv1_1_1x1
I0305 12:07:04.481755 16077 net.cpp:395] inception_a3_conv1_1_1x1_bn -> inception_a3_conv1_1_1x1 (in-place)
I0305 12:07:04.481930 16077 net.cpp:150] Setting up inception_a3_conv1_1_1x1_bn
I0305 12:07:04.481938 16077 net.cpp:157] Top shape: 8 96 35 35 (940800)
I0305 12:07:04.481940 16077 net.cpp:165] Memory required for data: 1274703232
I0305 12:07:04.481956 16077 layer_factory.hpp:77] Creating layer inception_a3_conv1_1_1x1_relu
I0305 12:07:04.481962 16077 net.cpp:100] Creating Layer inception_a3_conv1_1_1x1_relu
I0305 12:07:04.481966 16077 net.cpp:434] inception_a3_conv1_1_1x1_relu <- inception_a3_conv1_1_1x1
I0305 12:07:04.481969 16077 net.cpp:395] inception_a3_conv1_1_1x1_relu -> inception_a3_conv1_1_1x1 (in-place)
I0305 12:07:04.482132 16077 net.cpp:150] Setting up inception_a3_conv1_1_1x1_relu
I0305 12:07:04.482141 16077 net.cpp:157] Top shape: 8 96 35 35 (940800)
I0305 12:07:04.482144 16077 net.cpp:165] Memory required for data: 1278466432
I0305 12:07:04.482147 16077 layer_factory.hpp:77] Creating layer inception_a3_conv2_1_1x1
I0305 12:07:04.482156 16077 net.cpp:100] Creating Layer inception_a3_conv2_1_1x1
I0305 12:07:04.482158 16077 net.cpp:434] inception_a3_conv2_1_1x1 <- inception_a2_concat_inception_a2_concat_0_split_1
I0305 12:07:04.482164 16077 net.cpp:408] inception_a3_conv2_1_1x1 -> inception_a3_conv2_1_1x1
I0305 12:07:04.483331 16077 net.cpp:150] Setting up inception_a3_conv2_1_1x1
I0305 12:07:04.483345 16077 net.cpp:157] Top shape: 8 96 35 35 (940800)
I0305 12:07:04.483347 16077 net.cpp:165] Memory required for data: 1282229632
I0305 12:07:04.483352 16077 layer_factory.hpp:77] Creating layer inception_a3_conv2_1_1x1_bn
I0305 12:07:04.483357 16077 net.cpp:100] Creating Layer inception_a3_conv2_1_1x1_bn
I0305 12:07:04.483361 16077 net.cpp:434] inception_a3_conv2_1_1x1_bn <- inception_a3_conv2_1_1x1
I0305 12:07:04.483366 16077 net.cpp:395] inception_a3_conv2_1_1x1_bn -> inception_a3_conv2_1_1x1 (in-place)
I0305 12:07:04.483543 16077 net.cpp:150] Setting up inception_a3_conv2_1_1x1_bn
I0305 12:07:04.483551 16077 net.cpp:157] Top shape: 8 96 35 35 (940800)
I0305 12:07:04.483552 16077 net.cpp:165] Memory required for data: 1285992832
I0305 12:07:04.483567 16077 layer_factory.hpp:77] Creating layer inception_a3_conv2_1_1x1_relu
I0305 12:07:04.483572 16077 net.cpp:100] Creating Layer inception_a3_conv2_1_1x1_relu
I0305 12:07:04.483575 16077 net.cpp:434] inception_a3_conv2_1_1x1_relu <- inception_a3_conv2_1_1x1
I0305 12:07:04.483579 16077 net.cpp:395] inception_a3_conv2_1_1x1_relu -> inception_a3_conv2_1_1x1 (in-place)
I0305 12:07:04.484040 16077 net.cpp:150] Setting up inception_a3_conv2_1_1x1_relu
I0305 12:07:04.484052 16077 net.cpp:157] Top shape: 8 96 35 35 (940800)
I0305 12:07:04.484055 16077 net.cpp:165] Memory required for data: 1289756032
I0305 12:07:04.484058 16077 layer_factory.hpp:77] Creating layer inception_a3_conv3_1_1x1
I0305 12:07:04.484066 16077 net.cpp:100] Creating Layer inception_a3_conv3_1_1x1
I0305 12:07:04.484071 16077 net.cpp:434] inception_a3_conv3_1_1x1 <- inception_a2_concat_inception_a2_concat_0_split_2
I0305 12:07:04.484077 16077 net.cpp:408] inception_a3_conv3_1_1x1 -> inception_a3_conv3_1_1x1
I0305 12:07:04.485373 16077 net.cpp:150] Setting up inception_a3_conv3_1_1x1
I0305 12:07:04.485385 16077 net.cpp:157] Top shape: 8 64 35 35 (627200)
I0305 12:07:04.485388 16077 net.cpp:165] Memory required for data: 1292264832
I0305 12:07:04.485394 16077 layer_factory.hpp:77] Creating layer inception_a3_conv3_1_1x1_bn
I0305 12:07:04.485400 16077 net.cpp:100] Creating Layer inception_a3_conv3_1_1x1_bn
I0305 12:07:04.485404 16077 net.cpp:434] inception_a3_conv3_1_1x1_bn <- inception_a3_conv3_1_1x1
I0305 12:07:04.485409 16077 net.cpp:395] inception_a3_conv3_1_1x1_bn -> inception_a3_conv3_1_1x1 (in-place)
I0305 12:07:04.485586 16077 net.cpp:150] Setting up inception_a3_conv3_1_1x1_bn
I0305 12:07:04.485594 16077 net.cpp:157] Top shape: 8 64 35 35 (627200)
I0305 12:07:04.485596 16077 net.cpp:165] Memory required for data: 1294773632
I0305 12:07:04.485601 16077 layer_factory.hpp:77] Creating layer inception_a3_conv3_1_1x1_relu
I0305 12:07:04.485605 16077 net.cpp:100] Creating Layer inception_a3_conv3_1_1x1_relu
I0305 12:07:04.485608 16077 net.cpp:434] inception_a3_conv3_1_1x1_relu <- inception_a3_conv3_1_1x1
I0305 12:07:04.485611 16077 net.cpp:395] inception_a3_conv3_1_1x1_relu -> inception_a3_conv3_1_1x1 (in-place)
I0305 12:07:04.486060 16077 net.cpp:150] Setting up inception_a3_conv3_1_1x1_relu
I0305 12:07:04.486071 16077 net.cpp:157] Top shape: 8 64 35 35 (627200)
I0305 12:07:04.486074 16077 net.cpp:165] Memory required for data: 1297282432
I0305 12:07:04.486076 16077 layer_factory.hpp:77] Creating layer inception_a3_conv3_2_3x3
I0305 12:07:04.486086 16077 net.cpp:100] Creating Layer inception_a3_conv3_2_3x3
I0305 12:07:04.486089 16077 net.cpp:434] inception_a3_conv3_2_3x3 <- inception_a3_conv3_1_1x1
I0305 12:07:04.486094 16077 net.cpp:408] inception_a3_conv3_2_3x3 -> inception_a3_conv3_2_3x3
I0305 12:07:04.487634 16077 net.cpp:150] Setting up inception_a3_conv3_2_3x3
I0305 12:07:04.487648 16077 net.cpp:157] Top shape: 8 96 35 35 (940800)
I0305 12:07:04.487649 16077 net.cpp:165] Memory required for data: 1301045632
I0305 12:07:04.487655 16077 layer_factory.hpp:77] Creating layer inception_a3_conv3_2_3x3_bn
I0305 12:07:04.487661 16077 net.cpp:100] Creating Layer inception_a3_conv3_2_3x3_bn
I0305 12:07:04.487665 16077 net.cpp:434] inception_a3_conv3_2_3x3_bn <- inception_a3_conv3_2_3x3
I0305 12:07:04.487670 16077 net.cpp:395] inception_a3_conv3_2_3x3_bn -> inception_a3_conv3_2_3x3 (in-place)
I0305 12:07:04.487854 16077 net.cpp:150] Setting up inception_a3_conv3_2_3x3_bn
I0305 12:07:04.487860 16077 net.cpp:157] Top shape: 8 96 35 35 (940800)
I0305 12:07:04.487864 16077 net.cpp:165] Memory required for data: 1304808832
I0305 12:07:04.487869 16077 layer_factory.hpp:77] Creating layer inception_a3_conv3_2_3x3_relu
I0305 12:07:04.487874 16077 net.cpp:100] Creating Layer inception_a3_conv3_2_3x3_relu
I0305 12:07:04.487875 16077 net.cpp:434] inception_a3_conv3_2_3x3_relu <- inception_a3_conv3_2_3x3
I0305 12:07:04.487879 16077 net.cpp:395] inception_a3_conv3_2_3x3_relu -> inception_a3_conv3_2_3x3 (in-place)
I0305 12:07:04.488042 16077 net.cpp:150] Setting up inception_a3_conv3_2_3x3_relu
I0305 12:07:04.488065 16077 net.cpp:157] Top shape: 8 96 35 35 (940800)
I0305 12:07:04.488066 16077 net.cpp:165] Memory required for data: 1308572032
I0305 12:07:04.488070 16077 layer_factory.hpp:77] Creating layer inception_a3_conv4_1_1x1
I0305 12:07:04.488078 16077 net.cpp:100] Creating Layer inception_a3_conv4_1_1x1
I0305 12:07:04.488081 16077 net.cpp:434] inception_a3_conv4_1_1x1 <- inception_a2_concat_inception_a2_concat_0_split_3
I0305 12:07:04.488087 16077 net.cpp:408] inception_a3_conv4_1_1x1 -> inception_a3_conv4_1_1x1
I0305 12:07:04.489221 16077 net.cpp:150] Setting up inception_a3_conv4_1_1x1
I0305 12:07:04.489234 16077 net.cpp:157] Top shape: 8 64 35 35 (627200)
I0305 12:07:04.489238 16077 net.cpp:165] Memory required for data: 1311080832
I0305 12:07:04.489243 16077 layer_factory.hpp:77] Creating layer inception_a3_conv4_1_1x1_bn
I0305 12:07:04.489249 16077 net.cpp:100] Creating Layer inception_a3_conv4_1_1x1_bn
I0305 12:07:04.489253 16077 net.cpp:434] inception_a3_conv4_1_1x1_bn <- inception_a3_conv4_1_1x1
I0305 12:07:04.489259 16077 net.cpp:395] inception_a3_conv4_1_1x1_bn -> inception_a3_conv4_1_1x1 (in-place)
I0305 12:07:04.489450 16077 net.cpp:150] Setting up inception_a3_conv4_1_1x1_bn
I0305 12:07:04.489460 16077 net.cpp:157] Top shape: 8 64 35 35 (627200)
I0305 12:07:04.489464 16077 net.cpp:165] Memory required for data: 1313589632
I0305 12:07:04.489468 16077 layer_factory.hpp:77] Creating layer inception_a3_conv4_1_1x1_relu
I0305 12:07:04.489472 16077 net.cpp:100] Creating Layer inception_a3_conv4_1_1x1_relu
I0305 12:07:04.489476 16077 net.cpp:434] inception_a3_conv4_1_1x1_relu <- inception_a3_conv4_1_1x1
I0305 12:07:04.489480 16077 net.cpp:395] inception_a3_conv4_1_1x1_relu -> inception_a3_conv4_1_1x1 (in-place)
I0305 12:07:04.489956 16077 net.cpp:150] Setting up inception_a3_conv4_1_1x1_relu
I0305 12:07:04.489969 16077 net.cpp:157] Top shape: 8 64 35 35 (627200)
I0305 12:07:04.489971 16077 net.cpp:165] Memory required for data: 1316098432
I0305 12:07:04.489974 16077 layer_factory.hpp:77] Creating layer inception_a3_conv4_2_3x3
I0305 12:07:04.489984 16077 net.cpp:100] Creating Layer inception_a3_conv4_2_3x3
I0305 12:07:04.489989 16077 net.cpp:434] inception_a3_conv4_2_3x3 <- inception_a3_conv4_1_1x1
I0305 12:07:04.489993 16077 net.cpp:408] inception_a3_conv4_2_3x3 -> inception_a3_conv4_2_3x3
I0305 12:07:04.492543 16077 net.cpp:150] Setting up inception_a3_conv4_2_3x3
I0305 12:07:04.492568 16077 net.cpp:157] Top shape: 8 96 35 35 (940800)
I0305 12:07:04.492573 16077 net.cpp:165] Memory required for data: 1319861632
I0305 12:07:04.492584 16077 layer_factory.hpp:77] Creating layer inception_a3_conv4_2_3x3_bn
I0305 12:07:04.492594 16077 net.cpp:100] Creating Layer inception_a3_conv4_2_3x3_bn
I0305 12:07:04.492600 16077 net.cpp:434] inception_a3_conv4_2_3x3_bn <- inception_a3_conv4_2_3x3
I0305 12:07:04.492609 16077 net.cpp:395] inception_a3_conv4_2_3x3_bn -> inception_a3_conv4_2_3x3 (in-place)
I0305 12:07:04.492878 16077 net.cpp:150] Setting up inception_a3_conv4_2_3x3_bn
I0305 12:07:04.492918 16077 net.cpp:157] Top shape: 8 96 35 35 (940800)
I0305 12:07:04.492935 16077 net.cpp:165] Memory required for data: 1323624832
I0305 12:07:04.492955 16077 layer_factory.hpp:77] Creating layer inception_a3_conv4_2_3x3_relu
I0305 12:07:04.492977 16077 net.cpp:100] Creating Layer inception_a3_conv4_2_3x3_relu
I0305 12:07:04.492993 16077 net.cpp:434] inception_a3_conv4_2_3x3_relu <- inception_a3_conv4_2_3x3
I0305 12:07:04.493011 16077 net.cpp:395] inception_a3_conv4_2_3x3_relu -> inception_a3_conv4_2_3x3 (in-place)
I0305 12:07:04.493260 16077 net.cpp:150] Setting up inception_a3_conv4_2_3x3_relu
I0305 12:07:04.493274 16077 net.cpp:157] Top shape: 8 96 35 35 (940800)
I0305 12:07:04.493278 16077 net.cpp:165] Memory required for data: 1327388032
I0305 12:07:04.493283 16077 layer_factory.hpp:77] Creating layer inception_a3_conv4_3_3x3
I0305 12:07:04.493299 16077 net.cpp:100] Creating Layer inception_a3_conv4_3_3x3
I0305 12:07:04.493304 16077 net.cpp:434] inception_a3_conv4_3_3x3 <- inception_a3_conv4_2_3x3
I0305 12:07:04.493330 16077 net.cpp:408] inception_a3_conv4_3_3x3 -> inception_a3_conv4_3_3x3
I0305 12:07:04.496001 16077 net.cpp:150] Setting up inception_a3_conv4_3_3x3
I0305 12:07:04.496021 16077 net.cpp:157] Top shape: 8 96 35 35 (940800)
I0305 12:07:04.496026 16077 net.cpp:165] Memory required for data: 1331151232
I0305 12:07:04.496035 16077 layer_factory.hpp:77] Creating layer inception_a3_conv4_3_3x3_bn
I0305 12:07:04.496045 16077 net.cpp:100] Creating Layer inception_a3_conv4_3_3x3_bn
I0305 12:07:04.496050 16077 net.cpp:434] inception_a3_conv4_3_3x3_bn <- inception_a3_conv4_3_3x3
I0305 12:07:04.496057 16077 net.cpp:395] inception_a3_conv4_3_3x3_bn -> inception_a3_conv4_3_3x3 (in-place)
I0305 12:07:04.496326 16077 net.cpp:150] Setting up inception_a3_conv4_3_3x3_bn
I0305 12:07:04.496337 16077 net.cpp:157] Top shape: 8 96 35 35 (940800)
I0305 12:07:04.496341 16077 net.cpp:165] Memory required for data: 1334914432
I0305 12:07:04.496351 16077 layer_factory.hpp:77] Creating layer inception_a3_conv4_3_3x3_relu
I0305 12:07:04.496359 16077 net.cpp:100] Creating Layer inception_a3_conv4_3_3x3_relu
I0305 12:07:04.496363 16077 net.cpp:434] inception_a3_conv4_3_3x3_relu <- inception_a3_conv4_3_3x3
I0305 12:07:04.496369 16077 net.cpp:395] inception_a3_conv4_3_3x3_relu -> inception_a3_conv4_3_3x3 (in-place)
I0305 12:07:04.496608 16077 net.cpp:150] Setting up inception_a3_conv4_3_3x3_relu
I0305 12:07:04.496621 16077 net.cpp:157] Top shape: 8 96 35 35 (940800)
I0305 12:07:04.496625 16077 net.cpp:165] Memory required for data: 1338677632
I0305 12:07:04.496629 16077 layer_factory.hpp:77] Creating layer inception_a3_concat
I0305 12:07:04.496637 16077 net.cpp:100] Creating Layer inception_a3_concat
I0305 12:07:04.496642 16077 net.cpp:434] inception_a3_concat <- inception_a3_conv1_1_1x1
I0305 12:07:04.496649 16077 net.cpp:434] inception_a3_concat <- inception_a3_conv2_1_1x1
I0305 12:07:04.496654 16077 net.cpp:434] inception_a3_concat <- inception_a3_conv3_2_3x3
I0305 12:07:04.496659 16077 net.cpp:434] inception_a3_concat <- inception_a3_conv4_3_3x3
I0305 12:07:04.496666 16077 net.cpp:408] inception_a3_concat -> inception_a3_concat
I0305 12:07:04.496706 16077 net.cpp:150] Setting up inception_a3_concat
I0305 12:07:04.496716 16077 net.cpp:157] Top shape: 8 384 35 35 (3763200)
I0305 12:07:04.496719 16077 net.cpp:165] Memory required for data: 1353730432
I0305 12:07:04.496724 16077 layer_factory.hpp:77] Creating layer inception_a3_concat_inception_a3_concat_0_split
I0305 12:07:04.496732 16077 net.cpp:100] Creating Layer inception_a3_concat_inception_a3_concat_0_split
I0305 12:07:04.496737 16077 net.cpp:434] inception_a3_concat_inception_a3_concat_0_split <- inception_a3_concat
I0305 12:07:04.496747 16077 net.cpp:408] inception_a3_concat_inception_a3_concat_0_split -> inception_a3_concat_inception_a3_concat_0_split_0
I0305 12:07:04.496755 16077 net.cpp:408] inception_a3_concat_inception_a3_concat_0_split -> inception_a3_concat_inception_a3_concat_0_split_1
I0305 12:07:04.496784 16077 net.cpp:408] inception_a3_concat_inception_a3_concat_0_split -> inception_a3_concat_inception_a3_concat_0_split_2
I0305 12:07:04.496794 16077 net.cpp:408] inception_a3_concat_inception_a3_concat_0_split -> inception_a3_concat_inception_a3_concat_0_split_3
I0305 12:07:04.496876 16077 net.cpp:150] Setting up inception_a3_concat_inception_a3_concat_0_split
I0305 12:07:04.496886 16077 net.cpp:157] Top shape: 8 384 35 35 (3763200)
I0305 12:07:04.496891 16077 net.cpp:157] Top shape: 8 384 35 35 (3763200)
I0305 12:07:04.496896 16077 net.cpp:157] Top shape: 8 384 35 35 (3763200)
I0305 12:07:04.496902 16077 net.cpp:157] Top shape: 8 384 35 35 (3763200)
I0305 12:07:04.496906 16077 net.cpp:165] Memory required for data: 1413941632
I0305 12:07:04.496909 16077 layer_factory.hpp:77] Creating layer inception_a4_pool
I0305 12:07:04.496917 16077 net.cpp:100] Creating Layer inception_a4_pool
I0305 12:07:04.496924 16077 net.cpp:434] inception_a4_pool <- inception_a3_concat_inception_a3_concat_0_split_0
I0305 12:07:04.496932 16077 net.cpp:408] inception_a4_pool -> inception_a4_pool
I0305 12:07:04.497678 16077 net.cpp:150] Setting up inception_a4_pool
I0305 12:07:04.497694 16077 net.cpp:157] Top shape: 8 384 35 35 (3763200)
I0305 12:07:04.497699 16077 net.cpp:165] Memory required for data: 1428994432
I0305 12:07:04.497702 16077 layer_factory.hpp:77] Creating layer inception_a4_conv1_1_1x1
I0305 12:07:04.497717 16077 net.cpp:100] Creating Layer inception_a4_conv1_1_1x1
I0305 12:07:04.497722 16077 net.cpp:434] inception_a4_conv1_1_1x1 <- inception_a4_pool
I0305 12:07:04.497733 16077 net.cpp:408] inception_a4_conv1_1_1x1 -> inception_a4_conv1_1_1x1
I0305 12:07:04.499541 16077 net.cpp:150] Setting up inception_a4_conv1_1_1x1
I0305 12:07:04.499557 16077 net.cpp:157] Top shape: 8 96 35 35 (940800)
I0305 12:07:04.499562 16077 net.cpp:165] Memory required for data: 1432757632
I0305 12:07:04.499570 16077 layer_factory.hpp:77] Creating layer inception_a4_conv1_1_1x1_bn
I0305 12:07:04.499583 16077 net.cpp:100] Creating Layer inception_a4_conv1_1_1x1_bn
I0305 12:07:04.499588 16077 net.cpp:434] inception_a4_conv1_1_1x1_bn <- inception_a4_conv1_1_1x1
I0305 12:07:04.499594 16077 net.cpp:395] inception_a4_conv1_1_1x1_bn -> inception_a4_conv1_1_1x1 (in-place)
I0305 12:07:04.499876 16077 net.cpp:150] Setting up inception_a4_conv1_1_1x1_bn
I0305 12:07:04.499889 16077 net.cpp:157] Top shape: 8 96 35 35 (940800)
I0305 12:07:04.499893 16077 net.cpp:165] Memory required for data: 1436520832
I0305 12:07:04.499902 16077 layer_factory.hpp:77] Creating layer inception_a4_conv1_1_1x1_relu
I0305 12:07:04.499909 16077 net.cpp:100] Creating Layer inception_a4_conv1_1_1x1_relu
I0305 12:07:04.499914 16077 net.cpp:434] inception_a4_conv1_1_1x1_relu <- inception_a4_conv1_1_1x1
I0305 12:07:04.499920 16077 net.cpp:395] inception_a4_conv1_1_1x1_relu -> inception_a4_conv1_1_1x1 (in-place)
I0305 12:07:04.500202 16077 net.cpp:150] Setting up inception_a4_conv1_1_1x1_relu
I0305 12:07:04.500349 16077 net.cpp:157] Top shape: 8 96 35 35 (940800)
I0305 12:07:04.500353 16077 net.cpp:165] Memory required for data: 1440284032
I0305 12:07:04.500357 16077 layer_factory.hpp:77] Creating layer inception_a4_conv2_1_1x1
I0305 12:07:04.500371 16077 net.cpp:100] Creating Layer inception_a4_conv2_1_1x1
I0305 12:07:04.500377 16077 net.cpp:434] inception_a4_conv2_1_1x1 <- inception_a3_concat_inception_a3_concat_0_split_1
I0305 12:07:04.500387 16077 net.cpp:408] inception_a4_conv2_1_1x1 -> inception_a4_conv2_1_1x1
I0305 12:07:04.501961 16077 net.cpp:150] Setting up inception_a4_conv2_1_1x1
I0305 12:07:04.501979 16077 net.cpp:157] Top shape: 8 96 35 35 (940800)
I0305 12:07:04.501982 16077 net.cpp:165] Memory required for data: 1444047232
I0305 12:07:04.501988 16077 layer_factory.hpp:77] Creating layer inception_a4_conv2_1_1x1_bn
I0305 12:07:04.501997 16077 net.cpp:100] Creating Layer inception_a4_conv2_1_1x1_bn
I0305 12:07:04.502001 16077 net.cpp:434] inception_a4_conv2_1_1x1_bn <- inception_a4_conv2_1_1x1
I0305 12:07:04.502005 16077 net.cpp:395] inception_a4_conv2_1_1x1_bn -> inception_a4_conv2_1_1x1 (in-place)
I0305 12:07:04.502212 16077 net.cpp:150] Setting up inception_a4_conv2_1_1x1_bn
I0305 12:07:04.502220 16077 net.cpp:157] Top shape: 8 96 35 35 (940800)
I0305 12:07:04.502223 16077 net.cpp:165] Memory required for data: 1447810432
I0305 12:07:04.502230 16077 layer_factory.hpp:77] Creating layer inception_a4_conv2_1_1x1_relu
I0305 12:07:04.502238 16077 net.cpp:100] Creating Layer inception_a4_conv2_1_1x1_relu
I0305 12:07:04.502244 16077 net.cpp:434] inception_a4_conv2_1_1x1_relu <- inception_a4_conv2_1_1x1
I0305 12:07:04.502250 16077 net.cpp:395] inception_a4_conv2_1_1x1_relu -> inception_a4_conv2_1_1x1 (in-place)
I0305 12:07:04.502432 16077 net.cpp:150] Setting up inception_a4_conv2_1_1x1_relu
I0305 12:07:04.502442 16077 net.cpp:157] Top shape: 8 96 35 35 (940800)
I0305 12:07:04.502444 16077 net.cpp:165] Memory required for data: 1451573632
I0305 12:07:04.502447 16077 layer_factory.hpp:77] Creating layer inception_a4_conv3_1_1x1
I0305 12:07:04.502460 16077 net.cpp:100] Creating Layer inception_a4_conv3_1_1x1
I0305 12:07:04.502468 16077 net.cpp:434] inception_a4_conv3_1_1x1 <- inception_a3_concat_inception_a3_concat_0_split_2
I0305 12:07:04.502497 16077 net.cpp:408] inception_a4_conv3_1_1x1 -> inception_a4_conv3_1_1x1
I0305 12:07:04.503777 16077 net.cpp:150] Setting up inception_a4_conv3_1_1x1
I0305 12:07:04.503792 16077 net.cpp:157] Top shape: 8 64 35 35 (627200)
I0305 12:07:04.503794 16077 net.cpp:165] Memory required for data: 1454082432
I0305 12:07:04.503799 16077 layer_factory.hpp:77] Creating layer inception_a4_conv3_1_1x1_bn
I0305 12:07:04.503808 16077 net.cpp:100] Creating Layer inception_a4_conv3_1_1x1_bn
I0305 12:07:04.503813 16077 net.cpp:434] inception_a4_conv3_1_1x1_bn <- inception_a4_conv3_1_1x1
I0305 12:07:04.503819 16077 net.cpp:395] inception_a4_conv3_1_1x1_bn -> inception_a4_conv3_1_1x1 (in-place)
I0305 12:07:04.504011 16077 net.cpp:150] Setting up inception_a4_conv3_1_1x1_bn
I0305 12:07:04.504022 16077 net.cpp:157] Top shape: 8 64 35 35 (627200)
I0305 12:07:04.504025 16077 net.cpp:165] Memory required for data: 1456591232
I0305 12:07:04.504032 16077 layer_factory.hpp:77] Creating layer inception_a4_conv3_1_1x1_relu
I0305 12:07:04.504040 16077 net.cpp:100] Creating Layer inception_a4_conv3_1_1x1_relu
I0305 12:07:04.504043 16077 net.cpp:434] inception_a4_conv3_1_1x1_relu <- inception_a4_conv3_1_1x1
I0305 12:07:04.504050 16077 net.cpp:395] inception_a4_conv3_1_1x1_relu -> inception_a4_conv3_1_1x1 (in-place)
I0305 12:07:04.504238 16077 net.cpp:150] Setting up inception_a4_conv3_1_1x1_relu
I0305 12:07:04.504247 16077 net.cpp:157] Top shape: 8 64 35 35 (627200)
I0305 12:07:04.504251 16077 net.cpp:165] Memory required for data: 1459100032
I0305 12:07:04.504253 16077 layer_factory.hpp:77] Creating layer inception_a4_conv3_2_3x3
I0305 12:07:04.504264 16077 net.cpp:100] Creating Layer inception_a4_conv3_2_3x3
I0305 12:07:04.504271 16077 net.cpp:434] inception_a4_conv3_2_3x3 <- inception_a4_conv3_1_1x1
I0305 12:07:04.504281 16077 net.cpp:408] inception_a4_conv3_2_3x3 -> inception_a4_conv3_2_3x3
I0305 12:07:04.505888 16077 net.cpp:150] Setting up inception_a4_conv3_2_3x3
I0305 12:07:04.505903 16077 net.cpp:157] Top shape: 8 96 35 35 (940800)
I0305 12:07:04.505905 16077 net.cpp:165] Memory required for data: 1462863232
I0305 12:07:04.505911 16077 layer_factory.hpp:77] Creating layer inception_a4_conv3_2_3x3_bn
I0305 12:07:04.505918 16077 net.cpp:100] Creating Layer inception_a4_conv3_2_3x3_bn
I0305 12:07:04.505923 16077 net.cpp:434] inception_a4_conv3_2_3x3_bn <- inception_a4_conv3_2_3x3
I0305 12:07:04.505928 16077 net.cpp:395] inception_a4_conv3_2_3x3_bn -> inception_a4_conv3_2_3x3 (in-place)
I0305 12:07:04.506129 16077 net.cpp:150] Setting up inception_a4_conv3_2_3x3_bn
I0305 12:07:04.506139 16077 net.cpp:157] Top shape: 8 96 35 35 (940800)
I0305 12:07:04.506141 16077 net.cpp:165] Memory required for data: 1466626432
I0305 12:07:04.506146 16077 layer_factory.hpp:77] Creating layer inception_a4_conv3_2_3x3_relu
I0305 12:07:04.506151 16077 net.cpp:100] Creating Layer inception_a4_conv3_2_3x3_relu
I0305 12:07:04.506155 16077 net.cpp:434] inception_a4_conv3_2_3x3_relu <- inception_a4_conv3_2_3x3
I0305 12:07:04.506160 16077 net.cpp:395] inception_a4_conv3_2_3x3_relu -> inception_a4_conv3_2_3x3 (in-place)
I0305 12:07:04.506639 16077 net.cpp:150] Setting up inception_a4_conv3_2_3x3_relu
I0305 12:07:04.506650 16077 net.cpp:157] Top shape: 8 96 35 35 (940800)
I0305 12:07:04.506654 16077 net.cpp:165] Memory required for data: 1470389632
I0305 12:07:04.506656 16077 layer_factory.hpp:77] Creating layer inception_a4_conv4_1_1x1
I0305 12:07:04.506693 16077 net.cpp:100] Creating Layer inception_a4_conv4_1_1x1
I0305 12:07:04.506698 16077 net.cpp:434] inception_a4_conv4_1_1x1 <- inception_a3_concat_inception_a3_concat_0_split_3
I0305 12:07:04.506705 16077 net.cpp:408] inception_a4_conv4_1_1x1 -> inception_a4_conv4_1_1x1
I0305 12:07:04.507846 16077 net.cpp:150] Setting up inception_a4_conv4_1_1x1
I0305 12:07:04.507858 16077 net.cpp:157] Top shape: 8 64 35 35 (627200)
I0305 12:07:04.507861 16077 net.cpp:165] Memory required for data: 1472898432
I0305 12:07:04.507867 16077 layer_factory.hpp:77] Creating layer inception_a4_conv4_1_1x1_bn
I0305 12:07:04.507884 16077 net.cpp:100] Creating Layer inception_a4_conv4_1_1x1_bn
I0305 12:07:04.507889 16077 net.cpp:434] inception_a4_conv4_1_1x1_bn <- inception_a4_conv4_1_1x1
I0305 12:07:04.507892 16077 net.cpp:395] inception_a4_conv4_1_1x1_bn -> inception_a4_conv4_1_1x1 (in-place)
I0305 12:07:04.508077 16077 net.cpp:150] Setting up inception_a4_conv4_1_1x1_bn
I0305 12:07:04.508085 16077 net.cpp:157] Top shape: 8 64 35 35 (627200)
I0305 12:07:04.508087 16077 net.cpp:165] Memory required for data: 1475407232
I0305 12:07:04.508103 16077 layer_factory.hpp:77] Creating layer inception_a4_conv4_1_1x1_relu
I0305 12:07:04.508108 16077 net.cpp:100] Creating Layer inception_a4_conv4_1_1x1_relu
I0305 12:07:04.508111 16077 net.cpp:434] inception_a4_conv4_1_1x1_relu <- inception_a4_conv4_1_1x1
I0305 12:07:04.508116 16077 net.cpp:395] inception_a4_conv4_1_1x1_relu -> inception_a4_conv4_1_1x1 (in-place)
I0305 12:07:04.508276 16077 net.cpp:150] Setting up inception_a4_conv4_1_1x1_relu
I0305 12:07:04.508285 16077 net.cpp:157] Top shape: 8 64 35 35 (627200)
I0305 12:07:04.508287 16077 net.cpp:165] Memory required for data: 1477916032
I0305 12:07:04.508291 16077 layer_factory.hpp:77] Creating layer inception_a4_conv4_2_3x3
I0305 12:07:04.508299 16077 net.cpp:100] Creating Layer inception_a4_conv4_2_3x3
I0305 12:07:04.508302 16077 net.cpp:434] inception_a4_conv4_2_3x3 <- inception_a4_conv4_1_1x1
I0305 12:07:04.508307 16077 net.cpp:408] inception_a4_conv4_2_3x3 -> inception_a4_conv4_2_3x3
I0305 12:07:04.509882 16077 net.cpp:150] Setting up inception_a4_conv4_2_3x3
I0305 12:07:04.509893 16077 net.cpp:157] Top shape: 8 96 35 35 (940800)
I0305 12:07:04.509896 16077 net.cpp:165] Memory required for data: 1481679232
I0305 12:07:04.509902 16077 layer_factory.hpp:77] Creating layer inception_a4_conv4_2_3x3_bn
I0305 12:07:04.509907 16077 net.cpp:100] Creating Layer inception_a4_conv4_2_3x3_bn
I0305 12:07:04.509912 16077 net.cpp:434] inception_a4_conv4_2_3x3_bn <- inception_a4_conv4_2_3x3
I0305 12:07:04.509917 16077 net.cpp:395] inception_a4_conv4_2_3x3_bn -> inception_a4_conv4_2_3x3 (in-place)
I0305 12:07:04.510114 16077 net.cpp:150] Setting up inception_a4_conv4_2_3x3_bn
I0305 12:07:04.510123 16077 net.cpp:157] Top shape: 8 96 35 35 (940800)
I0305 12:07:04.510125 16077 net.cpp:165] Memory required for data: 1485442432
I0305 12:07:04.510130 16077 layer_factory.hpp:77] Creating layer inception_a4_conv4_2_3x3_relu
I0305 12:07:04.510134 16077 net.cpp:100] Creating Layer inception_a4_conv4_2_3x3_relu
I0305 12:07:04.510138 16077 net.cpp:434] inception_a4_conv4_2_3x3_relu <- inception_a4_conv4_2_3x3
I0305 12:07:04.510140 16077 net.cpp:395] inception_a4_conv4_2_3x3_relu -> inception_a4_conv4_2_3x3 (in-place)
I0305 12:07:04.510305 16077 net.cpp:150] Setting up inception_a4_conv4_2_3x3_relu
I0305 12:07:04.510313 16077 net.cpp:157] Top shape: 8 96 35 35 (940800)
I0305 12:07:04.510316 16077 net.cpp:165] Memory required for data: 1489205632
I0305 12:07:04.510318 16077 layer_factory.hpp:77] Creating layer inception_a4_conv4_3_3x3
I0305 12:07:04.510327 16077 net.cpp:100] Creating Layer inception_a4_conv4_3_3x3
I0305 12:07:04.510330 16077 net.cpp:434] inception_a4_conv4_3_3x3 <- inception_a4_conv4_2_3x3
I0305 12:07:04.510336 16077 net.cpp:408] inception_a4_conv4_3_3x3 -> inception_a4_conv4_3_3x3
I0305 12:07:04.511934 16077 net.cpp:150] Setting up inception_a4_conv4_3_3x3
I0305 12:07:04.511945 16077 net.cpp:157] Top shape: 8 96 35 35 (940800)
I0305 12:07:04.511948 16077 net.cpp:165] Memory required for data: 1492968832
I0305 12:07:04.511953 16077 layer_factory.hpp:77] Creating layer inception_a4_conv4_3_3x3_bn
I0305 12:07:04.511960 16077 net.cpp:100] Creating Layer inception_a4_conv4_3_3x3_bn
I0305 12:07:04.511962 16077 net.cpp:434] inception_a4_conv4_3_3x3_bn <- inception_a4_conv4_3_3x3
I0305 12:07:04.511966 16077 net.cpp:395] inception_a4_conv4_3_3x3_bn -> inception_a4_conv4_3_3x3 (in-place)
I0305 12:07:04.512184 16077 net.cpp:150] Setting up inception_a4_conv4_3_3x3_bn
I0305 12:07:04.512192 16077 net.cpp:157] Top shape: 8 96 35 35 (940800)
I0305 12:07:04.512203 16077 net.cpp:165] Memory required for data: 1496732032
I0305 12:07:04.512208 16077 layer_factory.hpp:77] Creating layer inception_a4_conv4_3_3x3_relu
I0305 12:07:04.512213 16077 net.cpp:100] Creating Layer inception_a4_conv4_3_3x3_relu
I0305 12:07:04.512215 16077 net.cpp:434] inception_a4_conv4_3_3x3_relu <- inception_a4_conv4_3_3x3
I0305 12:07:04.512220 16077 net.cpp:395] inception_a4_conv4_3_3x3_relu -> inception_a4_conv4_3_3x3 (in-place)
I0305 12:07:04.512713 16077 net.cpp:150] Setting up inception_a4_conv4_3_3x3_relu
I0305 12:07:04.512724 16077 net.cpp:157] Top shape: 8 96 35 35 (940800)
I0305 12:07:04.512727 16077 net.cpp:165] Memory required for data: 1500495232
I0305 12:07:04.512730 16077 layer_factory.hpp:77] Creating layer inception_a4_concat
I0305 12:07:04.512738 16077 net.cpp:100] Creating Layer inception_a4_concat
I0305 12:07:04.512742 16077 net.cpp:434] inception_a4_concat <- inception_a4_conv1_1_1x1
I0305 12:07:04.512745 16077 net.cpp:434] inception_a4_concat <- inception_a4_conv2_1_1x1
I0305 12:07:04.512749 16077 net.cpp:434] inception_a4_concat <- inception_a4_conv3_2_3x3
I0305 12:07:04.512751 16077 net.cpp:434] inception_a4_concat <- inception_a4_conv4_3_3x3
I0305 12:07:04.512755 16077 net.cpp:408] inception_a4_concat -> inception_a4_concat
I0305 12:07:04.512785 16077 net.cpp:150] Setting up inception_a4_concat
I0305 12:07:04.512792 16077 net.cpp:157] Top shape: 8 384 35 35 (3763200)
I0305 12:07:04.512794 16077 net.cpp:165] Memory required for data: 1515548032
I0305 12:07:04.512797 16077 layer_factory.hpp:77] Creating layer inception_a4_concat_inception_a4_concat_0_split
I0305 12:07:04.512802 16077 net.cpp:100] Creating Layer inception_a4_concat_inception_a4_concat_0_split
I0305 12:07:04.512805 16077 net.cpp:434] inception_a4_concat_inception_a4_concat_0_split <- inception_a4_concat
I0305 12:07:04.512810 16077 net.cpp:408] inception_a4_concat_inception_a4_concat_0_split -> inception_a4_concat_inception_a4_concat_0_split_0
I0305 12:07:04.512815 16077 net.cpp:408] inception_a4_concat_inception_a4_concat_0_split -> inception_a4_concat_inception_a4_concat_0_split_1
I0305 12:07:04.512820 16077 net.cpp:408] inception_a4_concat_inception_a4_concat_0_split -> inception_a4_concat_inception_a4_concat_0_split_2
I0305 12:07:04.512864 16077 net.cpp:150] Setting up inception_a4_concat_inception_a4_concat_0_split
I0305 12:07:04.512871 16077 net.cpp:157] Top shape: 8 384 35 35 (3763200)
I0305 12:07:04.512873 16077 net.cpp:157] Top shape: 8 384 35 35 (3763200)
I0305 12:07:04.512876 16077 net.cpp:157] Top shape: 8 384 35 35 (3763200)
I0305 12:07:04.512878 16077 net.cpp:165] Memory required for data: 1560706432
I0305 12:07:04.512881 16077 layer_factory.hpp:77] Creating layer reduction_a_pool
I0305 12:07:04.512888 16077 net.cpp:100] Creating Layer reduction_a_pool
I0305 12:07:04.512892 16077 net.cpp:434] reduction_a_pool <- inception_a4_concat_inception_a4_concat_0_split_0
I0305 12:07:04.512895 16077 net.cpp:408] reduction_a_pool -> reduction_a_pool
I0305 12:07:04.512930 16077 net.cpp:150] Setting up reduction_a_pool
I0305 12:07:04.512936 16077 net.cpp:157] Top shape: 8 384 17 17 (887808)
I0305 12:07:04.512938 16077 net.cpp:165] Memory required for data: 1564257664
I0305 12:07:04.512941 16077 layer_factory.hpp:77] Creating layer reduction_a_conv2_1_3x3
I0305 12:07:04.512949 16077 net.cpp:100] Creating Layer reduction_a_conv2_1_3x3
I0305 12:07:04.512951 16077 net.cpp:434] reduction_a_conv2_1_3x3 <- inception_a4_concat_inception_a4_concat_0_split_1
I0305 12:07:04.512957 16077 net.cpp:408] reduction_a_conv2_1_3x3 -> reduction_a_conv2_1_3x3
I0305 12:07:04.521255 16077 net.cpp:150] Setting up reduction_a_conv2_1_3x3
I0305 12:07:04.521279 16077 net.cpp:157] Top shape: 8 384 17 17 (887808)
I0305 12:07:04.521282 16077 net.cpp:165] Memory required for data: 1567808896
I0305 12:07:04.521291 16077 layer_factory.hpp:77] Creating layer reduction_a_conv2_1_3x3_bn
I0305 12:07:04.521302 16077 net.cpp:100] Creating Layer reduction_a_conv2_1_3x3_bn
I0305 12:07:04.521327 16077 net.cpp:434] reduction_a_conv2_1_3x3_bn <- reduction_a_conv2_1_3x3
I0305 12:07:04.521332 16077 net.cpp:395] reduction_a_conv2_1_3x3_bn -> reduction_a_conv2_1_3x3 (in-place)
I0305 12:07:04.521549 16077 net.cpp:150] Setting up reduction_a_conv2_1_3x3_bn
I0305 12:07:04.521559 16077 net.cpp:157] Top shape: 8 384 17 17 (887808)
I0305 12:07:04.521560 16077 net.cpp:165] Memory required for data: 1571360128
I0305 12:07:04.521566 16077 layer_factory.hpp:77] Creating layer reduction_a_conv2_1_3x3_relu
I0305 12:07:04.521571 16077 net.cpp:100] Creating Layer reduction_a_conv2_1_3x3_relu
I0305 12:07:04.521574 16077 net.cpp:434] reduction_a_conv2_1_3x3_relu <- reduction_a_conv2_1_3x3
I0305 12:07:04.521579 16077 net.cpp:395] reduction_a_conv2_1_3x3_relu -> reduction_a_conv2_1_3x3 (in-place)
I0305 12:07:04.521756 16077 net.cpp:150] Setting up reduction_a_conv2_1_3x3_relu
I0305 12:07:04.521765 16077 net.cpp:157] Top shape: 8 384 17 17 (887808)
I0305 12:07:04.521769 16077 net.cpp:165] Memory required for data: 1574911360
I0305 12:07:04.521770 16077 layer_factory.hpp:77] Creating layer reduction_a_conv3_1_1x1
I0305 12:07:04.521781 16077 net.cpp:100] Creating Layer reduction_a_conv3_1_1x1
I0305 12:07:04.521785 16077 net.cpp:434] reduction_a_conv3_1_1x1 <- inception_a4_concat_inception_a4_concat_0_split_2
I0305 12:07:04.521791 16077 net.cpp:408] reduction_a_conv3_1_1x1 -> reduction_a_conv3_1_1x1
I0305 12:07:04.523368 16077 net.cpp:150] Setting up reduction_a_conv3_1_1x1
I0305 12:07:04.523381 16077 net.cpp:157] Top shape: 8 192 35 35 (1881600)
I0305 12:07:04.523385 16077 net.cpp:165] Memory required for data: 1582437760
I0305 12:07:04.523391 16077 layer_factory.hpp:77] Creating layer reduction_a_conv3_1_1x1_bn
I0305 12:07:04.523397 16077 net.cpp:100] Creating Layer reduction_a_conv3_1_1x1_bn
I0305 12:07:04.523401 16077 net.cpp:434] reduction_a_conv3_1_1x1_bn <- reduction_a_conv3_1_1x1
I0305 12:07:04.523404 16077 net.cpp:395] reduction_a_conv3_1_1x1_bn -> reduction_a_conv3_1_1x1 (in-place)
I0305 12:07:04.523589 16077 net.cpp:150] Setting up reduction_a_conv3_1_1x1_bn
I0305 12:07:04.523597 16077 net.cpp:157] Top shape: 8 192 35 35 (1881600)
I0305 12:07:04.523600 16077 net.cpp:165] Memory required for data: 1589964160
I0305 12:07:04.523605 16077 layer_factory.hpp:77] Creating layer reduction_a_conv3_1_1x1_relu
I0305 12:07:04.523610 16077 net.cpp:100] Creating Layer reduction_a_conv3_1_1x1_relu
I0305 12:07:04.523613 16077 net.cpp:434] reduction_a_conv3_1_1x1_relu <- reduction_a_conv3_1_1x1
I0305 12:07:04.523617 16077 net.cpp:395] reduction_a_conv3_1_1x1_relu -> reduction_a_conv3_1_1x1 (in-place)
I0305 12:07:04.523779 16077 net.cpp:150] Setting up reduction_a_conv3_1_1x1_relu
I0305 12:07:04.523788 16077 net.cpp:157] Top shape: 8 192 35 35 (1881600)
I0305 12:07:04.523790 16077 net.cpp:165] Memory required for data: 1597490560
I0305 12:07:04.523793 16077 layer_factory.hpp:77] Creating layer reduction_a_conv3_2_3x3
I0305 12:07:04.523802 16077 net.cpp:100] Creating Layer reduction_a_conv3_2_3x3
I0305 12:07:04.523805 16077 net.cpp:434] reduction_a_conv3_2_3x3 <- reduction_a_conv3_1_1x1
I0305 12:07:04.523811 16077 net.cpp:408] reduction_a_conv3_2_3x3 -> reduction_a_conv3_2_3x3
I0305 12:07:04.527448 16077 net.cpp:150] Setting up reduction_a_conv3_2_3x3
I0305 12:07:04.527472 16077 net.cpp:157] Top shape: 8 224 35 35 (2195200)
I0305 12:07:04.527477 16077 net.cpp:165] Memory required for data: 1606271360
I0305 12:07:04.527482 16077 layer_factory.hpp:77] Creating layer reduction_a_conv3_2_3x3_bn
I0305 12:07:04.527488 16077 net.cpp:100] Creating Layer reduction_a_conv3_2_3x3_bn
I0305 12:07:04.527492 16077 net.cpp:434] reduction_a_conv3_2_3x3_bn <- reduction_a_conv3_2_3x3
I0305 12:07:04.527496 16077 net.cpp:395] reduction_a_conv3_2_3x3_bn -> reduction_a_conv3_2_3x3 (in-place)
I0305 12:07:04.527685 16077 net.cpp:150] Setting up reduction_a_conv3_2_3x3_bn
I0305 12:07:04.527693 16077 net.cpp:157] Top shape: 8 224 35 35 (2195200)
I0305 12:07:04.527695 16077 net.cpp:165] Memory required for data: 1615052160
I0305 12:07:04.527700 16077 layer_factory.hpp:77] Creating layer reduction_a_conv3_2_3x3_relu
I0305 12:07:04.527719 16077 net.cpp:100] Creating Layer reduction_a_conv3_2_3x3_relu
I0305 12:07:04.527722 16077 net.cpp:434] reduction_a_conv3_2_3x3_relu <- reduction_a_conv3_2_3x3
I0305 12:07:04.527725 16077 net.cpp:395] reduction_a_conv3_2_3x3_relu -> reduction_a_conv3_2_3x3 (in-place)
I0305 12:07:04.528204 16077 net.cpp:150] Setting up reduction_a_conv3_2_3x3_relu
I0305 12:07:04.528215 16077 net.cpp:157] Top shape: 8 224 35 35 (2195200)
I0305 12:07:04.528228 16077 net.cpp:165] Memory required for data: 1623832960
I0305 12:07:04.528231 16077 layer_factory.hpp:77] Creating layer reduction_a_conv3_3_3x3
I0305 12:07:04.528242 16077 net.cpp:100] Creating Layer reduction_a_conv3_3_3x3
I0305 12:07:04.528245 16077 net.cpp:434] reduction_a_conv3_3_3x3 <- reduction_a_conv3_2_3x3
I0305 12:07:04.528250 16077 net.cpp:408] reduction_a_conv3_3_3x3 -> reduction_a_conv3_3_3x3
I0305 12:07:04.532553 16077 net.cpp:150] Setting up reduction_a_conv3_3_3x3
I0305 12:07:04.532582 16077 net.cpp:157] Top shape: 8 256 17 17 (591872)
I0305 12:07:04.532585 16077 net.cpp:165] Memory required for data: 1626200448
I0305 12:07:04.532590 16077 layer_factory.hpp:77] Creating layer reduction_a_conv3_3_3x3_bn
I0305 12:07:04.532595 16077 net.cpp:100] Creating Layer reduction_a_conv3_3_3x3_bn
I0305 12:07:04.532599 16077 net.cpp:434] reduction_a_conv3_3_3x3_bn <- reduction_a_conv3_3_3x3
I0305 12:07:04.532605 16077 net.cpp:395] reduction_a_conv3_3_3x3_bn -> reduction_a_conv3_3_3x3 (in-place)
I0305 12:07:04.532783 16077 net.cpp:150] Setting up reduction_a_conv3_3_3x3_bn
I0305 12:07:04.532790 16077 net.cpp:157] Top shape: 8 256 17 17 (591872)
I0305 12:07:04.532793 16077 net.cpp:165] Memory required for data: 1628567936
I0305 12:07:04.532799 16077 layer_factory.hpp:77] Creating layer reduction_a_conv3_3_3x3_relu
I0305 12:07:04.532802 16077 net.cpp:100] Creating Layer reduction_a_conv3_3_3x3_relu
I0305 12:07:04.532805 16077 net.cpp:434] reduction_a_conv3_3_3x3_relu <- reduction_a_conv3_3_3x3
I0305 12:07:04.532810 16077 net.cpp:395] reduction_a_conv3_3_3x3_relu -> reduction_a_conv3_3_3x3 (in-place)
I0305 12:07:04.532968 16077 net.cpp:150] Setting up reduction_a_conv3_3_3x3_relu
I0305 12:07:04.532976 16077 net.cpp:157] Top shape: 8 256 17 17 (591872)
I0305 12:07:04.532979 16077 net.cpp:165] Memory required for data: 1630935424
I0305 12:07:04.532981 16077 layer_factory.hpp:77] Creating layer reduction_a_concat
I0305 12:07:04.532986 16077 net.cpp:100] Creating Layer reduction_a_concat
I0305 12:07:04.532989 16077 net.cpp:434] reduction_a_concat <- reduction_a_pool
I0305 12:07:04.532992 16077 net.cpp:434] reduction_a_concat <- reduction_a_conv2_1_3x3
I0305 12:07:04.532996 16077 net.cpp:434] reduction_a_concat <- reduction_a_conv3_3_3x3
I0305 12:07:04.533000 16077 net.cpp:408] reduction_a_concat -> reduction_a_concat
I0305 12:07:04.533028 16077 net.cpp:150] Setting up reduction_a_concat
I0305 12:07:04.533035 16077 net.cpp:157] Top shape: 8 1024 17 17 (2367488)
I0305 12:07:04.533037 16077 net.cpp:165] Memory required for data: 1640405376
I0305 12:07:04.533040 16077 layer_factory.hpp:77] Creating layer reduction_a_concat_reduction_a_concat_0_split
I0305 12:07:04.533044 16077 net.cpp:100] Creating Layer reduction_a_concat_reduction_a_concat_0_split
I0305 12:07:04.533047 16077 net.cpp:434] reduction_a_concat_reduction_a_concat_0_split <- reduction_a_concat
I0305 12:07:04.533052 16077 net.cpp:408] reduction_a_concat_reduction_a_concat_0_split -> reduction_a_concat_reduction_a_concat_0_split_0
I0305 12:07:04.533058 16077 net.cpp:408] reduction_a_concat_reduction_a_concat_0_split -> reduction_a_concat_reduction_a_concat_0_split_1
I0305 12:07:04.533063 16077 net.cpp:408] reduction_a_concat_reduction_a_concat_0_split -> reduction_a_concat_reduction_a_concat_0_split_2
I0305 12:07:04.533068 16077 net.cpp:408] reduction_a_concat_reduction_a_concat_0_split -> reduction_a_concat_reduction_a_concat_0_split_3
I0305 12:07:04.533123 16077 net.cpp:150] Setting up reduction_a_concat_reduction_a_concat_0_split
I0305 12:07:04.533128 16077 net.cpp:157] Top shape: 8 1024 17 17 (2367488)
I0305 12:07:04.533140 16077 net.cpp:157] Top shape: 8 1024 17 17 (2367488)
I0305 12:07:04.533143 16077 net.cpp:157] Top shape: 8 1024 17 17 (2367488)
I0305 12:07:04.533146 16077 net.cpp:157] Top shape: 8 1024 17 17 (2367488)
I0305 12:07:04.533149 16077 net.cpp:165] Memory required for data: 1678285184
I0305 12:07:04.533151 16077 layer_factory.hpp:77] Creating layer inception_b1_pool
I0305 12:07:04.533159 16077 net.cpp:100] Creating Layer inception_b1_pool
I0305 12:07:04.533161 16077 net.cpp:434] inception_b1_pool <- reduction_a_concat_reduction_a_concat_0_split_0
I0305 12:07:04.533165 16077 net.cpp:408] inception_b1_pool -> inception_b1_pool
I0305 12:07:04.533339 16077 net.cpp:150] Setting up inception_b1_pool
I0305 12:07:04.533346 16077 net.cpp:157] Top shape: 8 1024 17 17 (2367488)
I0305 12:07:04.533349 16077 net.cpp:165] Memory required for data: 1687755136
I0305 12:07:04.533351 16077 layer_factory.hpp:77] Creating layer inception_b1_conv1_1_1x1
I0305 12:07:04.533366 16077 net.cpp:100] Creating Layer inception_b1_conv1_1_1x1
I0305 12:07:04.533372 16077 net.cpp:434] inception_b1_conv1_1_1x1 <- inception_b1_pool
I0305 12:07:04.533381 16077 net.cpp:408] inception_b1_conv1_1_1x1 -> inception_b1_conv1_1_1x1
I0305 12:07:04.534932 16077 net.cpp:150] Setting up inception_b1_conv1_1_1x1
I0305 12:07:04.534945 16077 net.cpp:157] Top shape: 8 128 17 17 (295936)
I0305 12:07:04.534947 16077 net.cpp:165] Memory required for data: 1688938880
I0305 12:07:04.534953 16077 layer_factory.hpp:77] Creating layer inception_b1_conv1_1_1x1_bn
I0305 12:07:04.534958 16077 net.cpp:100] Creating Layer inception_b1_conv1_1_1x1_bn
I0305 12:07:04.534961 16077 net.cpp:434] inception_b1_conv1_1_1x1_bn <- inception_b1_conv1_1_1x1
I0305 12:07:04.534966 16077 net.cpp:395] inception_b1_conv1_1_1x1_bn -> inception_b1_conv1_1_1x1 (in-place)
I0305 12:07:04.535145 16077 net.cpp:150] Setting up inception_b1_conv1_1_1x1_bn
I0305 12:07:04.535152 16077 net.cpp:157] Top shape: 8 128 17 17 (295936)
I0305 12:07:04.535154 16077 net.cpp:165] Memory required for data: 1690122624
I0305 12:07:04.535159 16077 layer_factory.hpp:77] Creating layer inception_b1_conv1_1_1x1_relu
I0305 12:07:04.535163 16077 net.cpp:100] Creating Layer inception_b1_conv1_1_1x1_relu
I0305 12:07:04.535167 16077 net.cpp:434] inception_b1_conv1_1_1x1_relu <- inception_b1_conv1_1_1x1
I0305 12:07:04.535171 16077 net.cpp:395] inception_b1_conv1_1_1x1_relu -> inception_b1_conv1_1_1x1 (in-place)
I0305 12:07:04.535336 16077 net.cpp:150] Setting up inception_b1_conv1_1_1x1_relu
I0305 12:07:04.535346 16077 net.cpp:157] Top shape: 8 128 17 17 (295936)
I0305 12:07:04.535348 16077 net.cpp:165] Memory required for data: 1691306368
I0305 12:07:04.535351 16077 layer_factory.hpp:77] Creating layer inception_b1_conv2_1_1x1
I0305 12:07:04.535358 16077 net.cpp:100] Creating Layer inception_b1_conv2_1_1x1
I0305 12:07:04.535362 16077 net.cpp:434] inception_b1_conv2_1_1x1 <- reduction_a_concat_reduction_a_concat_0_split_1
I0305 12:07:04.535369 16077 net.cpp:408] inception_b1_conv2_1_1x1 -> inception_b1_conv2_1_1x1
I0305 12:07:04.538729 16077 net.cpp:150] Setting up inception_b1_conv2_1_1x1
I0305 12:07:04.538741 16077 net.cpp:157] Top shape: 8 384 17 17 (887808)
I0305 12:07:04.538755 16077 net.cpp:165] Memory required for data: 1694857600
I0305 12:07:04.538760 16077 layer_factory.hpp:77] Creating layer inception_b1_conv2_1_1x1_bn
I0305 12:07:04.538766 16077 net.cpp:100] Creating Layer inception_b1_conv2_1_1x1_bn
I0305 12:07:04.538769 16077 net.cpp:434] inception_b1_conv2_1_1x1_bn <- inception_b1_conv2_1_1x1
I0305 12:07:04.538774 16077 net.cpp:395] inception_b1_conv2_1_1x1_bn -> inception_b1_conv2_1_1x1 (in-place)
I0305 12:07:04.538954 16077 net.cpp:150] Setting up inception_b1_conv2_1_1x1_bn
I0305 12:07:04.538961 16077 net.cpp:157] Top shape: 8 384 17 17 (887808)
I0305 12:07:04.538964 16077 net.cpp:165] Memory required for data: 1698408832
I0305 12:07:04.538969 16077 layer_factory.hpp:77] Creating layer inception_b1_conv2_1_1x1_relu
I0305 12:07:04.538972 16077 net.cpp:100] Creating Layer inception_b1_conv2_1_1x1_relu
I0305 12:07:04.538995 16077 net.cpp:434] inception_b1_conv2_1_1x1_relu <- inception_b1_conv2_1_1x1
I0305 12:07:04.539000 16077 net.cpp:395] inception_b1_conv2_1_1x1_relu -> inception_b1_conv2_1_1x1 (in-place)
I0305 12:07:04.539471 16077 net.cpp:150] Setting up inception_b1_conv2_1_1x1_relu
I0305 12:07:04.539481 16077 net.cpp:157] Top shape: 8 384 17 17 (887808)
I0305 12:07:04.539484 16077 net.cpp:165] Memory required for data: 1701960064
I0305 12:07:04.539486 16077 layer_factory.hpp:77] Creating layer inception_b1_conv3_1_1x1
I0305 12:07:04.539494 16077 net.cpp:100] Creating Layer inception_b1_conv3_1_1x1
I0305 12:07:04.539497 16077 net.cpp:434] inception_b1_conv3_1_1x1 <- reduction_a_concat_reduction_a_concat_0_split_2
I0305 12:07:04.539503 16077 net.cpp:408] inception_b1_conv3_1_1x1 -> inception_b1_conv3_1_1x1
I0305 12:07:04.542078 16077 net.cpp:150] Setting up inception_b1_conv3_1_1x1
I0305 12:07:04.542093 16077 net.cpp:157] Top shape: 8 192 17 17 (443904)
I0305 12:07:04.542094 16077 net.cpp:165] Memory required for data: 1703735680
I0305 12:07:04.542099 16077 layer_factory.hpp:77] Creating layer inception_b1_conv3_1_1x1_bn
I0305 12:07:04.542104 16077 net.cpp:100] Creating Layer inception_b1_conv3_1_1x1_bn
I0305 12:07:04.542109 16077 net.cpp:434] inception_b1_conv3_1_1x1_bn <- inception_b1_conv3_1_1x1
I0305 12:07:04.542112 16077 net.cpp:395] inception_b1_conv3_1_1x1_bn -> inception_b1_conv3_1_1x1 (in-place)
I0305 12:07:04.542340 16077 net.cpp:150] Setting up inception_b1_conv3_1_1x1_bn
I0305 12:07:04.542346 16077 net.cpp:157] Top shape: 8 192 17 17 (443904)
I0305 12:07:04.542349 16077 net.cpp:165] Memory required for data: 1705511296
I0305 12:07:04.542354 16077 layer_factory.hpp:77] Creating layer inception_b1_conv3_1_1x1_relu
I0305 12:07:04.542358 16077 net.cpp:100] Creating Layer inception_b1_conv3_1_1x1_relu
I0305 12:07:04.542361 16077 net.cpp:434] inception_b1_conv3_1_1x1_relu <- inception_b1_conv3_1_1x1
I0305 12:07:04.542366 16077 net.cpp:395] inception_b1_conv3_1_1x1_relu -> inception_b1_conv3_1_1x1 (in-place)
I0305 12:07:04.542521 16077 net.cpp:150] Setting up inception_b1_conv3_1_1x1_relu
I0305 12:07:04.542529 16077 net.cpp:157] Top shape: 8 192 17 17 (443904)
I0305 12:07:04.542531 16077 net.cpp:165] Memory required for data: 1707286912
I0305 12:07:04.542534 16077 layer_factory.hpp:77] Creating layer inception_b1_conv3_2_1x7
I0305 12:07:04.542543 16077 net.cpp:100] Creating Layer inception_b1_conv3_2_1x7
I0305 12:07:04.542546 16077 net.cpp:434] inception_b1_conv3_2_1x7 <- inception_b1_conv3_1_1x1
I0305 12:07:04.542551 16077 net.cpp:408] inception_b1_conv3_2_1x7 -> inception_b1_conv3_2_1x7
I0305 12:07:04.544656 16077 net.cpp:150] Setting up inception_b1_conv3_2_1x7
I0305 12:07:04.544667 16077 net.cpp:157] Top shape: 8 224 17 17 (517888)
I0305 12:07:04.544685 16077 net.cpp:165] Memory required for data: 1709358464
I0305 12:07:04.544690 16077 layer_factory.hpp:77] Creating layer inception_b1_conv3_2_1x7_bn
I0305 12:07:04.544697 16077 net.cpp:100] Creating Layer inception_b1_conv3_2_1x7_bn
I0305 12:07:04.544699 16077 net.cpp:434] inception_b1_conv3_2_1x7_bn <- inception_b1_conv3_2_1x7
I0305 12:07:04.544704 16077 net.cpp:395] inception_b1_conv3_2_1x7_bn -> inception_b1_conv3_2_1x7 (in-place)
I0305 12:07:04.544888 16077 net.cpp:150] Setting up inception_b1_conv3_2_1x7_bn
I0305 12:07:04.544895 16077 net.cpp:157] Top shape: 8 224 17 17 (517888)
I0305 12:07:04.544898 16077 net.cpp:165] Memory required for data: 1711430016
I0305 12:07:04.544903 16077 layer_factory.hpp:77] Creating layer inception_b1_conv3_2_1x7_relu
I0305 12:07:04.544908 16077 net.cpp:100] Creating Layer inception_b1_conv3_2_1x7_relu
I0305 12:07:04.544911 16077 net.cpp:434] inception_b1_conv3_2_1x7_relu <- inception_b1_conv3_2_1x7
I0305 12:07:04.544916 16077 net.cpp:395] inception_b1_conv3_2_1x7_relu -> inception_b1_conv3_2_1x7 (in-place)
I0305 12:07:04.545070 16077 net.cpp:150] Setting up inception_b1_conv3_2_1x7_relu
I0305 12:07:04.545078 16077 net.cpp:157] Top shape: 8 224 17 17 (517888)
I0305 12:07:04.545081 16077 net.cpp:165] Memory required for data: 1713501568
I0305 12:07:04.545092 16077 layer_factory.hpp:77] Creating layer inception_b1_conv3_3_1x7
I0305 12:07:04.545100 16077 net.cpp:100] Creating Layer inception_b1_conv3_3_1x7
I0305 12:07:04.545104 16077 net.cpp:434] inception_b1_conv3_3_1x7 <- inception_b1_conv3_2_1x7
I0305 12:07:04.545109 16077 net.cpp:408] inception_b1_conv3_3_1x7 -> inception_b1_conv3_3_1x7
I0305 12:07:04.548600 16077 net.cpp:150] Setting up inception_b1_conv3_3_1x7
I0305 12:07:04.548612 16077 net.cpp:157] Top shape: 8 256 17 17 (591872)
I0305 12:07:04.548615 16077 net.cpp:165] Memory required for data: 1715869056
I0305 12:07:04.548620 16077 layer_factory.hpp:77] Creating layer inception_b1_conv3_3_1x7_bn
I0305 12:07:04.548627 16077 net.cpp:100] Creating Layer inception_b1_conv3_3_1x7_bn
I0305 12:07:04.548630 16077 net.cpp:434] inception_b1_conv3_3_1x7_bn <- inception_b1_conv3_3_1x7
I0305 12:07:04.548635 16077 net.cpp:395] inception_b1_conv3_3_1x7_bn -> inception_b1_conv3_3_1x7 (in-place)
I0305 12:07:04.548812 16077 net.cpp:150] Setting up inception_b1_conv3_3_1x7_bn
I0305 12:07:04.548820 16077 net.cpp:157] Top shape: 8 256 17 17 (591872)
I0305 12:07:04.548821 16077 net.cpp:165] Memory required for data: 1718236544
I0305 12:07:04.548826 16077 layer_factory.hpp:77] Creating layer inception_b1_conv3_3_1x7_relu
I0305 12:07:04.548832 16077 net.cpp:100] Creating Layer inception_b1_conv3_3_1x7_relu
I0305 12:07:04.548835 16077 net.cpp:434] inception_b1_conv3_3_1x7_relu <- inception_b1_conv3_3_1x7
I0305 12:07:04.548837 16077 net.cpp:395] inception_b1_conv3_3_1x7_relu -> inception_b1_conv3_3_1x7 (in-place)
I0305 12:07:04.549310 16077 net.cpp:150] Setting up inception_b1_conv3_3_1x7_relu
I0305 12:07:04.549322 16077 net.cpp:157] Top shape: 8 256 17 17 (591872)
I0305 12:07:04.549324 16077 net.cpp:165] Memory required for data: 1720604032
I0305 12:07:04.549327 16077 layer_factory.hpp:77] Creating layer inception_b1_conv4_1_1x1
I0305 12:07:04.549335 16077 net.cpp:100] Creating Layer inception_b1_conv4_1_1x1
I0305 12:07:04.549338 16077 net.cpp:434] inception_b1_conv4_1_1x1 <- reduction_a_concat_reduction_a_concat_0_split_3
I0305 12:07:04.549345 16077 net.cpp:408] inception_b1_conv4_1_1x1 -> inception_b1_conv4_1_1x1
I0305 12:07:04.551883 16077 net.cpp:150] Setting up inception_b1_conv4_1_1x1
I0305 12:07:04.551895 16077 net.cpp:157] Top shape: 8 192 17 17 (443904)
I0305 12:07:04.551898 16077 net.cpp:165] Memory required for data: 1722379648
I0305 12:07:04.551903 16077 layer_factory.hpp:77] Creating layer inception_b1_conv4_1_1x1_bn
I0305 12:07:04.551908 16077 net.cpp:100] Creating Layer inception_b1_conv4_1_1x1_bn
I0305 12:07:04.551911 16077 net.cpp:434] inception_b1_conv4_1_1x1_bn <- inception_b1_conv4_1_1x1
I0305 12:07:04.551916 16077 net.cpp:395] inception_b1_conv4_1_1x1_bn -> inception_b1_conv4_1_1x1 (in-place)
I0305 12:07:04.552134 16077 net.cpp:150] Setting up inception_b1_conv4_1_1x1_bn
I0305 12:07:04.552141 16077 net.cpp:157] Top shape: 8 192 17 17 (443904)
I0305 12:07:04.552145 16077 net.cpp:165] Memory required for data: 1724155264
I0305 12:07:04.552150 16077 layer_factory.hpp:77] Creating layer inception_b1_conv4_1_1x1_relu
I0305 12:07:04.552153 16077 net.cpp:100] Creating Layer inception_b1_conv4_1_1x1_relu
I0305 12:07:04.552156 16077 net.cpp:434] inception_b1_conv4_1_1x1_relu <- inception_b1_conv4_1_1x1
I0305 12:07:04.552160 16077 net.cpp:395] inception_b1_conv4_1_1x1_relu -> inception_b1_conv4_1_1x1 (in-place)
I0305 12:07:04.552325 16077 net.cpp:150] Setting up inception_b1_conv4_1_1x1_relu
I0305 12:07:04.552332 16077 net.cpp:157] Top shape: 8 192 17 17 (443904)
I0305 12:07:04.552335 16077 net.cpp:165] Memory required for data: 1725930880
I0305 12:07:04.552338 16077 layer_factory.hpp:77] Creating layer inception_b1_conv4_2_1x7
I0305 12:07:04.552346 16077 net.cpp:100] Creating Layer inception_b1_conv4_2_1x7
I0305 12:07:04.552350 16077 net.cpp:434] inception_b1_conv4_2_1x7 <- inception_b1_conv4_1_1x1
I0305 12:07:04.552354 16077 net.cpp:408] inception_b1_conv4_2_1x7 -> inception_b1_conv4_2_1x7
I0305 12:07:04.554489 16077 net.cpp:150] Setting up inception_b1_conv4_2_1x7
I0305 12:07:04.554502 16077 net.cpp:157] Top shape: 8 192 17 17 (443904)
I0305 12:07:04.554503 16077 net.cpp:165] Memory required for data: 1727706496
I0305 12:07:04.554508 16077 layer_factory.hpp:77] Creating layer inception_b1_conv4_2_1x7_bn
I0305 12:07:04.554514 16077 net.cpp:100] Creating Layer inception_b1_conv4_2_1x7_bn
I0305 12:07:04.554517 16077 net.cpp:434] inception_b1_conv4_2_1x7_bn <- inception_b1_conv4_2_1x7
I0305 12:07:04.554536 16077 net.cpp:395] inception_b1_conv4_2_1x7_bn -> inception_b1_conv4_2_1x7 (in-place)
I0305 12:07:04.554724 16077 net.cpp:150] Setting up inception_b1_conv4_2_1x7_bn
I0305 12:07:04.554730 16077 net.cpp:157] Top shape: 8 192 17 17 (443904)
I0305 12:07:04.554733 16077 net.cpp:165] Memory required for data: 1729482112
I0305 12:07:04.554738 16077 layer_factory.hpp:77] Creating layer inception_b1_conv4_2_1x7_relu
I0305 12:07:04.554744 16077 net.cpp:100] Creating Layer inception_b1_conv4_2_1x7_relu
I0305 12:07:04.554745 16077 net.cpp:434] inception_b1_conv4_2_1x7_relu <- inception_b1_conv4_2_1x7
I0305 12:07:04.554749 16077 net.cpp:395] inception_b1_conv4_2_1x7_relu -> inception_b1_conv4_2_1x7 (in-place)
I0305 12:07:04.554917 16077 net.cpp:150] Setting up inception_b1_conv4_2_1x7_relu
I0305 12:07:04.554929 16077 net.cpp:157] Top shape: 8 192 17 17 (443904)
I0305 12:07:04.554930 16077 net.cpp:165] Memory required for data: 1731257728
I0305 12:07:04.554934 16077 layer_factory.hpp:77] Creating layer inception_b1_conv4_3_7x1
I0305 12:07:04.554942 16077 net.cpp:100] Creating Layer inception_b1_conv4_3_7x1
I0305 12:07:04.554945 16077 net.cpp:434] inception_b1_conv4_3_7x1 <- inception_b1_conv4_2_1x7
I0305 12:07:04.554950 16077 net.cpp:408] inception_b1_conv4_3_7x1 -> inception_b1_conv4_3_7x1
I0305 12:07:04.557849 16077 net.cpp:150] Setting up inception_b1_conv4_3_7x1
I0305 12:07:04.557860 16077 net.cpp:157] Top shape: 8 224 17 17 (517888)
I0305 12:07:04.557863 16077 net.cpp:165] Memory required for data: 1733329280
I0305 12:07:04.557868 16077 layer_factory.hpp:77] Creating layer inception_b1_conv4_3_7x1_bn
I0305 12:07:04.557874 16077 net.cpp:100] Creating Layer inception_b1_conv4_3_7x1_bn
I0305 12:07:04.557878 16077 net.cpp:434] inception_b1_conv4_3_7x1_bn <- inception_b1_conv4_3_7x1
I0305 12:07:04.557880 16077 net.cpp:395] inception_b1_conv4_3_7x1_bn -> inception_b1_conv4_3_7x1 (in-place)
I0305 12:07:04.558082 16077 net.cpp:150] Setting up inception_b1_conv4_3_7x1_bn
I0305 12:07:04.558089 16077 net.cpp:157] Top shape: 8 224 17 17 (517888)
I0305 12:07:04.558092 16077 net.cpp:165] Memory required for data: 1735400832
I0305 12:07:04.558097 16077 layer_factory.hpp:77] Creating layer inception_b1_conv4_3_7x1_relu
I0305 12:07:04.558101 16077 net.cpp:100] Creating Layer inception_b1_conv4_3_7x1_relu
I0305 12:07:04.558104 16077 net.cpp:434] inception_b1_conv4_3_7x1_relu <- inception_b1_conv4_3_7x1
I0305 12:07:04.558109 16077 net.cpp:395] inception_b1_conv4_3_7x1_relu -> inception_b1_conv4_3_7x1 (in-place)
I0305 12:07:04.558598 16077 net.cpp:150] Setting up inception_b1_conv4_3_7x1_relu
I0305 12:07:04.558609 16077 net.cpp:157] Top shape: 8 224 17 17 (517888)
I0305 12:07:04.558611 16077 net.cpp:165] Memory required for data: 1737472384
I0305 12:07:04.558614 16077 layer_factory.hpp:77] Creating layer inception_b1_conv4_4_1x7
I0305 12:07:04.558621 16077 net.cpp:100] Creating Layer inception_b1_conv4_4_1x7
I0305 12:07:04.558624 16077 net.cpp:434] inception_b1_conv4_4_1x7 <- inception_b1_conv4_3_7x1
I0305 12:07:04.558630 16077 net.cpp:408] inception_b1_conv4_4_1x7 -> inception_b1_conv4_4_1x7
I0305 12:07:04.561844 16077 net.cpp:150] Setting up inception_b1_conv4_4_1x7
I0305 12:07:04.561856 16077 net.cpp:157] Top shape: 8 224 17 17 (517888)
I0305 12:07:04.561874 16077 net.cpp:165] Memory required for data: 1739543936
I0305 12:07:04.561900 16077 layer_factory.hpp:77] Creating layer inception_b1_conv4_4_1x7_bn
I0305 12:07:04.561906 16077 net.cpp:100] Creating Layer inception_b1_conv4_4_1x7_bn
I0305 12:07:04.561909 16077 net.cpp:434] inception_b1_conv4_4_1x7_bn <- inception_b1_conv4_4_1x7
I0305 12:07:04.561923 16077 net.cpp:395] inception_b1_conv4_4_1x7_bn -> inception_b1_conv4_4_1x7 (in-place)
I0305 12:07:04.562116 16077 net.cpp:150] Setting up inception_b1_conv4_4_1x7_bn
I0305 12:07:04.562124 16077 net.cpp:157] Top shape: 8 224 17 17 (517888)
I0305 12:07:04.562126 16077 net.cpp:165] Memory required for data: 1741615488
I0305 12:07:04.562131 16077 layer_factory.hpp:77] Creating layer inception_b1_conv4_4_1x7_relu
I0305 12:07:04.562136 16077 net.cpp:100] Creating Layer inception_b1_conv4_4_1x7_relu
I0305 12:07:04.562139 16077 net.cpp:434] inception_b1_conv4_4_1x7_relu <- inception_b1_conv4_4_1x7
I0305 12:07:04.562144 16077 net.cpp:395] inception_b1_conv4_4_1x7_relu -> inception_b1_conv4_4_1x7 (in-place)
I0305 12:07:04.562304 16077 net.cpp:150] Setting up inception_b1_conv4_4_1x7_relu
I0305 12:07:04.562312 16077 net.cpp:157] Top shape: 8 224 17 17 (517888)
I0305 12:07:04.562314 16077 net.cpp:165] Memory required for data: 1743687040
I0305 12:07:04.562316 16077 layer_factory.hpp:77] Creating layer inception_b1_conv4_5_7x1
I0305 12:07:04.562325 16077 net.cpp:100] Creating Layer inception_b1_conv4_5_7x1
I0305 12:07:04.562328 16077 net.cpp:434] inception_b1_conv4_5_7x1 <- inception_b1_conv4_4_1x7
I0305 12:07:04.562333 16077 net.cpp:408] inception_b1_conv4_5_7x1 -> inception_b1_conv4_5_7x1
I0305 12:07:04.565975 16077 net.cpp:150] Setting up inception_b1_conv4_5_7x1
I0305 12:07:04.566009 16077 net.cpp:157] Top shape: 8 256 17 17 (591872)
I0305 12:07:04.566012 16077 net.cpp:165] Memory required for data: 1746054528
I0305 12:07:04.566018 16077 layer_factory.hpp:77] Creating layer inception_b1_conv4_5_7x1_bn
I0305 12:07:04.566028 16077 net.cpp:100] Creating Layer inception_b1_conv4_5_7x1_bn
I0305 12:07:04.566033 16077 net.cpp:434] inception_b1_conv4_5_7x1_bn <- inception_b1_conv4_5_7x1
I0305 12:07:04.566040 16077 net.cpp:395] inception_b1_conv4_5_7x1_bn -> inception_b1_conv4_5_7x1 (in-place)
I0305 12:07:04.566229 16077 net.cpp:150] Setting up inception_b1_conv4_5_7x1_bn
I0305 12:07:04.566236 16077 net.cpp:157] Top shape: 8 256 17 17 (591872)
I0305 12:07:04.566238 16077 net.cpp:165] Memory required for data: 1748422016
I0305 12:07:04.566244 16077 layer_factory.hpp:77] Creating layer inception_b1_conv4_5_7x1_relu
I0305 12:07:04.566251 16077 net.cpp:100] Creating Layer inception_b1_conv4_5_7x1_relu
I0305 12:07:04.566253 16077 net.cpp:434] inception_b1_conv4_5_7x1_relu <- inception_b1_conv4_5_7x1
I0305 12:07:04.566256 16077 net.cpp:395] inception_b1_conv4_5_7x1_relu -> inception_b1_conv4_5_7x1 (in-place)
I0305 12:07:04.566421 16077 net.cpp:150] Setting up inception_b1_conv4_5_7x1_relu
I0305 12:07:04.566427 16077 net.cpp:157] Top shape: 8 256 17 17 (591872)
I0305 12:07:04.566431 16077 net.cpp:165] Memory required for data: 1750789504
I0305 12:07:04.566432 16077 layer_factory.hpp:77] Creating layer inception_b1_concat
I0305 12:07:04.566439 16077 net.cpp:100] Creating Layer inception_b1_concat
I0305 12:07:04.566442 16077 net.cpp:434] inception_b1_concat <- inception_b1_conv1_1_1x1
I0305 12:07:04.566445 16077 net.cpp:434] inception_b1_concat <- inception_b1_conv2_1_1x1
I0305 12:07:04.566448 16077 net.cpp:434] inception_b1_concat <- inception_b1_conv3_3_1x7
I0305 12:07:04.566452 16077 net.cpp:434] inception_b1_concat <- inception_b1_conv4_5_7x1
I0305 12:07:04.566457 16077 net.cpp:408] inception_b1_concat -> inception_b1_concat
I0305 12:07:04.566488 16077 net.cpp:150] Setting up inception_b1_concat
I0305 12:07:04.566494 16077 net.cpp:157] Top shape: 8 1024 17 17 (2367488)
…
I0305 12:07:05.576809 16077 net.cpp:434] inception_c1_concat <- inception_c1_conv6_4_1x3
I0305 12:07:05.576814 16077 net.cpp:408] inception_c1_concat -> inception_c1_concat
I0305 12:07:05.576853 16077 net.cpp:150] Setting up inception_c1_concat
I0305 12:07:05.576858 16077 net.cpp:157] Top shape: 8 1536 8 8 (786432)
I0305 12:07:05.576860 16077 net.cpp:165] Memory required for data: 2587190752
I0305 12:07:05.576864 16077 layer_factory.hpp:77] Creating layer inception_c1_concat_inception_c1_concat_0_split
I0305 12:07:05.576869 16077 net.cpp:100] Creating Layer inception_c1_concat_inception_c1_concat_0_split
I0305 12:07:05.576874 16077 net.cpp:434] inception_c1_concat_inception_c1_concat_0_split <- inception_c1_concat
I0305 12:07:05.576879 16077 net.cpp:408] inception_c1_concat_inception_c1_concat_0_split -> inception_c1_concat_inception_c1_concat_0_split_0
I0305 12:07:05.576884 16077 net.cpp:408] inception_c1_concat_inception_c1_concat_0_split -> inception_c1_concat_inception_c1_concat_0_split_1
I0305 12:07:05.576889 16077 net.cpp:408] inception_c1_concat_inception_c1_concat_0_split -> inception_c1_concat_inception_c1_concat_0_split_2
I0305 12:07:05.576894 16077 net.cpp:408] inception_c1_concat_inception_c1_concat_0_split -> inception_c1_concat_inception_c1_concat_0_split_3
I0305 12:07:05.576949 16077 net.cpp:150] Setting up inception_c1_concat_inception_c1_concat_0_split
I0305 12:07:05.576957 16077 net.cpp:157] Top shape: 8 1536 8 8 (786432)
I0305 12:07:05.576962 16077 net.cpp:157] Top shape: 8 1536 8 8 (786432)
I0305 12:07:05.576967 16077 net.cpp:157] Top shape: 8 1536 8 8 (786432)
I0305 12:07:05.576972 16077 net.cpp:157] Top shape: 8 1536 8 8 (786432)
I0305 12:07:05.576975 16077 net.cpp:165] Memory required for data: 2599773664
I0305 12:07:05.576979 16077 layer_factory.hpp:77] Creating layer inception_c2_pool
I0305 12:07:05.576987 16077 net.cpp:100] Creating Layer inception_c2_pool
I0305 12:07:05.576989 16077 net.cpp:434] inception_c2_pool <- inception_c1_concat_inception_c1_concat_0_split_0
I0305 12:07:05.576995 16077 net.cpp:408] inception_c2_pool -> inception_c2_pool
I0305 12:07:05.577265 16077 net.cpp:150] Setting up inception_c2_pool
I0305 12:07:05.577275 16077 net.cpp:157] Top shape: 8 1536 8 8 (786432)
I0305 12:07:05.577277 16077 net.cpp:165] Memory required for data: 2602919392
I0305 12:07:05.577280 16077 layer_factory.hpp:77] Creating layer inception_c2_conv1_2_1x1
I0305 12:07:05.577288 16077 net.cpp:100] Creating Layer inception_c2_conv1_2_1x1
I0305 12:07:05.577292 16077 net.cpp:434] inception_c2_conv1_2_1x1 <- inception_c2_pool
I0305 12:07:05.577298 16077 net.cpp:408] inception_c2_conv1_2_1x1 -> inception_c2_conv1_2_1x1
I0305 12:07:05.583099 16077 net.cpp:150] Setting up inception_c2_conv1_2_1x1
I0305 12:07:05.583124 16077 net.cpp:157] Top shape: 8 256 8 8 (131072)
I0305 12:07:05.583128 16077 net.cpp:165] Memory required for data: 2603443680
I0305 12:07:05.583137 16077 layer_factory.hpp:77] Creating layer inception_c2_conv1_2_1x1_bn
I0305 12:07:05.583148 16077 net.cpp:100] Creating Layer inception_c2_conv1_2_1x1_bn
I0305 12:07:05.583153 16077 net.cpp:434] inception_c2_conv1_2_1x1_bn <- inception_c2_conv1_2_1x1
I0305 12:07:05.583160 16077 net.cpp:395] inception_c2_conv1_2_1x1_bn -> inception_c2_conv1_2_1x1 (in-place)
I0305 12:07:05.583513 16077 net.cpp:150] Setting up inception_c2_conv1_2_1x1_bn
I0305 12:07:05.583520 16077 net.cpp:157] Top shape: 8 256 8 8 (131072)
I0305 12:07:05.583523 16077 net.cpp:165] Memory required for data: 2603967968
I0305 12:07:05.583530 16077 layer_factory.hpp:77] Creating layer inception_c2_conv1_2_1x1_relu
I0305 12:07:05.583535 16077 net.cpp:100] Creating Layer inception_c2_conv1_2_1x1_relu
I0305 12:07:05.583539 16077 net.cpp:434] inception_c2_conv1_2_1x1_relu <- inception_c2_conv1_2_1x1
I0305 12:07:05.583544 16077 net.cpp:395] inception_c2_conv1_2_1x1_relu -> inception_c2_conv1_2_1x1 (in-place)
I0305 12:07:05.583796 16077 net.cpp:150] Setting up inception_c2_conv1_2_1x1_relu
I0305 12:07:05.583806 16077 net.cpp:157] Top shape: 8 256 8 8 (131072)
I0305 12:07:05.583808 16077 net.cpp:165] Memory required for data: 2604492256
I0305 12:07:05.583811 16077 layer_factory.hpp:77] Creating layer inception_c2_conv2_1_1x1
I0305 12:07:05.583822 16077 net.cpp:100] Creating Layer inception_c2_conv2_1_1x1
I0305 12:07:05.583827 16077 net.cpp:434] inception_c2_conv2_1_1x1 <- inception_c1_concat_inception_c1_concat_0_split_1
I0305 12:07:05.583834 16077 net.cpp:408] inception_c2_conv2_1_1x1 -> inception_c2_conv2_1_1x1
I0305 12:07:05.588629 16077 net.cpp:150] Setting up inception_c2_conv2_1_1x1
I0305 12:07:05.588660 16077 net.cpp:157] Top shape: 8 256 8 8 (131072)
I0305 12:07:05.588662 16077 net.cpp:165] Memory required for data: 2605016544
I0305 12:07:05.588670 16077 layer_factory.hpp:77] Creating layer inception_c2_conv2_1_1x1_bn
I0305 12:07:05.588678 16077 net.cpp:100] Creating Layer inception_c2_conv2_1_1x1_bn
I0305 12:07:05.588682 16077 net.cpp:434] inception_c2_conv2_1_1x1_bn <- inception_c2_conv2_1_1x1
I0305 12:07:05.588690 16077 net.cpp:395] inception_c2_conv2_1_1x1_bn -> inception_c2_conv2_1_1x1 (in-place)
I0305 12:07:05.588878 16077 net.cpp:150] Setting up inception_c2_conv2_1_1x1_bn
I0305 12:07:05.588886 16077 net.cpp:157] Top shape: 8 256 8 8 (131072)
I0305 12:07:05.588889 16077 net.cpp:165] Memory required for data: 2605540832
I0305 12:07:05.588894 16077 layer_factory.hpp:77] Creating layer inception_c2_conv2_1_1x1_relu
I0305 12:07:05.588901 16077 net.cpp:100] Creating Layer inception_c2_conv2_1_1x1_relu
I0305 12:07:05.588905 16077 net.cpp:434] inception_c2_conv2_1_1x1_relu <- inception_c2_conv2_1_1x1
I0305 12:07:05.588913 16077 net.cpp:395] inception_c2_conv2_1_1x1_relu -> inception_c2_conv2_1_1x1 (in-place)
I0305 12:07:05.589156 16077 net.cpp:150] Setting up inception_c2_conv2_1_1x1_relu
I0305 12:07:05.589166 16077 net.cpp:157] Top shape: 8 256 8 8 (131072)
I0305 12:07:05.589169 16077 net.cpp:165] Memory required for data: 2606065120
I0305 12:07:05.589171 16077 layer_factory.hpp:77] Creating layer inception_c2_conv3_1_1x1
I0305 12:07:05.589184 16077 net.cpp:100] Creating Layer inception_c2_conv3_1_1x1
I0305 12:07:05.589191 16077 net.cpp:434] inception_c2_conv3_1_1x1 <- inception_c1_concat_inception_c1_concat_0_split_2
I0305 12:07:05.589231 16077 net.cpp:408] inception_c2_conv3_1_1x1 -> inception_c2_conv3_1_1x1
I0305 12:07:05.595839 16077 net.cpp:150] Setting up inception_c2_conv3_1_1x1
I0305 12:07:05.595852 16077 net.cpp:157] Top shape: 8 384 8 8 (196608)
I0305 12:07:05.595870 16077 net.cpp:165] Memory required for data: 2606851552
I0305 12:07:05.595875 16077 layer_factory.hpp:77] Creating layer inception_c2_conv3_1_1x1_bn
I0305 12:07:05.595882 16077 net.cpp:100] Creating Layer inception_c2_conv3_1_1x1_bn
I0305 12:07:05.595886 16077 net.cpp:434] inception_c2_conv3_1_1x1_bn <- inception_c2_conv3_1_1x1
I0305 12:07:05.595890 16077 net.cpp:395] inception_c2_conv3_1_1x1_bn -> inception_c2_conv3_1_1x1 (in-place)
I0305 12:07:05.596132 16077 net.cpp:150] Setting up inception_c2_conv3_1_1x1_bn
I0305 12:07:05.596139 16077 net.cpp:157] Top shape: 8 384 8 8 (196608)
I0305 12:07:05.596143 16077 net.cpp:165] Memory required for data: 2607637984
I0305 12:07:05.596148 16077 layer_factory.hpp:77] Creating layer inception_c2_conv3_1_1x1_relu
I0305 12:07:05.596151 16077 net.cpp:100] Creating Layer inception_c2_conv3_1_1x1_relu
I0305 12:07:05.596155 16077 net.cpp:434] inception_c2_conv3_1_1x1_relu <- inception_c2_conv3_1_1x1
I0305 12:07:05.596159 16077 net.cpp:395] inception_c2_conv3_1_1x1_relu -> inception_c2_conv3_1_1x1 (in-place)
I0305 12:07:05.597092 16077 net.cpp:150] Setting up inception_c2_conv3_1_1x1_relu
I0305 12:07:05.597105 16077 net.cpp:157] Top shape: 8 384 8 8 (196608)
I0305 12:07:05.597117 16077 net.cpp:165] Memory required for data: 2608424416
I0305 12:07:05.597121 16077 layer_factory.hpp:77] Creating layer inception_c2_conv3_1_1x1_inception_c2_conv3_1_1x1_relu_0_split
I0305 12:07:05.597128 16077 net.cpp:100] Creating Layer inception_c2_conv3_1_1x1_inception_c2_conv3_1_1x1_relu_0_split
I0305 12:07:05.597132 16077 net.cpp:434] inception_c2_conv3_1_1x1_inception_c2_conv3_1_1x1_relu_0_split <- inception_c2_conv3_1_1x1
I0305 12:07:05.597138 16077 net.cpp:408] inception_c2_conv3_1_1x1_inception_c2_conv3_1_1x1_relu_0_split -> inception_c2_conv3_1_1x1_inception_c2_conv3_1_1x1_relu_0_split_0
I0305 12:07:05.597149 16077 net.cpp:408] inception_c2_conv3_1_1x1_inception_c2_conv3_1_1x1_relu_0_split -> inception_c2_conv3_1_1x1_inception_c2_conv3_1_1x1_relu_0_split_1
I0305 12:07:05.597203 16077 net.cpp:150] Setting up inception_c2_conv3_1_1x1_inception_c2_conv3_1_1x1_relu_0_split
I0305 12:07:05.597209 16077 net.cpp:157] Top shape: 8 384 8 8 (196608)
I0305 12:07:05.597213 16077 net.cpp:157] Top shape: 8 384 8 8 (196608)
I0305 12:07:05.597215 16077 net.cpp:165] Memory required for data: 2609997280
I0305 12:07:05.597218 16077 layer_factory.hpp:77] Creating layer inception_c2_conv3_2_1x3
I0305 12:07:05.597229 16077 net.cpp:100] Creating Layer inception_c2_conv3_2_1x3
I0305 12:07:05.597235 16077 net.cpp:434] inception_c2_conv3_2_1x3 <- inception_c2_conv3_1_1x1_inception_c2_conv3_1_1x1_relu_0_split_0
I0305 12:07:05.597244 16077 net.cpp:408] inception_c2_conv3_2_1x3 -> inception_c2_conv3_2_1x3
I0305 12:07:05.601444 16077 net.cpp:150] Setting up inception_c2_conv3_2_1x3
I0305 12:07:05.601456 16077 net.cpp:157] Top shape: 8 256 8 8 (131072)
I0305 12:07:05.601460 16077 net.cpp:165] Memory required for data: 2610521568
I0305 12:07:05.601465 16077 layer_factory.hpp:77] Creating layer inception_c2_conv3_2_1x3_bn
I0305 12:07:05.601472 16077 net.cpp:100] Creating Layer inception_c2_conv3_2_1x3_bn
I0305 12:07:05.601476 16077 net.cpp:434] inception_c2_conv3_2_1x3_bn <- inception_c2_conv3_2_1x3
I0305 12:07:05.601482 16077 net.cpp:395] inception_c2_conv3_2_1x3_bn -> inception_c2_conv3_2_1x3 (in-place)
I0305 12:07:05.601670 16077 net.cpp:150] Setting up inception_c2_conv3_2_1x3_bn
I0305 12:07:05.601677 16077 net.cpp:157] Top shape: 8 256 8 8 (131072)
I0305 12:07:05.601680 16077 net.cpp:165] Memory required for data: 2611045856
I0305 12:07:05.601686 16077 layer_factory.hpp:77] Creating layer inception_c2_conv3_2_1x3_relu
I0305 12:07:05.601691 16077 net.cpp:100] Creating Layer inception_c2_conv3_2_1x3_relu
I0305 12:07:05.601711 16077 net.cpp:434] inception_c2_conv3_2_1x3_relu <- inception_c2_conv3_2_1x3
I0305 12:07:05.601717 16077 net.cpp:395] inception_c2_conv3_2_1x3_relu -> inception_c2_conv3_2_1x3 (in-place)
I0305 12:07:05.601958 16077 net.cpp:150] Setting up inception_c2_conv3_2_1x3_relu
I0305 12:07:05.601966 16077 net.cpp:157] Top shape: 8 256 8 8 (131072)
I0305 12:07:05.601969 16077 net.cpp:165] Memory required for data: 2611570144
I0305 12:07:05.601971 16077 layer_factory.hpp:77] Creating layer inception_c2_conv4_2_3x1
I0305 12:07:05.601982 16077 net.cpp:100] Creating Layer inception_c2_conv4_2_3x1
I0305 12:07:05.601987 16077 net.cpp:434] inception_c2_conv4_2_3x1 <- inception_c2_conv3_1_1x1_inception_c2_conv3_1_1x1_relu_0_split_1
I0305 12:07:05.601996 16077 net.cpp:408] inception_c2_conv4_2_3x1 -> inception_c2_conv4_2_3x1
I0305 12:07:05.605837 16077 net.cpp:150] Setting up inception_c2_conv4_2_3x1
I0305 12:07:05.605849 16077 net.cpp:157] Top shape: 8 256 8 8 (131072)
I0305 12:07:05.605866 16077 net.cpp:165] Memory required for data: 2612094432
I0305 12:07:05.605871 16077 layer_factory.hpp:77] Creating layer inception_c2_conv4_2_3x1_bn
I0305 12:07:05.605878 16077 net.cpp:100] Creating Layer inception_c2_conv4_2_3x1_bn
I0305 12:07:05.605882 16077 net.cpp:434] inception_c2_conv4_2_3x1_bn <- inception_c2_conv4_2_3x1
I0305 12:07:05.605886 16077 net.cpp:395] inception_c2_conv4_2_3x1_bn -> inception_c2_conv4_2_3x1 (in-place)
I0305 12:07:05.606075 16077 net.cpp:150] Setting up inception_c2_conv4_2_3x1_bn
I0305 12:07:05.606082 16077 net.cpp:157] Top shape: 8 256 8 8 (131072)
I0305 12:07:05.606086 16077 net.cpp:165] Memory required for data: 2612618720
I0305 12:07:05.606091 16077 layer_factory.hpp:77] Creating layer inception_c2_conv4_2_3x1_relu
I0305 12:07:05.606096 16077 net.cpp:100] Creating Layer inception_c2_conv4_2_3x1_relu
I0305 12:07:05.606098 16077 net.cpp:434] inception_c2_conv4_2_3x1_relu <- inception_c2_conv4_2_3x1
I0305 12:07:05.606104 16077 net.cpp:395] inception_c2_conv4_2_3x1_relu -> inception_c2_conv4_2_3x1 (in-place)
I0305 12:07:05.606339 16077 net.cpp:150] Setting up inception_c2_conv4_2_3x1_relu
I0305 12:07:05.606348 16077 net.cpp:157] Top shape: 8 256 8 8 (131072)
I0305 12:07:05.606350 16077 net.cpp:165] Memory required for data: 2613143008
I0305 12:07:05.606353 16077 layer_factory.hpp:77] Creating layer inception_c2_conv5_1_1x1
I0305 12:07:05.606364 16077 net.cpp:100] Creating Layer inception_c2_conv5_1_1x1
I0305 12:07:05.606369 16077 net.cpp:434] inception_c2_conv5_1_1x1 <- inception_c1_concat_inception_c1_concat_0_split_3
I0305 12:07:05.606379 16077 net.cpp:408] inception_c2_conv5_1_1x1 -> inception_c2_conv5_1_1x1
I0305 12:07:05.613253 16077 net.cpp:150] Setting up inception_c2_conv5_1_1x1
I0305 12:07:05.613292 16077 net.cpp:157] Top shape: 8 384 8 8 (196608)
I0305 12:07:05.613296 16077 net.cpp:165] Memory required for data: 2613929440
I0305 12:07:05.613310 16077 layer_factory.hpp:77] Creating layer inception_c2_conv5_1_1x1_bn
I0305 12:07:05.613322 16077 net.cpp:100] Creating Layer inception_c2_conv5_1_1x1_bn
I0305 12:07:05.613327 16077 net.cpp:434] inception_c2_conv5_1_1x1_bn <- inception_c2_conv5_1_1x1
I0305 12:07:05.613333 16077 net.cpp:395] inception_c2_conv5_1_1x1_bn -> inception_c2_conv5_1_1x1 (in-place)
I0305 12:07:05.613624 16077 net.cpp:150] Setting up inception_c2_conv5_1_1x1_bn
I0305 12:07:05.613634 16077 net.cpp:157] Top shape: 8 384 8 8 (196608)
I0305 12:07:05.613636 16077 net.cpp:165] Memory required for data: 2614715872
I0305 12:07:05.613642 16077 layer_factory.hpp:77] Creating layer inception_c2_conv5_1_1x1_relu
I0305 12:07:05.613648 16077 net.cpp:100] Creating Layer inception_c2_conv5_1_1x1_relu
I0305 12:07:05.613653 16077 net.cpp:434] inception_c2_conv5_1_1x1_relu <- inception_c2_conv5_1_1x1
I0305 12:07:05.613658 16077 net.cpp:395] inception_c2_conv5_1_1x1_relu -> inception_c2_conv5_1_1x1 (in-place)
I0305 12:07:05.614609 16077 net.cpp:150] Setting up inception_c2_conv5_1_1x1_relu
I0305 12:07:05.614619 16077 net.cpp:157] Top shape: 8 384 8 8 (196608)
I0305 12:07:05.614622 16077 net.cpp:165] Memory required for data: 2615502304
I0305 12:07:05.614639 16077 layer_factory.hpp:77] Creating layer inception_c2_conv5_2_1x3
I0305 12:07:05.614650 16077 net.cpp:100] Creating Layer inception_c2_conv5_2_1x3
I0305 12:07:05.614652 16077 net.cpp:434] inception_c2_conv5_2_1x3 <- inception_c2_conv5_1_1x1
I0305 12:07:05.614658 16077 net.cpp:408] inception_c2_conv5_2_1x3 -> inception_c2_conv5_2_1x3
I0305 12:07:05.619652 16077 net.cpp:150] Setting up inception_c2_conv5_2_1x3
I0305 12:07:05.619663 16077 net.cpp:157] Top shape: 8 448 8 8 (229376)
I0305 12:07:05.619665 16077 net.cpp:165] Memory required for data: 2616419808
I0305 12:07:05.619670 16077 layer_factory.hpp:77] Creating layer inception_c2_conv5_2_1x3_bn
I0305 12:07:05.619676 16077 net.cpp:100] Creating Layer inception_c2_conv5_2_1x3_bn
I0305 12:07:05.619679 16077 net.cpp:434] inception_c2_conv5_2_1x3_bn <- inception_c2_conv5_2_1x3
I0305 12:07:05.619684 16077 net.cpp:395] inception_c2_conv5_2_1x3_bn -> inception_c2_conv5_2_1x3 (in-place)
I0305 12:07:05.619971 16077 net.cpp:150] Setting up inception_c2_conv5_2_1x3_bn
I0305 12:07:05.619979 16077 net.cpp:157] Top shape: 8 448 8 8 (229376)
I0305 12:07:05.619982 16077 net.cpp:165] Memory required for data: 2617337312
I0305 12:07:05.619987 16077 layer_factory.hpp:77] Creating layer inception_c2_conv5_2_1x3_relu
I0305 12:07:05.619993 16077 net.cpp:100] Creating Layer inception_c2_conv5_2_1x3_relu
I0305 12:07:05.619997 16077 net.cpp:434] inception_c2_conv5_2_1x3_relu <- inception_c2_conv5_2_1x3
I0305 12:07:05.620003 16077 net.cpp:395] inception_c2_conv5_2_1x3_relu -> inception_c2_conv5_2_1x3 (in-place)
I0305 12:07:05.620242 16077 net.cpp:150] Setting up inception_c2_conv5_2_1x3_relu
I0305 12:07:05.620252 16077 net.cpp:157] Top shape: 8 448 8 8 (229376)
I0305 12:07:05.620255 16077 net.cpp:165] Memory required for data: 2618254816
I0305 12:07:05.620257 16077 layer_factory.hpp:77] Creating layer inception_c2_conv5_3_3x1
I0305 12:07:05.620265 16077 net.cpp:100] Creating Layer inception_c2_conv5_3_3x1
I0305 12:07:05.620271 16077 net.cpp:434] inception_c2_conv5_3_3x1 <- inception_c2_conv5_2_1x3
I0305 12:07:05.620280 16077 net.cpp:408] inception_c2_conv5_3_3x1 -> inception_c2_conv5_3_3x1
I0305 12:07:05.626153 16077 net.cpp:150] Setting up inception_c2_conv5_3_3x1
I0305 12:07:05.626166 16077 net.cpp:157] Top shape: 8 512 8 8 (262144)
I0305 12:07:05.626170 16077 net.cpp:165] Memory required for data: 2619303392
I0305 12:07:05.626175 16077 layer_factory.hpp:77] Creating layer inception_c2_conv5_3_3x1_bn
I0305 12:07:05.626180 16077 net.cpp:100] Creating Layer inception_c2_conv5_3_3x1_bn
I0305 12:07:05.626183 16077 net.cpp:434] inception_c2_conv5_3_3x1_bn <- inception_c2_conv5_3_3x1
I0305 12:07:05.626188 16077 net.cpp:395] inception_c2_conv5_3_3x1_bn -> inception_c2_conv5_3_3x1 (in-place)
I0305 12:07:05.626449 16077 net.cpp:150] Setting up inception_c2_conv5_3_3x1_bn
I0305 12:07:05.626457 16077 net.cpp:157] Top shape: 8 512 8 8 (262144)
I0305 12:07:05.626461 16077 net.cpp:165] Memory required for data: 2620351968
I0305 12:07:05.626466 16077 layer_factory.hpp:77] Creating layer inception_c2_conv5_3_3x1_relu
I0305 12:07:05.626471 16077 net.cpp:100] Creating Layer inception_c2_conv5_3_3x1_relu
I0305 12:07:05.626473 16077 net.cpp:434] inception_c2_conv5_3_3x1_relu <- inception_c2_conv5_3_3x1
I0305 12:07:05.626478 16077 net.cpp:395] inception_c2_conv5_3_3x1_relu -> inception_c2_conv5_3_3x1 (in-place)
I0305 12:07:05.626798 16077 net.cpp:150] Setting up inception_c2_conv5_3_3x1_relu
I0305 12:07:05.626811 16077 net.cpp:157] Top shape: 8 512 8 8 (262144)
I0305 12:07:05.626813 16077 net.cpp:165] Memory required for data: 2621400544
I0305 12:07:05.626817 16077 layer_factory.hpp:77] Creating layer inception_c2_conv5_3_3x1_inception_c2_conv5_3_3x1_relu_0_split
I0305 12:07:05.626826 16077 net.cpp:100] Creating Layer inception_c2_conv5_3_3x1_inception_c2_conv5_3_3x1_relu_0_split
I0305 12:07:05.626830 16077 net.cpp:434] inception_c2_conv5_3_3x1_inception_c2_conv5_3_3x1_relu_0_split <- inception_c2_conv5_3_3x1
I0305 12:07:05.626838 16077 net.cpp:408] inception_c2_conv5_3_3x1_inception_c2_conv5_3_3x1_relu_0_split -> inception_c2_conv5_3_3x1_inception_c2_conv5_3_3x1_relu_0_split_0
I0305 12:07:05.626858 16077 net.cpp:408] inception_c2_conv5_3_3x1_inception_c2_conv5_3_3x1_relu_0_split -> inception_c2_conv5_3_3x1_inception_c2_conv5_3_3x1_relu_0_split_1
I0305 12:07:05.626919 16077 net.cpp:150] Setting up inception_c2_conv5_3_3x1_inception_c2_conv5_3_3x1_relu_0_split
I0305 12:07:05.626929 16077 net.cpp:157] Top shape: 8 512 8 8 (262144)
I0305 12:07:05.626933 16077 net.cpp:157] Top shape: 8 512 8 8 (262144)
I0305 12:07:05.626937 16077 net.cpp:165] Memory required for data: 2623497696
I0305 12:07:05.626941 16077 layer_factory.hpp:77] Creating layer inception_c2_conv5_4_3x1
I0305 12:07:05.626952 16077 net.cpp:100] Creating Layer inception_c2_conv5_4_3x1
I0305 12:07:05.626957 16077 net.cpp:434] inception_c2_conv5_4_3x1 <- inception_c2_conv5_3_3x1_inception_c2_conv5_3_3x1_relu_0_split_0
I0305 12:07:05.626965 16077 net.cpp:408] inception_c2_conv5_4_3x1 -> inception_c2_conv5_4_3x1
I0305 12:07:05.632295 16077 net.cpp:150] Setting up inception_c2_conv5_4_3x1
I0305 12:07:05.632309 16077 net.cpp:157] Top shape: 8 256 8 8 (131072)
I0305 12:07:05.632313 16077 net.cpp:165] Memory required for data: 2624021984
I0305 12:07:05.632318 16077 layer_factory.hpp:77] Creating layer inception_c2_conv5_4_3x1_bn
I0305 12:07:05.632325 16077 net.cpp:100] Creating Layer inception_c2_conv5_4_3x1_bn
I0305 12:07:05.632329 16077 net.cpp:434] inception_c2_conv5_4_3x1_bn <- inception_c2_conv5_4_3x1
I0305 12:07:05.632333 16077 net.cpp:395] inception_c2_conv5_4_3x1_bn -> inception_c2_conv5_4_3x1 (in-place)
I0305 12:07:05.632524 16077 net.cpp:150] Setting up inception_c2_conv5_4_3x1_bn
I0305 12:07:05.632532 16077 net.cpp:157] Top shape: 8 256 8 8 (131072)
I0305 12:07:05.632534 16077 net.cpp:165] Memory required for data: 2624546272
I0305 12:07:05.632539 16077 layer_factory.hpp:77] Creating layer inception_c2_conv5_4_3x1_relu
I0305 12:07:05.632544 16077 net.cpp:100] Creating Layer inception_c2_conv5_4_3x1_relu
I0305 12:07:05.632547 16077 net.cpp:434] inception_c2_conv5_4_3x1_relu <- inception_c2_conv5_4_3x1
I0305 12:07:05.632553 16077 net.cpp:395] inception_c2_conv5_4_3x1_relu -> inception_c2_conv5_4_3x1 (in-place)
I0305 12:07:05.633515 16077 net.cpp:150] Setting up inception_c2_conv5_4_3x1_relu
I0305 12:07:05.633527 16077 net.cpp:157] Top shape: 8 256 8 8 (131072)
I0305 12:07:05.633545 16077 net.cpp:165] Memory required for data: 2625070560
I0305 12:07:05.633548 16077 layer_factory.hpp:77] Creating layer inception_c2_conv6_4_1x3
I0305 12:07:05.633558 16077 net.cpp:100] Creating Layer inception_c2_conv6_4_1x3
I0305 12:07:05.633560 16077 net.cpp:434] inception_c2_conv6_4_1x3 <- inception_c2_conv5_3_3x1_inception_c2_conv5_3_3x1_relu_0_split_1
I0305 12:07:05.633566 16077 net.cpp:408] inception_c2_conv6_4_1x3 -> inception_c2_conv6_4_1x3
I0305 12:07:05.639587 16077 net.cpp:150] Setting up inception_c2_conv6_4_1x3
I0305 12:07:05.639626 16077 net.cpp:157] Top shape: 8 256 8 8 (131072)
I0305 12:07:05.639629 16077 net.cpp:165] Memory required for data: 2625594848
I0305 12:07:05.639639 16077 layer_factory.hpp:77] Creating layer inception_c2_conv6_4_1x3_bn
I0305 12:07:05.639650 16077 net.cpp:100] Creating Layer inception_c2_conv6_4_1x3_bn
I0305 12:07:05.639655 16077 net.cpp:434] inception_c2_conv6_4_1x3_bn <- inception_c2_conv6_4_1x3
I0305 12:07:05.639662 16077 net.cpp:395] inception_c2_conv6_4_1x3_bn -> inception_c2_conv6_4_1x3 (in-place)
I0305 12:07:05.639866 16077 net.cpp:150] Setting up inception_c2_conv6_4_1x3_bn
I0305 12:07:05.639873 16077 net.cpp:157] Top shape: 8 256 8 8 (131072)
I0305 12:07:05.639876 16077 net.cpp:165] Memory required for data: 2626119136
I0305 12:07:05.639881 16077 layer_factory.hpp:77] Creating layer inception_c2_conv6_4_1x3_relu
I0305 12:07:05.639888 16077 net.cpp:100] Creating Layer inception_c2_conv6_4_1x3_relu
I0305 12:07:05.639890 16077 net.cpp:434] inception_c2_conv6_4_1x3_relu <- inception_c2_conv6_4_1x3
I0305 12:07:05.639896 16077 net.cpp:395] inception_c2_conv6_4_1x3_relu -> inception_c2_conv6_4_1x3 (in-place)
I0305 12:07:05.640170 16077 net.cpp:150] Setting up inception_c2_conv6_4_1x3_relu
I0305 12:07:05.640185 16077 net.cpp:157] Top shape: 8 256 8 8 (131072)
I0305 12:07:05.640189 16077 net.cpp:165] Memory required for data: 2626643424
I0305 12:07:05.640193 16077 layer_factory.hpp:77] Creating layer inception_c2_concat
I0305 12:07:05.640202 16077 net.cpp:100] Creating Layer inception_c2_concat
I0305 12:07:05.640208 16077 net.cpp:434] inception_c2_concat <- inception_c2_conv1_2_1x1
I0305 12:07:05.640213 16077 net.cpp:434] inception_c2_concat <- inception_c2_conv2_1_1x1
I0305 12:07:05.640218 16077 net.cpp:434] inception_c2_concat <- inception_c2_conv3_2_1x3
I0305 12:07:05.640223 16077 net.cpp:434] inception_c2_concat <- inception_c2_conv4_2_3x1
I0305 12:07:05.640228 16077 net.cpp:434] inception_c2_concat <- inception_c2_conv5_4_3x1
I0305 12:07:05.640233 16077 net.cpp:434] inception_c2_concat <- inception_c2_conv6_4_1x3
I0305 12:07:05.640241 16077 net.cpp:408] inception_c2_concat -> inception_c2_concat
I0305 12:07:05.640292 16077 net.cpp:150] Setting up inception_c2_concat
I0305 12:07:05.640318 16077 net.cpp:157] Top shape: 8 1536 8 8 (786432)
I0305 12:07:05.640322 16077 net.cpp:165] Memory required for data: 2629789152
I0305 12:07:05.640326 16077 layer_factory.hpp:77] Creating layer inception_c2_concat_inception_c2_concat_0_split
I0305 12:07:05.640334 16077 net.cpp:100] Creating Layer inception_c2_concat_inception_c2_concat_0_split
I0305 12:07:05.640339 16077 net.cpp:434] inception_c2_concat_inception_c2_concat_0_split <- inception_c2_concat
I0305 12:07:05.640347 16077 net.cpp:408] inception_c2_concat_inception_c2_concat_0_split -> inception_c2_concat_inception_c2_concat_0_split_0
I0305 12:07:05.640355 16077 net.cpp:408] inception_c2_concat_inception_c2_concat_0_split -> inception_c2_concat_inception_c2_concat_0_split_1
I0305 12:07:05.640362 16077 net.cpp:408] inception_c2_concat_inception_c2_concat_0_split -> inception_c2_concat_inception_c2_concat_0_split_2
I0305 12:07:05.640372 16077 net.cpp:408] inception_c2_concat_inception_c2_concat_0_split -> inception_c2_concat_inception_c2_concat_0_split_3
I0305 12:07:05.640468 16077 net.cpp:150] Setting up inception_c2_concat_inception_c2_concat_0_split
I0305 12:07:05.640480 16077 net.cpp:157] Top shape: 8 1536 8 8 (786432)
I0305 12:07:05.640485 16077 net.cpp:157] Top shape: 8 1536 8 8 (786432)
I0305 12:07:05.640489 16077 net.cpp:157] Top shape: 8 1536 8 8 (786432)
I0305 12:07:05.640494 16077 net.cpp:157] Top shape: 8 1536 8 8 (786432)
I0305 12:07:05.640497 16077 net.cpp:165] Memory required for data: 2642372064
I0305 12:07:05.640501 16077 layer_factory.hpp:77] Creating layer inception_c3_pool
I0305 12:07:05.640512 16077 net.cpp:100] Creating Layer inception_c3_pool
I0305 12:07:05.640516 16077 net.cpp:434] inception_c3_pool <- inception_c2_concat_inception_c2_concat_0_split_0
I0305 12:07:05.640522 16077 net.cpp:408] inception_c3_pool -> inception_c3_pool
I0305 12:07:05.640856 16077 net.cpp:150] Setting up inception_c3_pool
I0305 12:07:05.640869 16077 net.cpp:157] Top shape: 8 1536 8 8 (786432)
I0305 12:07:05.640873 16077 net.cpp:165] Memory required for data: 2645517792
I0305 12:07:05.640877 16077 layer_factory.hpp:77] Creating layer inception_c3_conv1_2_1x1
I0305 12:07:05.640893 16077 net.cpp:100] Creating Layer inception_c3_conv1_2_1x1
I0305 12:07:05.640898 16077 net.cpp:434] inception_c3_conv1_2_1x1 <- inception_c3_pool
I0305 12:07:05.640908 16077 net.cpp:408] inception_c3_conv1_2_1x1 -> inception_c3_conv1_2_1x1
I0305 12:07:05.646051 16077 net.cpp:150] Setting up inception_c3_conv1_2_1x1
I0305 12:07:05.646075 16077 net.cpp:157] Top shape: 8 256 8 8 (131072)
I0305 12:07:05.646078 16077 net.cpp:165] Memory required for data: 2646042080
I0305 12:07:05.646087 16077 layer_factory.hpp:77] Creating layer inception_c3_conv1_2_1x1_bn
I0305 12:07:05.646096 16077 net.cpp:100] Creating Layer inception_c3_conv1_2_1x1_bn
I0305 12:07:05.646100 16077 net.cpp:434] inception_c3_conv1_2_1x1_bn <- inception_c3_conv1_2_1x1
I0305 12:07:05.646106 16077 net.cpp:395] inception_c3_conv1_2_1x1_bn -> inception_c3_conv1_2_1x1 (in-place)
I0305 12:07:05.646306 16077 net.cpp:150] Setting up inception_c3_conv1_2_1x1_bn
I0305 12:07:05.646312 16077 net.cpp:157] Top shape: 8 256 8 8 (131072)
I0305 12:07:05.646314 16077 net.cpp:165] Memory required for data: 2646566368
I0305 12:07:05.646320 16077 layer_factory.hpp:77] Creating layer inception_c3_conv1_2_1x1_relu
I0305 12:07:05.646325 16077 net.cpp:100] Creating Layer inception_c3_conv1_2_1x1_relu
I0305 12:07:05.646328 16077 net.cpp:434] inception_c3_conv1_2_1x1_relu <- inception_c3_conv1_2_1x1
I0305 12:07:05.646333 16077 net.cpp:395] inception_c3_conv1_2_1x1_relu -> inception_c3_conv1_2_1x1 (in-place)
I0305 12:07:05.646561 16077 net.cpp:150] Setting up inception_c3_conv1_2_1x1_relu
I0305 12:07:05.646569 16077 net.cpp:157] Top shape: 8 256 8 8 (131072)
I0305 12:07:05.646571 16077 net.cpp:165] Memory required for data: 2647090656
I0305 12:07:05.646574 16077 layer_factory.hpp:77] Creating layer inception_c3_conv2_1_1x1
I0305 12:07:05.646584 16077 net.cpp:100] Creating Layer inception_c3_conv2_1_1x1
I0305 12:07:05.646587 16077 net.cpp:434] inception_c3_conv2_1_1x1 <- inception_c2_concat_inception_c2_concat_0_split_1
I0305 12:07:05.646594 16077 net.cpp:408] inception_c3_conv2_1_1x1 -> inception_c3_conv2_1_1x1
I0305 12:07:05.651360 16077 net.cpp:150] Setting up inception_c3_conv2_1_1x1
I0305 12:07:05.651373 16077 net.cpp:157] Top shape: 8 256 8 8 (131072)
I0305 12:07:05.651376 16077 net.cpp:165] Memory required for data: 2647614944
I0305 12:07:05.651381 16077 layer_factory.hpp:77] Creating layer inception_c3_conv2_1_1x1_bn
I0305 12:07:05.651387 16077 net.cpp:100] Creating Layer inception_c3_conv2_1_1x1_bn
I0305 12:07:05.651391 16077 net.cpp:434] inception_c3_conv2_1_1x1_bn <- inception_c3_conv2_1_1x1
I0305 12:07:05.651394 16077 net.cpp:395] inception_c3_conv2_1_1x1_bn -> inception_c3_conv2_1_1x1 (in-place)
I0305 12:07:05.651589 16077 net.cpp:150] Setting up inception_c3_conv2_1_1x1_bn
I0305 12:07:05.651595 16077 net.cpp:157] Top shape: 8 256 8 8 (131072)
I0305 12:07:05.651598 16077 net.cpp:165] Memory required for data: 2648139232
I0305 12:07:05.651614 16077 layer_factory.hpp:77] Creating layer inception_c3_conv2_1_1x1_relu
I0305 12:07:05.651618 16077 net.cpp:100] Creating Layer inception_c3_conv2_1_1x1_relu
I0305 12:07:05.651621 16077 net.cpp:434] inception_c3_conv2_1_1x1_relu <- inception_c3_conv2_1_1x1
I0305 12:07:05.651626 16077 net.cpp:395] inception_c3_conv2_1_1x1_relu -> inception_c3_conv2_1_1x1 (in-place)
I0305 12:07:05.652595 16077 net.cpp:150] Setting up inception_c3_conv2_1_1x1_relu
I0305 12:07:05.652606 16077 net.cpp:157] Top shape: 8 256 8 8 (131072)
I0305 12:07:05.652607 16077 net.cpp:165] Memory required for data: 2648663520
I0305 12:07:05.652611 16077 layer_factory.hpp:77] Creating layer inception_c3_conv3_1_1x1
I0305 12:07:05.652621 16077 net.cpp:100] Creating Layer inception_c3_conv3_1_1x1
I0305 12:07:05.652623 16077 net.cpp:434] inception_c3_conv3_1_1x1 <- inception_c2_concat_inception_c2_concat_0_split_2
I0305 12:07:05.652628 16077 net.cpp:408] inception_c3_conv3_1_1x1 -> inception_c3_conv3_1_1x1
I0305 12:07:05.657709 16077 net.cpp:150] Setting up inception_c3_conv3_1_1x1
I0305 12:07:05.657721 16077 net.cpp:157] Top shape: 8 384 8 8 (196608)
I0305 12:07:05.657723 16077 net.cpp:165] Memory required for data: 2649449952
I0305 12:07:05.657728 16077 layer_factory.hpp:77] Creating layer inception_c3_conv3_1_1x1_bn
I0305 12:07:05.657735 16077 net.cpp:100] Creating Layer inception_c3_conv3_1_1x1_bn
I0305 12:07:05.657738 16077 net.cpp:434] inception_c3_conv3_1_1x1_bn <- inception_c3_conv3_1_1x1
I0305 12:07:05.657742 16077 net.cpp:395] inception_c3_conv3_1_1x1_bn -> inception_c3_conv3_1_1x1 (in-place)
I0305 12:07:05.658008 16077 net.cpp:150] Setting up inception_c3_conv3_1_1x1_bn
I0305 12:07:05.658016 16077 net.cpp:157] Top shape: 8 384 8 8 (196608)
I0305 12:07:05.658018 16077 net.cpp:165] Memory required for data: 2650236384
I0305 12:07:05.658023 16077 layer_factory.hpp:77] Creating layer inception_c3_conv3_1_1x1_relu
I0305 12:07:05.658027 16077 net.cpp:100] Creating Layer inception_c3_conv3_1_1x1_relu
I0305 12:07:05.658041 16077 net.cpp:434] inception_c3_conv3_1_1x1_relu <- inception_c3_conv3_1_1x1
I0305 12:07:05.658046 16077 net.cpp:395] inception_c3_conv3_1_1x1_relu -> inception_c3_conv3_1_1x1 (in-place)
I0305 12:07:05.658282 16077 net.cpp:150] Setting up inception_c3_conv3_1_1x1_relu
I0305 12:07:05.658293 16077 net.cpp:157] Top shape: 8 384 8 8 (196608)
I0305 12:07:05.658295 16077 net.cpp:165] Memory required for data: 2651022816
I0305 12:07:05.658298 16077 layer_factory.hpp:77] Creating layer inception_c3_conv3_1_1x1_inception_c3_conv3_1_1x1_relu_0_split
I0305 12:07:05.658303 16077 net.cpp:100] Creating Layer inception_c3_conv3_1_1x1_inception_c3_conv3_1_1x1_relu_0_split
I0305 12:07:05.658306 16077 net.cpp:434] inception_c3_conv3_1_1x1_inception_c3_conv3_1_1x1_relu_0_split <- inception_c3_conv3_1_1x1
I0305 12:07:05.658311 16077 net.cpp:408] inception_c3_conv3_1_1x1_inception_c3_conv3_1_1x1_relu_0_split -> inception_c3_conv3_1_1x1_inception_c3_conv3_1_1x1_relu_0_split_0
I0305 12:07:05.658318 16077 net.cpp:408] inception_c3_conv3_1_1x1_inception_c3_conv3_1_1x1_relu_0_split -> inception_c3_conv3_1_1x1_inception_c3_conv3_1_1x1_relu_0_split_1
I0305 12:07:05.658360 16077 net.cpp:150] Setting up inception_c3_conv3_1_1x1_inception_c3_conv3_1_1x1_relu_0_split
I0305 12:07:05.658366 16077 net.cpp:157] Top shape: 8 384 8 8 (196608)
I0305 12:07:05.658370 16077 net.cpp:157] Top shape: 8 384 8 8 (196608)
I0305 12:07:05.658371 16077 net.cpp:165] Memory required for data: 2652595680
I0305 12:07:05.658373 16077 layer_factory.hpp:77] Creating layer inception_c3_conv3_2_1x3
I0305 12:07:05.658381 16077 net.cpp:100] Creating Layer inception_c3_conv3_2_1x3
I0305 12:07:05.658385 16077 net.cpp:434] inception_c3_conv3_2_1x3 <- inception_c3_conv3_1_1x1_inception_c3_conv3_1_1x1_relu_0_split_0
I0305 12:07:05.658390 16077 net.cpp:408] inception_c3_conv3_2_1x3 -> inception_c3_conv3_2_1x3
I0305 12:07:05.662272 16077 net.cpp:150] Setting up inception_c3_conv3_2_1x3
I0305 12:07:05.662286 16077 net.cpp:157] Top shape: 8 256 8 8 (131072)
I0305 12:07:05.662289 16077 net.cpp:165] Memory required for data: 2653119968
I0305 12:07:05.662294 16077 layer_factory.hpp:77] Creating layer inception_c3_conv3_2_1x3_bn
I0305 12:07:05.662300 16077 net.cpp:100] Creating Layer inception_c3_conv3_2_1x3_bn
I0305 12:07:05.662303 16077 net.cpp:434] inception_c3_conv3_2_1x3_bn <- inception_c3_conv3_2_1x3
I0305 12:07:05.662307 16077 net.cpp:395] inception_c3_conv3_2_1x3_bn -> inception_c3_conv3_2_1x3 (in-place)
I0305 12:07:05.662487 16077 net.cpp:150] Setting up inception_c3_conv3_2_1x3_bn
I0305 12:07:05.662494 16077 net.cpp:157] Top shape: 8 256 8 8 (131072)
I0305 12:07:05.662497 16077 net.cpp:165] Memory required for data: 2653644256
I0305 12:07:05.662503 16077 layer_factory.hpp:77] Creating layer inception_c3_conv3_2_1x3_relu
I0305 12:07:05.662508 16077 net.cpp:100] Creating Layer inception_c3_conv3_2_1x3_relu
I0305 12:07:05.662510 16077 net.cpp:434] inception_c3_conv3_2_1x3_relu <- inception_c3_conv3_2_1x3
I0305 12:07:05.662513 16077 net.cpp:395] inception_c3_conv3_2_1x3_relu -> inception_c3_conv3_2_1x3 (in-place)
I0305 12:07:05.662736 16077 net.cpp:150] Setting up inception_c3_conv3_2_1x3_relu
I0305 12:07:05.662744 16077 net.cpp:157] Top shape: 8 256 8 8 (131072)
I0305 12:07:05.662746 16077 net.cpp:165] Memory required for data: 2654168544
I0305 12:07:05.662750 16077 layer_factory.hpp:77] Creating layer inception_c3_conv4_2_3x1
I0305 12:07:05.662757 16077 net.cpp:100] Creating Layer inception_c3_conv4_2_3x1
I0305 12:07:05.662761 16077 net.cpp:434] inception_c3_conv4_2_3x1 <- inception_c3_conv3_1_1x1_inception_c3_conv3_1_1x1_relu_0_split_1
I0305 12:07:05.662766 16077 net.cpp:408] inception_c3_conv4_2_3x1 -> inception_c3_conv4_2_3x1
I0305 12:07:05.666968 16077 net.cpp:150] Setting up inception_c3_conv4_2_3x1
I0305 12:07:05.666980 16077 net.cpp:157] Top shape: 8 256 8 8 (131072)
I0305 12:07:05.666982 16077 net.cpp:165] Memory required for data: 2654692832
I0305 12:07:05.666987 16077 layer_factory.hpp:77] Creating layer inception_c3_conv4_2_3x1_bn
I0305 12:07:05.667002 16077 net.cpp:100] Creating Layer inception_c3_conv4_2_3x1_bn
I0305 12:07:05.667006 16077 net.cpp:434] inception_c3_conv4_2_3x1_bn <- inception_c3_conv4_2_3x1
I0305 12:07:05.667011 16077 net.cpp:395] inception_c3_conv4_2_3x1_bn -> inception_c3_conv4_2_3x1 (in-place)
I0305 12:07:05.667204 16077 net.cpp:150] Setting up inception_c3_conv4_2_3x1_bn
I0305 12:07:05.667212 16077 net.cpp:157] Top shape: 8 256 8 8 (131072)
I0305 12:07:05.667214 16077 net.cpp:165] Memory required for data: 2655217120
I0305 12:07:05.667219 16077 layer_factory.hpp:77] Creating layer inception_c3_conv4_2_3x1_relu
I0305 12:07:05.667223 16077 net.cpp:100] Creating Layer inception_c3_conv4_2_3x1_relu
I0305 12:07:05.667227 16077 net.cpp:434] inception_c3_conv4_2_3x1_relu <- inception_c3_conv4_2_3x1
I0305 12:07:05.667230 16077 net.cpp:395] inception_c3_conv4_2_3x1_relu -> inception_c3_conv4_2_3x1 (in-place)
I0305 12:07:05.668272 16077 net.cpp:150] Setting up inception_c3_conv4_2_3x1_relu
I0305 12:07:05.668283 16077 net.cpp:157] Top shape: 8 256 8 8 (131072)
I0305 12:07:05.668287 16077 net.cpp:165] Memory required for data: 2655741408
I0305 12:07:05.668290 16077 layer_factory.hpp:77] Creating layer inception_c3_conv5_1_1x1
I0305 12:07:05.668301 16077 net.cpp:100] Creating Layer inception_c3_conv5_1_1x1
I0305 12:07:05.668305 16077 net.cpp:434] inception_c3_conv5_1_1x1 <- inception_c2_concat_inception_c2_concat_0_split_3
I0305 12:07:05.668310 16077 net.cpp:408] inception_c3_conv5_1_1x1 -> inception_c3_conv5_1_1x1
I0305 12:07:05.673452 16077 net.cpp:150] Setting up inception_c3_conv5_1_1x1
I0305 12:07:05.673463 16077 net.cpp:157] Top shape: 8 384 8 8 (196608)
I0305 12:07:05.673481 16077 net.cpp:165] Memory required for data: 2656527840
I0305 12:07:05.673486 16077 layer_factory.hpp:77] Creating layer inception_c3_conv5_1_1x1_bn
I0305 12:07:05.673493 16077 net.cpp:100] Creating Layer inception_c3_conv5_1_1x1_bn
I0305 12:07:05.673496 16077 net.cpp:434] inception_c3_conv5_1_1x1_bn <- inception_c3_conv5_1_1x1
I0305 12:07:05.673502 16077 net.cpp:395] inception_c3_conv5_1_1x1_bn -> inception_c3_conv5_1_1x1 (in-place)
I0305 12:07:05.673755 16077 net.cpp:150] Setting up inception_c3_conv5_1_1x1_bn
I0305 12:07:05.673763 16077 net.cpp:157] Top shape: 8 384 8 8 (196608)
I0305 12:07:05.673765 16077 net.cpp:165] Memory required for data: 2657314272
I0305 12:07:05.673770 16077 layer_factory.hpp:77] Creating layer inception_c3_conv5_1_1x1_relu
I0305 12:07:05.673775 16077 net.cpp:100] Creating Layer inception_c3_conv5_1_1x1_relu
I0305 12:07:05.673779 16077 net.cpp:434] inception_c3_conv5_1_1x1_relu <- inception_c3_conv5_1_1x1
I0305 12:07:05.673782 16077 net.cpp:395] inception_c3_conv5_1_1x1_relu -> inception_c3_conv5_1_1x1 (in-place)
I0305 12:07:05.674015 16077 net.cpp:150] Setting up inception_c3_conv5_1_1x1_relu
I0305 12:07:05.674023 16077 net.cpp:157] Top shape: 8 384 8 8 (196608)
I0305 12:07:05.674026 16077 net.cpp:165] Memory required for data: 2658100704
I0305 12:07:05.674028 16077 layer_factory.hpp:77] Creating layer inception_c3_conv5_2_1x3
I0305 12:07:05.674036 16077 net.cpp:100] Creating Layer inception_c3_conv5_2_1x3
I0305 12:07:05.674038 16077 net.cpp:434] inception_c3_conv5_2_1x3 <- inception_c3_conv5_1_1x1
I0305 12:07:05.674046 16077 net.cpp:408] inception_c3_conv5_2_1x3 -> inception_c3_conv5_2_1x3
I0305 12:07:05.678668 16077 net.cpp:150] Setting up inception_c3_conv5_2_1x3
I0305 12:07:05.678678 16077 net.cpp:157] Top shape: 8 448 8 8 (229376)
I0305 12:07:05.678696 16077 net.cpp:165] Memory required for data: 2659018208
I0305 12:07:05.678701 16077 layer_factory.hpp:77] Creating layer inception_c3_conv5_2_1x3_bn
I0305 12:07:05.678709 16077 net.cpp:100] Creating Layer inception_c3_conv5_2_1x3_bn
I0305 12:07:05.678711 16077 net.cpp:434] inception_c3_conv5_2_1x3_bn <- inception_c3_conv5_2_1x3
I0305 12:07:05.678715 16077 net.cpp:395] inception_c3_conv5_2_1x3_bn -> inception_c3_conv5_2_1x3 (in-place)
I0305 12:07:05.679157 16077 net.cpp:150] Setting up inception_c3_conv5_2_1x3_bn
I0305 12:07:05.679163 16077 net.cpp:157] Top shape: 8 448 8 8 (229376)
I0305 12:07:05.679174 16077 net.cpp:165] Memory required for data: 2659935712
I0305 12:07:05.679180 16077 layer_factory.hpp:77] Creating layer inception_c3_conv5_2_1x3_relu
I0305 12:07:05.679185 16077 net.cpp:100] Creating Layer inception_c3_conv5_2_1x3_relu
I0305 12:07:05.679188 16077 net.cpp:434] inception_c3_conv5_2_1x3_relu <- inception_c3_conv5_2_1x3
I0305 12:07:05.679191 16077 net.cpp:395] inception_c3_conv5_2_1x3_relu -> inception_c3_conv5_2_1x3 (in-place)
I0305 12:07:05.679426 16077 net.cpp:150] Setting up inception_c3_conv5_2_1x3_relu
I0305 12:07:05.679435 16077 net.cpp:157] Top shape: 8 448 8 8 (229376)
I0305 12:07:05.679437 16077 net.cpp:165] Memory required for data: 2660853216
I0305 12:07:05.679440 16077 layer_factory.hpp:77] Creating layer inception_c3_conv5_3_3x1
I0305 12:07:05.679448 16077 net.cpp:100] Creating Layer inception_c3_conv5_3_3x1
I0305 12:07:05.679451 16077 net.cpp:434] inception_c3_conv5_3_3x1 <- inception_c3_conv5_2_1x3
I0305 12:07:05.679457 16077 net.cpp:408] inception_c3_conv5_3_3x1 -> inception_c3_conv5_3_3x1
I0305 12:07:05.685086 16077 net.cpp:150] Setting up inception_c3_conv5_3_3x1
I0305 12:07:05.685096 16077 net.cpp:157] Top shape: 8 512 8 8 (262144)
I0305 12:07:05.685099 16077 net.cpp:165] Memory required for data: 2661901792
I0305 12:07:05.685104 16077 layer_factory.hpp:77] Creating layer inception_c3_conv5_3_3x1_bn
I0305 12:07:05.685111 16077 net.cpp:100] Creating Layer inception_c3_conv5_3_3x1_bn
I0305 12:07:05.685113 16077 net.cpp:434] inception_c3_conv5_3_3x1_bn <- inception_c3_conv5_3_3x1
I0305 12:07:05.685117 16077 net.cpp:395] inception_c3_conv5_3_3x1_bn -> inception_c3_conv5_3_3x1 (in-place)
I0305 12:07:05.685420 16077 net.cpp:150] Setting up inception_c3_conv5_3_3x1_bn
I0305 12:07:05.685434 16077 net.cpp:157] Top shape: 8 512 8 8 (262144)
I0305 12:07:05.685438 16077 net.cpp:165] Memory required for data: 2662950368
I0305 12:07:05.685448 16077 layer_factory.hpp:77] Creating layer inception_c3_conv5_3_3x1_relu
I0305 12:07:05.685456 16077 net.cpp:100] Creating Layer inception_c3_conv5_3_3x1_relu
I0305 12:07:05.685461 16077 net.cpp:434] inception_c3_conv5_3_3x1_relu <- inception_c3_conv5_3_3x1
I0305 12:07:05.685467 16077 net.cpp:395] inception_c3_conv5_3_3x1_relu -> inception_c3_conv5_3_3x1 (in-place)
I0305 12:07:05.686492 16077 net.cpp:150] Setting up inception_c3_conv5_3_3x1_relu
I0305 12:07:05.686503 16077 net.cpp:157] Top shape: 8 512 8 8 (262144)
I0305 12:07:05.686506 16077 net.cpp:165] Memory required for data: 2663998944
I0305 12:07:05.686508 16077 layer_factory.hpp:77] Creating layer inception_c3_conv5_3_3x1_inception_c3_conv5_3_3x1_relu_0_split
I0305 12:07:05.686517 16077 net.cpp:100] Creating Layer inception_c3_conv5_3_3x1_inception_c3_conv5_3_3x1_relu_0_split
I0305 12:07:05.686519 16077 net.cpp:434] inception_c3_conv5_3_3x1_inception_c3_conv5_3_3x1_relu_0_split <- inception_c3_conv5_3_3x1
I0305 12:07:05.686524 16077 net.cpp:408] inception_c3_conv5_3_3x1_inception_c3_conv5_3_3x1_relu_0_split -> inception_c3_conv5_3_3x1_inception_c3_conv5_3_3x1_relu_0_split_0
I0305 12:07:05.686532 16077 net.cpp:408] inception_c3_conv5_3_3x1_inception_c3_conv5_3_3x1_relu_0_split -> inception_c3_conv5_3_3x1_inception_c3_conv5_3_3x1_relu_0_split_1
I0305 12:07:05.686578 16077 net.cpp:150] Setting up inception_c3_conv5_3_3x1_inception_c3_conv5_3_3x1_relu_0_split
I0305 12:07:05.686584 16077 net.cpp:157] Top shape: 8 512 8 8 (262144)
I0305 12:07:05.686588 16077 net.cpp:157] Top shape: 8 512 8 8 (262144)
I0305 12:07:05.686589 16077 net.cpp:165] Memory required for data: 2666096096
I0305 12:07:05.686592 16077 layer_factory.hpp:77] Creating layer inception_c3_conv5_4_3x1
I0305 12:07:05.686601 16077 net.cpp:100] Creating Layer inception_c3_conv5_4_3x1
I0305 12:07:05.686604 16077 net.cpp:434] inception_c3_conv5_4_3x1 <- inception_c3_conv5_3_3x1_inception_c3_conv5_3_3x1_relu_0_split_0
I0305 12:07:05.686609 16077 net.cpp:408] inception_c3_conv5_4_3x1 -> inception_c3_conv5_4_3x1
I0305 12:07:05.691035 16077 net.cpp:150] Setting up inception_c3_conv5_4_3x1
I0305 12:07:05.691056 16077 net.cpp:157] Top shape: 8 256 8 8 (131072)
I0305 12:07:05.691058 16077 net.cpp:165] Memory required for data: 2666620384
I0305 12:07:05.691064 16077 layer_factory.hpp:77] Creating layer inception_c3_conv5_4_3x1_bn
I0305 12:07:05.691071 16077 net.cpp:100] Creating Layer inception_c3_conv5_4_3x1_bn
I0305 12:07:05.691074 16077 net.cpp:434] inception_c3_conv5_4_3x1_bn <- inception_c3_conv5_4_3x1
I0305 12:07:05.691079 16077 net.cpp:395] inception_c3_conv5_4_3x1_bn -> inception_c3_conv5_4_3x1 (in-place)
I0305 12:07:05.691262 16077 net.cpp:150] Setting up inception_c3_conv5_4_3x1_bn
I0305 12:07:05.691267 16077 net.cpp:157] Top shape: 8 256 8 8 (131072)
I0305 12:07:05.691270 16077 net.cpp:165] Memory required for data: 2667144672
I0305 12:07:05.691275 16077 layer_factory.hpp:77] Creating layer inception_c3_conv5_4_3x1_relu
I0305 12:07:05.691280 16077 net.cpp:100] Creating Layer inception_c3_conv5_4_3x1_relu
I0305 12:07:05.691283 16077 net.cpp:434] inception_c3_conv5_4_3x1_relu <- inception_c3_conv5_4_3x1
I0305 12:07:05.691287 16077 net.cpp:395] inception_c3_conv5_4_3x1_relu -> inception_c3_conv5_4_3x1 (in-place)
I0305 12:07:05.691516 16077 net.cpp:150] Setting up inception_c3_conv5_4_3x1_relu
I0305 12:07:05.691524 16077 net.cpp:157] Top shape: 8 256 8 8 (131072)
I0305 12:07:05.691527 16077 net.cpp:165] Memory required for data: 2667668960
I0305 12:07:05.691529 16077 layer_factory.hpp:77] Creating layer inception_c3_conv6_4_1x3
I0305 12:07:05.691537 16077 net.cpp:100] Creating Layer inception_c3_conv6_4_1x3
I0305 12:07:05.691540 16077 net.cpp:434] inception_c3_conv6_4_1x3 <- inception_c3_conv5_3_3x1_inception_c3_conv5_3_3x1_relu_0_split_1
I0305 12:07:05.691546 16077 net.cpp:408] inception_c3_conv6_4_1x3 -> inception_c3_conv6_4_1x3
I0305 12:07:05.695942 16077 net.cpp:150] Setting up inception_c3_conv6_4_1x3
I0305 12:07:05.695955 16077 net.cpp:157] Top shape: 8 256 8 8 (131072)
I0305 12:07:05.695957 16077 net.cpp:165] Memory required for data: 2668193248
I0305 12:07:05.695962 16077 layer_factory.hpp:77] Creating layer inception_c3_conv6_4_1x3_bn
I0305 12:07:05.695968 16077 net.cpp:100] Creating Layer inception_c3_conv6_4_1x3_bn
I0305 12:07:05.695971 16077 net.cpp:434] inception_c3_conv6_4_1x3_bn <- inception_c3_conv6_4_1x3
I0305 12:07:05.695974 16077 net.cpp:395] inception_c3_conv6_4_1x3_bn -> inception_c3_conv6_4_1x3 (in-place)
I0305 12:07:05.696172 16077 net.cpp:150] Setting up inception_c3_conv6_4_1x3_bn
I0305 12:07:05.696180 16077 net.cpp:157] Top shape: 8 256 8 8 (131072)
I0305 12:07:05.696182 16077 net.cpp:165] Memory required for data: 2668717536
I0305 12:07:05.696187 16077 layer_factory.hpp:77] Creating layer inception_c3_conv6_4_1x3_relu
I0305 12:07:05.696192 16077 net.cpp:100] Creating Layer inception_c3_conv6_4_1x3_relu
I0305 12:07:05.696194 16077 net.cpp:434] inception_c3_conv6_4_1x3_relu <- inception_c3_conv6_4_1x3
I0305 12:07:05.696197 16077 net.cpp:395] inception_c3_conv6_4_1x3_relu -> inception_c3_conv6_4_1x3 (in-place)
I0305 12:07:05.696424 16077 net.cpp:150] Setting up inception_c3_conv6_4_1x3_relu
I0305 12:07:05.696432 16077 net.cpp:157] Top shape: 8 256 8 8 (131072)
I0305 12:07:05.696434 16077 net.cpp:165] Memory required for data: 2669241824
I0305 12:07:05.696436 16077 layer_factory.hpp:77] Creating layer inception_c3_concat
I0305 12:07:05.696442 16077 net.cpp:100] Creating Layer inception_c3_concat
I0305 12:07:05.696446 16077 net.cpp:434] inception_c3_concat <- inception_c3_conv1_2_1x1
I0305 12:07:05.696449 16077 net.cpp:434] inception_c3_concat <- inception_c3_conv2_1_1x1
I0305 12:07:05.696452 16077 net.cpp:434] inception_c3_concat <- inception_c3_conv3_2_1x3
I0305 12:07:05.696455 16077 net.cpp:434] inception_c3_concat <- inception_c3_conv4_2_3x1
I0305 12:07:05.696458 16077 net.cpp:434] inception_c3_concat <- inception_c3_conv5_4_3x1
I0305 12:07:05.696461 16077 net.cpp:434] inception_c3_concat <- inception_c3_conv6_4_1x3
I0305 12:07:05.696465 16077 net.cpp:408] inception_c3_concat -> inception_c3_concat
I0305 12:07:05.696501 16077 net.cpp:150] Setting up inception_c3_concat
I0305 12:07:05.696516 16077 net.cpp:157] Top shape: 8 1536 8 8 (786432)
I0305 12:07:05.696518 16077 net.cpp:165] Memory required for data: 2672387552
I0305 12:07:05.696521 16077 layer_factory.hpp:77] Creating layer average_pool
I0305 12:07:05.696527 16077 net.cpp:100] Creating Layer average_pool
I0305 12:07:05.696529 16077 net.cpp:434] average_pool <- inception_c3_concat
I0305 12:07:05.696534 16077 net.cpp:408] average_pool -> average_pool
I0305 12:07:05.696779 16077 net.cpp:150] Setting up average_pool
I0305 12:07:05.696789 16077 net.cpp:157] Top shape: 8 1536 1 1 (12288)
I0305 12:07:05.696790 16077 net.cpp:165] Memory required for data: 2672436704
I0305 12:07:05.696794 16077 layer_factory.hpp:77] Creating layer dropout
I0305 12:07:05.696887 16077 net.cpp:100] Creating Layer dropout
I0305 12:07:05.696892 16077 net.cpp:434] dropout <- average_pool
I0305 12:07:05.696897 16077 net.cpp:408] dropout -> dropout
I0305 12:07:05.696935 16077 net.cpp:150] Setting up dropout
I0305 12:07:05.696941 16077 net.cpp:157] Top shape: 8 1536 1 1 (12288)
I0305 12:07:05.696943 16077 net.cpp:165] Memory required for data: 2672485856
I0305 12:07:05.696947 16077 layer_factory.hpp:77] Creating layer classifier
I0305 12:07:05.696952 16077 net.cpp:100] Creating Layer classifier
I0305 12:07:05.696955 16077 net.cpp:434] classifier <- dropout
I0305 12:07:05.696959 16077 net.cpp:408] classifier -> classifier
I0305 12:07:05.697156 16077 net.cpp:150] Setting up classifier
I0305 12:07:05.697163 16077 net.cpp:157] Top shape: 8 12 (96)
I0305 12:07:05.697165 16077 net.cpp:165] Memory required for data: 2672486240
I0305 12:07:05.697170 16077 layer_factory.hpp:77] Creating layer classifier_classifier_0_split
I0305 12:07:05.697175 16077 net.cpp:100] Creating Layer classifier_classifier_0_split
I0305 12:07:05.697177 16077 net.cpp:434] classifier_classifier_0_split <- classifier
I0305 12:07:05.697181 16077 net.cpp:408] classifier_classifier_0_split -> classifier_classifier_0_split_0
I0305 12:07:05.697186 16077 net.cpp:408] classifier_classifier_0_split -> classifier_classifier_0_split_1
I0305 12:07:05.697192 16077 net.cpp:408] classifier_classifier_0_split -> classifier_classifier_0_split_2
I0305 12:07:05.697237 16077 net.cpp:150] Setting up classifier_classifier_0_split
I0305 12:07:05.697242 16077 net.cpp:157] Top shape: 8 12 (96)
I0305 12:07:05.697244 16077 net.cpp:157] Top shape: 8 12 (96)
I0305 12:07:05.697247 16077 net.cpp:157] Top shape: 8 12 (96)
I0305 12:07:05.697249 16077 net.cpp:165] Memory required for data: 2672487392
I0305 12:07:05.697252 16077 layer_factory.hpp:77] Creating layer loss/loss
I0305 12:07:05.697255 16077 net.cpp:100] Creating Layer loss/loss
I0305 12:07:05.697258 16077 net.cpp:434] loss/loss <- classifier_classifier_0_split_0
I0305 12:07:05.697263 16077 net.cpp:434] loss/loss <- label_data_1_split_0
I0305 12:07:05.697266 16077 net.cpp:408] loss/loss -> loss/loss
…
